<?xml version="1.0" ?>
<net name="face-detection-0105" version="10">
	<layers>
		<layer id="0" name="10802671/Output_0/Data__const1250_const" type="Const" version="opset1">
			<data element_type="f16" offset="0" shape="2704" size="5408"/>
			<output>
				<port id="1" precision="FP16">
					<dim>2704</dim>
				</port>
			</output>
		</layer>
		<layer id="1" name="image" type="Parameter" version="opset1">
			<data element_type="f16" shape="1,3,416,416"/>
			<output>
				<port id="0" precision="FP16">
					<dim>1</dim>
					<dim>3</dim>
					<dim>416</dim>
					<dim>416</dim>
				</port>
			</output>
		</layer>
		<layer id="2" name="62796283_const" type="Const" version="opset1">
			<data element_type="f16" offset="5408" shape="" size="2"/>
			<output>
				<port id="1" precision="FP16"/>
			</output>
		</layer>
		<layer id="3" name="62806284_const" type="Const" version="opset1">
			<data element_type="f16" offset="5410" shape="" size="2"/>
			<output>
				<port id="1" precision="FP16"/>
			</output>
		</layer>
		<layer id="4" name="62816285_const" type="Const" version="opset1">
			<data element_type="f16" offset="5408" shape="" size="2"/>
			<output>
				<port id="1" precision="FP16"/>
			</output>
		</layer>
		<layer id="5" name="62826286_const" type="Const" version="opset1">
			<data element_type="f16" offset="5410" shape="" size="2"/>
			<output>
				<port id="1" precision="FP16"/>
			</output>
		</layer>
		<layer id="6" name="377/fq_input_0" type="FakeQuantize" version="opset1">
			<data levels="256"/>
			<input>
				<port id="0">
					<dim>1</dim>
					<dim>3</dim>
					<dim>416</dim>
					<dim>416</dim>
				</port>
				<port id="1"/>
				<port id="2"/>
				<port id="3"/>
				<port id="4"/>
			</input>
			<output>
				<port id="5" precision="FP16">
					<dim>1</dim>
					<dim>3</dim>
					<dim>416</dim>
					<dim>416</dim>
				</port>
			</output>
		</layer>
		<layer id="7" name="377/fq_weights_1/Convert_to_float/Cast_015417_const" type="Const" version="opset1">
			<data element_type="u8" offset="5412" shape="32,3,3,3" size="864"/>
			<output>
				<port id="1" precision="U8">
					<dim>32</dim>
					<dim>3</dim>
					<dim>3</dim>
					<dim>3</dim>
				</port>
			</output>
		</layer>
		<layer id="8" name="377/fq_weights_1/Convert_to_float" type="Convert" version="opset1">
			<data destination_type="f16"/>
			<input>
				<port id="0">
					<dim>32</dim>
					<dim>3</dim>
					<dim>3</dim>
					<dim>3</dim>
				</port>
			</input>
			<output>
				<port id="1" precision="FP16">
					<dim>32</dim>
					<dim>3</dim>
					<dim>3</dim>
					<dim>3</dim>
				</port>
			</output>
		</layer>
		<layer id="9" name="377/fq_weights_1/Copy/out_low12844_const" type="Const" version="opset1">
			<data element_type="f16" offset="6276" shape="1" size="2"/>
			<output>
				<port id="1" precision="FP16">
					<dim>1</dim>
				</port>
			</output>
		</layer>
		<layer id="10" name="377/fq_weights_1/Copy/out_high12845_const" type="Const" version="opset1">
			<data element_type="f16" offset="6278" shape="1" size="2"/>
			<output>
				<port id="1" precision="FP16">
					<dim>1</dim>
				</port>
			</output>
		</layer>
		<layer id="11" name="62916295_const" type="Const" version="opset1">
			<data element_type="f16" offset="6280" shape="32,1,1,1" size="64"/>
			<output>
				<port id="1" precision="FP16">
					<dim>32</dim>
					<dim>1</dim>
					<dim>1</dim>
					<dim>1</dim>
				</port>
			</output>
		</layer>
		<layer id="12" name="62926296_const" type="Const" version="opset1">
			<data element_type="f16" offset="6344" shape="32,1,1,1" size="64"/>
			<output>
				<port id="1" precision="FP16">
					<dim>32</dim>
					<dim>1</dim>
					<dim>1</dim>
					<dim>1</dim>
				</port>
			</output>
		</layer>
		<layer id="13" name="377/fq_weights_1" type="FakeQuantize" version="opset1">
			<data levels="255"/>
			<input>
				<port id="0">
					<dim>32</dim>
					<dim>3</dim>
					<dim>3</dim>
					<dim>3</dim>
				</port>
				<port id="1">
					<dim>1</dim>
				</port>
				<port id="2">
					<dim>1</dim>
				</port>
				<port id="3">
					<dim>32</dim>
					<dim>1</dim>
					<dim>1</dim>
					<dim>1</dim>
				</port>
				<port id="4">
					<dim>32</dim>
					<dim>1</dim>
					<dim>1</dim>
					<dim>1</dim>
				</port>
			</input>
			<output>
				<port id="5" precision="FP16">
					<dim>32</dim>
					<dim>3</dim>
					<dim>3</dim>
					<dim>3</dim>
				</port>
			</output>
		</layer>
		<layer id="14" name="377" type="Convolution" version="opset1">
			<data dilations="1,1" output_padding="0,0" pads_begin="1,1" pads_end="1,1" strides="2,2"/>
			<input>
				<port id="0">
					<dim>1</dim>
					<dim>3</dim>
					<dim>416</dim>
					<dim>416</dim>
				</port>
				<port id="1">
					<dim>32</dim>
					<dim>3</dim>
					<dim>3</dim>
					<dim>3</dim>
				</port>
			</input>
			<output>
				<port id="2" precision="FP16">
					<dim>1</dim>
					<dim>32</dim>
					<dim>208</dim>
					<dim>208</dim>
				</port>
			</output>
		</layer>
		<layer id="15" name="data_add_25629/copy_const1254_const" type="Const" version="opset1">
			<data element_type="f16" offset="6408" shape="1,32,1,1" size="64"/>
			<output>
				<port id="1" precision="FP16">
					<dim>1</dim>
					<dim>32</dim>
					<dim>1</dim>
					<dim>1</dim>
				</port>
			</output>
		</layer>
		<layer id="16" name="378/variance/Fused_Add_" type="Add" version="opset1">
			<input>
				<port id="0">
					<dim>1</dim>
					<dim>32</dim>
					<dim>208</dim>
					<dim>208</dim>
				</port>
				<port id="1">
					<dim>1</dim>
					<dim>32</dim>
					<dim>1</dim>
					<dim>1</dim>
				</port>
			</input>
			<output>
				<port id="2" precision="FP16">
					<dim>1</dim>
					<dim>32</dim>
					<dim>208</dim>
					<dim>208</dim>
				</port>
			</output>
		</layer>
		<layer id="17" name="379" type="Clamp" version="opset1">
			<data max="6.0" min="0.0"/>
			<input>
				<port id="0">
					<dim>1</dim>
					<dim>32</dim>
					<dim>208</dim>
					<dim>208</dim>
				</port>
			</input>
			<output>
				<port id="1" precision="FP16">
					<dim>1</dim>
					<dim>32</dim>
					<dim>208</dim>
					<dim>208</dim>
				</port>
			</output>
		</layer>
		<layer id="18" name="51395143_const" type="Const" version="opset1">
			<data element_type="f16" offset="6472" shape="" size="2"/>
			<output>
				<port id="1" precision="FP16"/>
			</output>
		</layer>
		<layer id="19" name="51405144_const" type="Const" version="opset1">
			<data element_type="f16" offset="6474" shape="" size="2"/>
			<output>
				<port id="1" precision="FP16"/>
			</output>
		</layer>
		<layer id="20" name="51415145_const" type="Const" version="opset1">
			<data element_type="f16" offset="6472" shape="" size="2"/>
			<output>
				<port id="1" precision="FP16"/>
			</output>
		</layer>
		<layer id="21" name="51425146_const" type="Const" version="opset1">
			<data element_type="f16" offset="6474" shape="" size="2"/>
			<output>
				<port id="1" precision="FP16"/>
			</output>
		</layer>
		<layer id="22" name="380/fq_input_0" type="FakeQuantize" version="opset1">
			<data levels="256"/>
			<input>
				<port id="0">
					<dim>1</dim>
					<dim>32</dim>
					<dim>208</dim>
					<dim>208</dim>
				</port>
				<port id="1"/>
				<port id="2"/>
				<port id="3"/>
				<port id="4"/>
			</input>
			<output>
				<port id="5" precision="FP16">
					<dim>1</dim>
					<dim>32</dim>
					<dim>208</dim>
					<dim>208</dim>
				</port>
			</output>
		</layer>
		<layer id="23" name="380/fq_weights_1/Convert_to_float/Cast_015663_const" type="Const" version="opset1">
			<data element_type="u8" offset="6476" shape="32,32,1,1" size="1024"/>
			<output>
				<port id="1" precision="U8">
					<dim>32</dim>
					<dim>32</dim>
					<dim>1</dim>
					<dim>1</dim>
				</port>
			</output>
		</layer>
		<layer id="24" name="380/fq_weights_1/Convert_to_float" type="Convert" version="opset1">
			<data destination_type="f16"/>
			<input>
				<port id="0">
					<dim>32</dim>
					<dim>32</dim>
					<dim>1</dim>
					<dim>1</dim>
				</port>
			</input>
			<output>
				<port id="1" precision="FP16">
					<dim>32</dim>
					<dim>32</dim>
					<dim>1</dim>
					<dim>1</dim>
				</port>
			</output>
		</layer>
		<layer id="25" name="380/fq_weights_1/Copy/out_low12748_const" type="Const" version="opset1">
			<data element_type="f16" offset="7500" shape="1" size="2"/>
			<output>
				<port id="1" precision="FP16">
					<dim>1</dim>
				</port>
			</output>
		</layer>
		<layer id="26" name="380/fq_weights_1/Copy/out_high12749_const" type="Const" version="opset1">
			<data element_type="f16" offset="6278" shape="1" size="2"/>
			<output>
				<port id="1" precision="FP16">
					<dim>1</dim>
				</port>
			</output>
		</layer>
		<layer id="27" name="51515155_const" type="Const" version="opset1">
			<data element_type="f16" offset="7502" shape="32,1,1,1" size="64"/>
			<output>
				<port id="1" precision="FP16">
					<dim>32</dim>
					<dim>1</dim>
					<dim>1</dim>
					<dim>1</dim>
				</port>
			</output>
		</layer>
		<layer id="28" name="51525156_const" type="Const" version="opset1">
			<data element_type="f16" offset="7566" shape="32,1,1,1" size="64"/>
			<output>
				<port id="1" precision="FP16">
					<dim>32</dim>
					<dim>1</dim>
					<dim>1</dim>
					<dim>1</dim>
				</port>
			</output>
		</layer>
		<layer id="29" name="380/fq_weights_1" type="FakeQuantize" version="opset1">
			<data levels="255"/>
			<input>
				<port id="0">
					<dim>32</dim>
					<dim>32</dim>
					<dim>1</dim>
					<dim>1</dim>
				</port>
				<port id="1">
					<dim>1</dim>
				</port>
				<port id="2">
					<dim>1</dim>
				</port>
				<port id="3">
					<dim>32</dim>
					<dim>1</dim>
					<dim>1</dim>
					<dim>1</dim>
				</port>
				<port id="4">
					<dim>32</dim>
					<dim>1</dim>
					<dim>1</dim>
					<dim>1</dim>
				</port>
			</input>
			<output>
				<port id="5" precision="FP16">
					<dim>32</dim>
					<dim>32</dim>
					<dim>1</dim>
					<dim>1</dim>
				</port>
			</output>
		</layer>
		<layer id="30" name="380" type="Convolution" version="opset1">
			<data dilations="1,1" output_padding="0,0" pads_begin="0,0" pads_end="0,0" strides="1,1"/>
			<input>
				<port id="0">
					<dim>1</dim>
					<dim>32</dim>
					<dim>208</dim>
					<dim>208</dim>
				</port>
				<port id="1">
					<dim>32</dim>
					<dim>32</dim>
					<dim>1</dim>
					<dim>1</dim>
				</port>
			</input>
			<output>
				<port id="2" precision="FP16">
					<dim>1</dim>
					<dim>32</dim>
					<dim>208</dim>
					<dim>208</dim>
				</port>
			</output>
		</layer>
		<layer id="31" name="data_add_2563225637/copy_const1259_const" type="Const" version="opset1">
			<data element_type="f16" offset="7630" shape="1,32,1,1" size="64"/>
			<output>
				<port id="1" precision="FP16">
					<dim>1</dim>
					<dim>32</dim>
					<dim>1</dim>
					<dim>1</dim>
				</port>
			</output>
		</layer>
		<layer id="32" name="381/variance/Fused_Add_" type="Add" version="opset1">
			<input>
				<port id="0">
					<dim>1</dim>
					<dim>32</dim>
					<dim>208</dim>
					<dim>208</dim>
				</port>
				<port id="1">
					<dim>1</dim>
					<dim>32</dim>
					<dim>1</dim>
					<dim>1</dim>
				</port>
			</input>
			<output>
				<port id="2" precision="FP16">
					<dim>1</dim>
					<dim>32</dim>
					<dim>208</dim>
					<dim>208</dim>
				</port>
			</output>
		</layer>
		<layer id="33" name="382" type="Clamp" version="opset1">
			<data max="6.0" min="0.0"/>
			<input>
				<port id="0">
					<dim>1</dim>
					<dim>32</dim>
					<dim>208</dim>
					<dim>208</dim>
				</port>
			</input>
			<output>
				<port id="1" precision="FP16">
					<dim>1</dim>
					<dim>32</dim>
					<dim>208</dim>
					<dim>208</dim>
				</port>
			</output>
		</layer>
		<layer id="34" name="60996103_const" type="Const" version="opset1">
			<data element_type="f16" offset="7694" shape="1,32,1,1" size="64"/>
			<output>
				<port id="1" precision="FP16">
					<dim>1</dim>
					<dim>32</dim>
					<dim>1</dim>
					<dim>1</dim>
				</port>
			</output>
		</layer>
		<layer id="35" name="61006104_const" type="Const" version="opset1">
			<data element_type="f16" offset="7758" shape="1,32,1,1" size="64"/>
			<output>
				<port id="1" precision="FP16">
					<dim>1</dim>
					<dim>32</dim>
					<dim>1</dim>
					<dim>1</dim>
				</port>
			</output>
		</layer>
		<layer id="36" name="61016105_const" type="Const" version="opset1">
			<data element_type="f16" offset="7694" shape="1,32,1,1" size="64"/>
			<output>
				<port id="1" precision="FP16">
					<dim>1</dim>
					<dim>32</dim>
					<dim>1</dim>
					<dim>1</dim>
				</port>
			</output>
		</layer>
		<layer id="37" name="61026106_const" type="Const" version="opset1">
			<data element_type="f16" offset="7758" shape="1,32,1,1" size="64"/>
			<output>
				<port id="1" precision="FP16">
					<dim>1</dim>
					<dim>32</dim>
					<dim>1</dim>
					<dim>1</dim>
				</port>
			</output>
		</layer>
		<layer id="38" name="383/fq_input_0" type="FakeQuantize" version="opset1">
			<data levels="256"/>
			<input>
				<port id="0">
					<dim>1</dim>
					<dim>32</dim>
					<dim>208</dim>
					<dim>208</dim>
				</port>
				<port id="1">
					<dim>1</dim>
					<dim>32</dim>
					<dim>1</dim>
					<dim>1</dim>
				</port>
				<port id="2">
					<dim>1</dim>
					<dim>32</dim>
					<dim>1</dim>
					<dim>1</dim>
				</port>
				<port id="3">
					<dim>1</dim>
					<dim>32</dim>
					<dim>1</dim>
					<dim>1</dim>
				</port>
				<port id="4">
					<dim>1</dim>
					<dim>32</dim>
					<dim>1</dim>
					<dim>1</dim>
				</port>
			</input>
			<output>
				<port id="5" precision="FP16">
					<dim>1</dim>
					<dim>32</dim>
					<dim>208</dim>
					<dim>208</dim>
				</port>
			</output>
		</layer>
		<layer id="39" name="383/fq_weights_1/Convert_to_float/Cast_015737_const" type="Const" version="opset1">
			<data element_type="u8" offset="7822" shape="32,1,3,3" size="288"/>
			<output>
				<port id="1" precision="U8">
					<dim>32</dim>
					<dim>1</dim>
					<dim>3</dim>
					<dim>3</dim>
				</port>
			</output>
		</layer>
		<layer id="40" name="383/fq_weights_1/Convert_to_float" type="Convert" version="opset1">
			<data destination_type="f16"/>
			<input>
				<port id="0">
					<dim>32</dim>
					<dim>1</dim>
					<dim>3</dim>
					<dim>3</dim>
				</port>
			</input>
			<output>
				<port id="1" precision="FP16">
					<dim>32</dim>
					<dim>1</dim>
					<dim>3</dim>
					<dim>3</dim>
				</port>
			</output>
		</layer>
		<layer id="41" name="383/fq_weights_1/Copy/out_low13076_const" type="Const" version="opset1">
			<data element_type="f16" offset="7500" shape="1" size="2"/>
			<output>
				<port id="1" precision="FP16">
					<dim>1</dim>
				</port>
			</output>
		</layer>
		<layer id="42" name="383/fq_weights_1/Copy/out_high13077_const" type="Const" version="opset1">
			<data element_type="f16" offset="6278" shape="1" size="2"/>
			<output>
				<port id="1" precision="FP16">
					<dim>1</dim>
				</port>
			</output>
		</layer>
		<layer id="43" name="61116115_const" type="Const" version="opset1">
			<data element_type="f16" offset="8110" shape="32,1,1,1" size="64"/>
			<output>
				<port id="1" precision="FP16">
					<dim>32</dim>
					<dim>1</dim>
					<dim>1</dim>
					<dim>1</dim>
				</port>
			</output>
		</layer>
		<layer id="44" name="61126116_const" type="Const" version="opset1">
			<data element_type="f16" offset="8174" shape="32,1,1,1" size="64"/>
			<output>
				<port id="1" precision="FP16">
					<dim>32</dim>
					<dim>1</dim>
					<dim>1</dim>
					<dim>1</dim>
				</port>
			</output>
		</layer>
		<layer id="45" name="383/fq_weights_1" type="FakeQuantize" version="opset1">
			<data levels="255"/>
			<input>
				<port id="0">
					<dim>32</dim>
					<dim>1</dim>
					<dim>3</dim>
					<dim>3</dim>
				</port>
				<port id="1">
					<dim>1</dim>
				</port>
				<port id="2">
					<dim>1</dim>
				</port>
				<port id="3">
					<dim>32</dim>
					<dim>1</dim>
					<dim>1</dim>
					<dim>1</dim>
				</port>
				<port id="4">
					<dim>32</dim>
					<dim>1</dim>
					<dim>1</dim>
					<dim>1</dim>
				</port>
			</input>
			<output>
				<port id="5" precision="FP16">
					<dim>32</dim>
					<dim>1</dim>
					<dim>3</dim>
					<dim>3</dim>
				</port>
			</output>
		</layer>
		<layer id="46" name="17473/value17475_const" type="Const" version="opset1">
			<data element_type="i64" offset="8238" shape="5" size="40"/>
			<output>
				<port id="1" precision="I64">
					<dim>5</dim>
				</port>
			</output>
		</layer>
		<layer id="47" name="17473" type="Reshape" version="opset1">
			<data special_zero="True"/>
			<input>
				<port id="0">
					<dim>32</dim>
					<dim>1</dim>
					<dim>3</dim>
					<dim>3</dim>
				</port>
				<port id="1">
					<dim>5</dim>
				</port>
			</input>
			<output>
				<port id="2" precision="FP16">
					<dim>32</dim>
					<dim>1</dim>
					<dim>1</dim>
					<dim>3</dim>
					<dim>3</dim>
				</port>
			</output>
		</layer>
		<layer id="48" name="383" type="GroupConvolution" version="opset1">
			<data dilations="1,1" output_padding="0,0" pads_begin="1,1" pads_end="1,1" strides="1,1"/>
			<input>
				<port id="0">
					<dim>1</dim>
					<dim>32</dim>
					<dim>208</dim>
					<dim>208</dim>
				</port>
				<port id="1">
					<dim>32</dim>
					<dim>1</dim>
					<dim>1</dim>
					<dim>3</dim>
					<dim>3</dim>
				</port>
			</input>
			<output>
				<port id="2" precision="FP16">
					<dim>1</dim>
					<dim>32</dim>
					<dim>208</dim>
					<dim>208</dim>
				</port>
			</output>
		</layer>
		<layer id="49" name="data_add_2564025645/copy_const1264_const" type="Const" version="opset1">
			<data element_type="f16" offset="8278" shape="1,32,1,1" size="64"/>
			<output>
				<port id="1" precision="FP16">
					<dim>1</dim>
					<dim>32</dim>
					<dim>1</dim>
					<dim>1</dim>
				</port>
			</output>
		</layer>
		<layer id="50" name="384/variance/Fused_Add_" type="Add" version="opset1">
			<input>
				<port id="0">
					<dim>1</dim>
					<dim>32</dim>
					<dim>208</dim>
					<dim>208</dim>
				</port>
				<port id="1">
					<dim>1</dim>
					<dim>32</dim>
					<dim>1</dim>
					<dim>1</dim>
				</port>
			</input>
			<output>
				<port id="2" precision="FP16">
					<dim>1</dim>
					<dim>32</dim>
					<dim>208</dim>
					<dim>208</dim>
				</port>
			</output>
		</layer>
		<layer id="51" name="385" type="Clamp" version="opset1">
			<data max="6.0" min="0.0"/>
			<input>
				<port id="0">
					<dim>1</dim>
					<dim>32</dim>
					<dim>208</dim>
					<dim>208</dim>
				</port>
			</input>
			<output>
				<port id="1" precision="FP16">
					<dim>1</dim>
					<dim>32</dim>
					<dim>208</dim>
					<dim>208</dim>
				</port>
			</output>
		</layer>
		<layer id="52" name="62196223_const" type="Const" version="opset1">
			<data element_type="f16" offset="8342" shape="" size="2"/>
			<output>
				<port id="1" precision="FP16"/>
			</output>
		</layer>
		<layer id="53" name="62206224_const" type="Const" version="opset1">
			<data element_type="f16" offset="8344" shape="" size="2"/>
			<output>
				<port id="1" precision="FP16"/>
			</output>
		</layer>
		<layer id="54" name="62216225_const" type="Const" version="opset1">
			<data element_type="f16" offset="8342" shape="" size="2"/>
			<output>
				<port id="1" precision="FP16"/>
			</output>
		</layer>
		<layer id="55" name="62226226_const" type="Const" version="opset1">
			<data element_type="f16" offset="8344" shape="" size="2"/>
			<output>
				<port id="1" precision="FP16"/>
			</output>
		</layer>
		<layer id="56" name="386/fq_input_0" type="FakeQuantize" version="opset1">
			<data levels="256"/>
			<input>
				<port id="0">
					<dim>1</dim>
					<dim>32</dim>
					<dim>208</dim>
					<dim>208</dim>
				</port>
				<port id="1"/>
				<port id="2"/>
				<port id="3"/>
				<port id="4"/>
			</input>
			<output>
				<port id="5" precision="FP16">
					<dim>1</dim>
					<dim>32</dim>
					<dim>208</dim>
					<dim>208</dim>
				</port>
			</output>
		</layer>
		<layer id="57" name="386/fq_weights_1/Convert_to_float/Cast_015305_const" type="Const" version="opset1">
			<data element_type="u8" offset="8346" shape="16,32,1,1" size="512"/>
			<output>
				<port id="1" precision="U8">
					<dim>16</dim>
					<dim>32</dim>
					<dim>1</dim>
					<dim>1</dim>
				</port>
			</output>
		</layer>
		<layer id="58" name="386/fq_weights_1/Convert_to_float" type="Convert" version="opset1">
			<data destination_type="f16"/>
			<input>
				<port id="0">
					<dim>16</dim>
					<dim>32</dim>
					<dim>1</dim>
					<dim>1</dim>
				</port>
			</input>
			<output>
				<port id="1" precision="FP16">
					<dim>16</dim>
					<dim>32</dim>
					<dim>1</dim>
					<dim>1</dim>
				</port>
			</output>
		</layer>
		<layer id="59" name="386/fq_weights_1/Copy/out_low12724_const" type="Const" version="opset1">
			<data element_type="f16" offset="8858" shape="1" size="2"/>
			<output>
				<port id="1" precision="FP16">
					<dim>1</dim>
				</port>
			</output>
		</layer>
		<layer id="60" name="386/fq_weights_1/Copy/out_high12725_const" type="Const" version="opset1">
			<data element_type="f16" offset="6278" shape="1" size="2"/>
			<output>
				<port id="1" precision="FP16">
					<dim>1</dim>
				</port>
			</output>
		</layer>
		<layer id="61" name="62316235_const" type="Const" version="opset1">
			<data element_type="f16" offset="8860" shape="16,1,1,1" size="32"/>
			<output>
				<port id="1" precision="FP16">
					<dim>16</dim>
					<dim>1</dim>
					<dim>1</dim>
					<dim>1</dim>
				</port>
			</output>
		</layer>
		<layer id="62" name="62326236_const" type="Const" version="opset1">
			<data element_type="f16" offset="8892" shape="16,1,1,1" size="32"/>
			<output>
				<port id="1" precision="FP16">
					<dim>16</dim>
					<dim>1</dim>
					<dim>1</dim>
					<dim>1</dim>
				</port>
			</output>
		</layer>
		<layer id="63" name="386/fq_weights_1" type="FakeQuantize" version="opset1">
			<data levels="255"/>
			<input>
				<port id="0">
					<dim>16</dim>
					<dim>32</dim>
					<dim>1</dim>
					<dim>1</dim>
				</port>
				<port id="1">
					<dim>1</dim>
				</port>
				<port id="2">
					<dim>1</dim>
				</port>
				<port id="3">
					<dim>16</dim>
					<dim>1</dim>
					<dim>1</dim>
					<dim>1</dim>
				</port>
				<port id="4">
					<dim>16</dim>
					<dim>1</dim>
					<dim>1</dim>
					<dim>1</dim>
				</port>
			</input>
			<output>
				<port id="5" precision="FP16">
					<dim>16</dim>
					<dim>32</dim>
					<dim>1</dim>
					<dim>1</dim>
				</port>
			</output>
		</layer>
		<layer id="64" name="386" type="Convolution" version="opset1">
			<data dilations="1,1" output_padding="0,0" pads_begin="0,0" pads_end="0,0" strides="1,1"/>
			<input>
				<port id="0">
					<dim>1</dim>
					<dim>32</dim>
					<dim>208</dim>
					<dim>208</dim>
				</port>
				<port id="1">
					<dim>16</dim>
					<dim>32</dim>
					<dim>1</dim>
					<dim>1</dim>
				</port>
			</input>
			<output>
				<port id="2" precision="FP16">
					<dim>1</dim>
					<dim>16</dim>
					<dim>208</dim>
					<dim>208</dim>
				</port>
			</output>
		</layer>
		<layer id="65" name="data_add_2564825653/copy_const1269_const" type="Const" version="opset1">
			<data element_type="f16" offset="8924" shape="1,16,1,1" size="32"/>
			<output>
				<port id="1" precision="FP16">
					<dim>1</dim>
					<dim>16</dim>
					<dim>1</dim>
					<dim>1</dim>
				</port>
			</output>
		</layer>
		<layer id="66" name="387/variance/Fused_Add_" type="Add" version="opset1">
			<input>
				<port id="0">
					<dim>1</dim>
					<dim>16</dim>
					<dim>208</dim>
					<dim>208</dim>
				</port>
				<port id="1">
					<dim>1</dim>
					<dim>16</dim>
					<dim>1</dim>
					<dim>1</dim>
				</port>
			</input>
			<output>
				<port id="2" precision="FP16">
					<dim>1</dim>
					<dim>16</dim>
					<dim>208</dim>
					<dim>208</dim>
				</port>
			</output>
		</layer>
		<layer id="67" name="54895493_const" type="Const" version="opset1">
			<data element_type="f16" offset="8956" shape="" size="2"/>
			<output>
				<port id="1" precision="FP16"/>
			</output>
		</layer>
		<layer id="68" name="54905494_const" type="Const" version="opset1">
			<data element_type="f16" offset="8958" shape="" size="2"/>
			<output>
				<port id="1" precision="FP16"/>
			</output>
		</layer>
		<layer id="69" name="54915495_const" type="Const" version="opset1">
			<data element_type="f16" offset="8956" shape="" size="2"/>
			<output>
				<port id="1" precision="FP16"/>
			</output>
		</layer>
		<layer id="70" name="54925496_const" type="Const" version="opset1">
			<data element_type="f16" offset="8958" shape="" size="2"/>
			<output>
				<port id="1" precision="FP16"/>
			</output>
		</layer>
		<layer id="71" name="388/fq_input_0" type="FakeQuantize" version="opset1">
			<data levels="256"/>
			<input>
				<port id="0">
					<dim>1</dim>
					<dim>16</dim>
					<dim>208</dim>
					<dim>208</dim>
				</port>
				<port id="1"/>
				<port id="2"/>
				<port id="3"/>
				<port id="4"/>
			</input>
			<output>
				<port id="5" precision="FP16">
					<dim>1</dim>
					<dim>16</dim>
					<dim>208</dim>
					<dim>208</dim>
				</port>
			</output>
		</layer>
		<layer id="72" name="388/fq_weights_1/Convert_to_float/Cast_015261_const" type="Const" version="opset1">
			<data element_type="u8" offset="8960" shape="96,16,1,1" size="1536"/>
			<output>
				<port id="1" precision="U8">
					<dim>96</dim>
					<dim>16</dim>
					<dim>1</dim>
					<dim>1</dim>
				</port>
			</output>
		</layer>
		<layer id="73" name="388/fq_weights_1/Convert_to_float" type="Convert" version="opset1">
			<data destination_type="f16"/>
			<input>
				<port id="0">
					<dim>96</dim>
					<dim>16</dim>
					<dim>1</dim>
					<dim>1</dim>
				</port>
			</input>
			<output>
				<port id="1" precision="FP16">
					<dim>96</dim>
					<dim>16</dim>
					<dim>1</dim>
					<dim>1</dim>
				</port>
			</output>
		</layer>
		<layer id="74" name="388/fq_weights_1/Copy/out_low13140_const" type="Const" version="opset1">
			<data element_type="f16" offset="8858" shape="1" size="2"/>
			<output>
				<port id="1" precision="FP16">
					<dim>1</dim>
				</port>
			</output>
		</layer>
		<layer id="75" name="388/fq_weights_1/Copy/out_high13141_const" type="Const" version="opset1">
			<data element_type="f16" offset="6278" shape="1" size="2"/>
			<output>
				<port id="1" precision="FP16">
					<dim>1</dim>
				</port>
			</output>
		</layer>
		<layer id="76" name="55015505_const" type="Const" version="opset1">
			<data element_type="f16" offset="10496" shape="96,1,1,1" size="192"/>
			<output>
				<port id="1" precision="FP16">
					<dim>96</dim>
					<dim>1</dim>
					<dim>1</dim>
					<dim>1</dim>
				</port>
			</output>
		</layer>
		<layer id="77" name="55025506_const" type="Const" version="opset1">
			<data element_type="f16" offset="10688" shape="96,1,1,1" size="192"/>
			<output>
				<port id="1" precision="FP16">
					<dim>96</dim>
					<dim>1</dim>
					<dim>1</dim>
					<dim>1</dim>
				</port>
			</output>
		</layer>
		<layer id="78" name="388/fq_weights_1" type="FakeQuantize" version="opset1">
			<data levels="255"/>
			<input>
				<port id="0">
					<dim>96</dim>
					<dim>16</dim>
					<dim>1</dim>
					<dim>1</dim>
				</port>
				<port id="1">
					<dim>1</dim>
				</port>
				<port id="2">
					<dim>1</dim>
				</port>
				<port id="3">
					<dim>96</dim>
					<dim>1</dim>
					<dim>1</dim>
					<dim>1</dim>
				</port>
				<port id="4">
					<dim>96</dim>
					<dim>1</dim>
					<dim>1</dim>
					<dim>1</dim>
				</port>
			</input>
			<output>
				<port id="5" precision="FP16">
					<dim>96</dim>
					<dim>16</dim>
					<dim>1</dim>
					<dim>1</dim>
				</port>
			</output>
		</layer>
		<layer id="79" name="388" type="Convolution" version="opset1">
			<data dilations="1,1" output_padding="0,0" pads_begin="0,0" pads_end="0,0" strides="1,1"/>
			<input>
				<port id="0">
					<dim>1</dim>
					<dim>16</dim>
					<dim>208</dim>
					<dim>208</dim>
				</port>
				<port id="1">
					<dim>96</dim>
					<dim>16</dim>
					<dim>1</dim>
					<dim>1</dim>
				</port>
			</input>
			<output>
				<port id="2" precision="FP16">
					<dim>1</dim>
					<dim>96</dim>
					<dim>208</dim>
					<dim>208</dim>
				</port>
			</output>
		</layer>
		<layer id="80" name="data_add_2565625661/copy_const1273_const" type="Const" version="opset1">
			<data element_type="f16" offset="10880" shape="1,96,1,1" size="192"/>
			<output>
				<port id="1" precision="FP16">
					<dim>1</dim>
					<dim>96</dim>
					<dim>1</dim>
					<dim>1</dim>
				</port>
			</output>
		</layer>
		<layer id="81" name="389/variance/Fused_Add_" type="Add" version="opset1">
			<input>
				<port id="0">
					<dim>1</dim>
					<dim>96</dim>
					<dim>208</dim>
					<dim>208</dim>
				</port>
				<port id="1">
					<dim>1</dim>
					<dim>96</dim>
					<dim>1</dim>
					<dim>1</dim>
				</port>
			</input>
			<output>
				<port id="2" precision="FP16">
					<dim>1</dim>
					<dim>96</dim>
					<dim>208</dim>
					<dim>208</dim>
				</port>
			</output>
		</layer>
		<layer id="82" name="390" type="Clamp" version="opset1">
			<data max="6.0" min="0.0"/>
			<input>
				<port id="0">
					<dim>1</dim>
					<dim>96</dim>
					<dim>208</dim>
					<dim>208</dim>
				</port>
			</input>
			<output>
				<port id="1" precision="FP16">
					<dim>1</dim>
					<dim>96</dim>
					<dim>208</dim>
					<dim>208</dim>
				</port>
			</output>
		</layer>
		<layer id="83" name="56395643_const" type="Const" version="opset1">
			<data element_type="f16" offset="11072" shape="1,96,1,1" size="192"/>
			<output>
				<port id="1" precision="FP16">
					<dim>1</dim>
					<dim>96</dim>
					<dim>1</dim>
					<dim>1</dim>
				</port>
			</output>
		</layer>
		<layer id="84" name="56405644_const" type="Const" version="opset1">
			<data element_type="f16" offset="11264" shape="1,96,1,1" size="192"/>
			<output>
				<port id="1" precision="FP16">
					<dim>1</dim>
					<dim>96</dim>
					<dim>1</dim>
					<dim>1</dim>
				</port>
			</output>
		</layer>
		<layer id="85" name="56415645_const" type="Const" version="opset1">
			<data element_type="f16" offset="11072" shape="1,96,1,1" size="192"/>
			<output>
				<port id="1" precision="FP16">
					<dim>1</dim>
					<dim>96</dim>
					<dim>1</dim>
					<dim>1</dim>
				</port>
			</output>
		</layer>
		<layer id="86" name="56425646_const" type="Const" version="opset1">
			<data element_type="f16" offset="11264" shape="1,96,1,1" size="192"/>
			<output>
				<port id="1" precision="FP16">
					<dim>1</dim>
					<dim>96</dim>
					<dim>1</dim>
					<dim>1</dim>
				</port>
			</output>
		</layer>
		<layer id="87" name="391/fq_input_0" type="FakeQuantize" version="opset1">
			<data levels="256"/>
			<input>
				<port id="0">
					<dim>1</dim>
					<dim>96</dim>
					<dim>208</dim>
					<dim>208</dim>
				</port>
				<port id="1">
					<dim>1</dim>
					<dim>96</dim>
					<dim>1</dim>
					<dim>1</dim>
				</port>
				<port id="2">
					<dim>1</dim>
					<dim>96</dim>
					<dim>1</dim>
					<dim>1</dim>
				</port>
				<port id="3">
					<dim>1</dim>
					<dim>96</dim>
					<dim>1</dim>
					<dim>1</dim>
				</port>
				<port id="4">
					<dim>1</dim>
					<dim>96</dim>
					<dim>1</dim>
					<dim>1</dim>
				</port>
			</input>
			<output>
				<port id="5" precision="FP16">
					<dim>1</dim>
					<dim>96</dim>
					<dim>208</dim>
					<dim>208</dim>
				</port>
			</output>
		</layer>
		<layer id="88" name="391/fq_weights_1/Convert_to_float/Cast_015381_const" type="Const" version="opset1">
			<data element_type="u8" offset="11456" shape="96,1,3,3" size="864"/>
			<output>
				<port id="1" precision="U8">
					<dim>96</dim>
					<dim>1</dim>
					<dim>3</dim>
					<dim>3</dim>
				</port>
			</output>
		</layer>
		<layer id="89" name="391/fq_weights_1/Convert_to_float" type="Convert" version="opset1">
			<data destination_type="f16"/>
			<input>
				<port id="0">
					<dim>96</dim>
					<dim>1</dim>
					<dim>3</dim>
					<dim>3</dim>
				</port>
			</input>
			<output>
				<port id="1" precision="FP16">
					<dim>96</dim>
					<dim>1</dim>
					<dim>3</dim>
					<dim>3</dim>
				</port>
			</output>
		</layer>
		<layer id="90" name="391/fq_weights_1/Copy/out_low13508_const" type="Const" version="opset1">
			<data element_type="f16" offset="8858" shape="1" size="2"/>
			<output>
				<port id="1" precision="FP16">
					<dim>1</dim>
				</port>
			</output>
		</layer>
		<layer id="91" name="391/fq_weights_1/Copy/out_high13509_const" type="Const" version="opset1">
			<data element_type="f16" offset="6278" shape="1" size="2"/>
			<output>
				<port id="1" precision="FP16">
					<dim>1</dim>
				</port>
			</output>
		</layer>
		<layer id="92" name="56515655_const" type="Const" version="opset1">
			<data element_type="f16" offset="12320" shape="96,1,1,1" size="192"/>
			<output>
				<port id="1" precision="FP16">
					<dim>96</dim>
					<dim>1</dim>
					<dim>1</dim>
					<dim>1</dim>
				</port>
			</output>
		</layer>
		<layer id="93" name="56525656_const" type="Const" version="opset1">
			<data element_type="f16" offset="12512" shape="96,1,1,1" size="192"/>
			<output>
				<port id="1" precision="FP16">
					<dim>96</dim>
					<dim>1</dim>
					<dim>1</dim>
					<dim>1</dim>
				</port>
			</output>
		</layer>
		<layer id="94" name="391/fq_weights_1" type="FakeQuantize" version="opset1">
			<data levels="255"/>
			<input>
				<port id="0">
					<dim>96</dim>
					<dim>1</dim>
					<dim>3</dim>
					<dim>3</dim>
				</port>
				<port id="1">
					<dim>1</dim>
				</port>
				<port id="2">
					<dim>1</dim>
				</port>
				<port id="3">
					<dim>96</dim>
					<dim>1</dim>
					<dim>1</dim>
					<dim>1</dim>
				</port>
				<port id="4">
					<dim>96</dim>
					<dim>1</dim>
					<dim>1</dim>
					<dim>1</dim>
				</port>
			</input>
			<output>
				<port id="5" precision="FP16">
					<dim>96</dim>
					<dim>1</dim>
					<dim>3</dim>
					<dim>3</dim>
				</port>
			</output>
		</layer>
		<layer id="95" name="17429/value17431_const" type="Const" version="opset1">
			<data element_type="i64" offset="12704" shape="5" size="40"/>
			<output>
				<port id="1" precision="I64">
					<dim>5</dim>
				</port>
			</output>
		</layer>
		<layer id="96" name="17429" type="Reshape" version="opset1">
			<data special_zero="True"/>
			<input>
				<port id="0">
					<dim>96</dim>
					<dim>1</dim>
					<dim>3</dim>
					<dim>3</dim>
				</port>
				<port id="1">
					<dim>5</dim>
				</port>
			</input>
			<output>
				<port id="2" precision="FP16">
					<dim>96</dim>
					<dim>1</dim>
					<dim>1</dim>
					<dim>3</dim>
					<dim>3</dim>
				</port>
			</output>
		</layer>
		<layer id="97" name="391" type="GroupConvolution" version="opset1">
			<data dilations="1,1" output_padding="0,0" pads_begin="1,1" pads_end="1,1" strides="2,2"/>
			<input>
				<port id="0">
					<dim>1</dim>
					<dim>96</dim>
					<dim>208</dim>
					<dim>208</dim>
				</port>
				<port id="1">
					<dim>96</dim>
					<dim>1</dim>
					<dim>1</dim>
					<dim>3</dim>
					<dim>3</dim>
				</port>
			</input>
			<output>
				<port id="2" precision="FP16">
					<dim>1</dim>
					<dim>96</dim>
					<dim>104</dim>
					<dim>104</dim>
				</port>
			</output>
		</layer>
		<layer id="98" name="data_add_2566425669/copy_const1278_const" type="Const" version="opset1">
			<data element_type="f16" offset="12744" shape="1,96,1,1" size="192"/>
			<output>
				<port id="1" precision="FP16">
					<dim>1</dim>
					<dim>96</dim>
					<dim>1</dim>
					<dim>1</dim>
				</port>
			</output>
		</layer>
		<layer id="99" name="392/variance/Fused_Add_" type="Add" version="opset1">
			<input>
				<port id="0">
					<dim>1</dim>
					<dim>96</dim>
					<dim>104</dim>
					<dim>104</dim>
				</port>
				<port id="1">
					<dim>1</dim>
					<dim>96</dim>
					<dim>1</dim>
					<dim>1</dim>
				</port>
			</input>
			<output>
				<port id="2" precision="FP16">
					<dim>1</dim>
					<dim>96</dim>
					<dim>104</dim>
					<dim>104</dim>
				</port>
			</output>
		</layer>
		<layer id="100" name="393" type="Clamp" version="opset1">
			<data max="6.0" min="0.0"/>
			<input>
				<port id="0">
					<dim>1</dim>
					<dim>96</dim>
					<dim>104</dim>
					<dim>104</dim>
				</port>
			</input>
			<output>
				<port id="1" precision="FP16">
					<dim>1</dim>
					<dim>96</dim>
					<dim>104</dim>
					<dim>104</dim>
				</port>
			</output>
		</layer>
		<layer id="101" name="56195623_const" type="Const" version="opset1">
			<data element_type="f16" offset="12936" shape="" size="2"/>
			<output>
				<port id="1" precision="FP16"/>
			</output>
		</layer>
		<layer id="102" name="56205624_const" type="Const" version="opset1">
			<data element_type="f16" offset="12938" shape="" size="2"/>
			<output>
				<port id="1" precision="FP16"/>
			</output>
		</layer>
		<layer id="103" name="56215625_const" type="Const" version="opset1">
			<data element_type="f16" offset="12936" shape="" size="2"/>
			<output>
				<port id="1" precision="FP16"/>
			</output>
		</layer>
		<layer id="104" name="56225626_const" type="Const" version="opset1">
			<data element_type="f16" offset="12938" shape="" size="2"/>
			<output>
				<port id="1" precision="FP16"/>
			</output>
		</layer>
		<layer id="105" name="394/fq_input_0" type="FakeQuantize" version="opset1">
			<data levels="256"/>
			<input>
				<port id="0">
					<dim>1</dim>
					<dim>96</dim>
					<dim>104</dim>
					<dim>104</dim>
				</port>
				<port id="1"/>
				<port id="2"/>
				<port id="3"/>
				<port id="4"/>
			</input>
			<output>
				<port id="5" precision="FP16">
					<dim>1</dim>
					<dim>96</dim>
					<dim>104</dim>
					<dim>104</dim>
				</port>
			</output>
		</layer>
		<layer id="106" name="394/fq_weights_1/Convert_to_float/Cast_015727_const" type="Const" version="opset1">
			<data element_type="u8" offset="12940" shape="24,96,1,1" size="2304"/>
			<output>
				<port id="1" precision="U8">
					<dim>24</dim>
					<dim>96</dim>
					<dim>1</dim>
					<dim>1</dim>
				</port>
			</output>
		</layer>
		<layer id="107" name="394/fq_weights_1/Convert_to_float" type="Convert" version="opset1">
			<data destination_type="f16"/>
			<input>
				<port id="0">
					<dim>24</dim>
					<dim>96</dim>
					<dim>1</dim>
					<dim>1</dim>
				</port>
			</input>
			<output>
				<port id="1" precision="FP16">
					<dim>24</dim>
					<dim>96</dim>
					<dim>1</dim>
					<dim>1</dim>
				</port>
			</output>
		</layer>
		<layer id="108" name="394/fq_weights_1/Copy/out_low13124_const" type="Const" version="opset1">
			<data element_type="f16" offset="15244" shape="1" size="2"/>
			<output>
				<port id="1" precision="FP16">
					<dim>1</dim>
				</port>
			</output>
		</layer>
		<layer id="109" name="394/fq_weights_1/Copy/out_high13125_const" type="Const" version="opset1">
			<data element_type="f16" offset="6278" shape="1" size="2"/>
			<output>
				<port id="1" precision="FP16">
					<dim>1</dim>
				</port>
			</output>
		</layer>
		<layer id="110" name="56315635_const" type="Const" version="opset1">
			<data element_type="f16" offset="15246" shape="24,1,1,1" size="48"/>
			<output>
				<port id="1" precision="FP16">
					<dim>24</dim>
					<dim>1</dim>
					<dim>1</dim>
					<dim>1</dim>
				</port>
			</output>
		</layer>
		<layer id="111" name="56325636_const" type="Const" version="opset1">
			<data element_type="f16" offset="15294" shape="24,1,1,1" size="48"/>
			<output>
				<port id="1" precision="FP16">
					<dim>24</dim>
					<dim>1</dim>
					<dim>1</dim>
					<dim>1</dim>
				</port>
			</output>
		</layer>
		<layer id="112" name="394/fq_weights_1" type="FakeQuantize" version="opset1">
			<data levels="255"/>
			<input>
				<port id="0">
					<dim>24</dim>
					<dim>96</dim>
					<dim>1</dim>
					<dim>1</dim>
				</port>
				<port id="1">
					<dim>1</dim>
				</port>
				<port id="2">
					<dim>1</dim>
				</port>
				<port id="3">
					<dim>24</dim>
					<dim>1</dim>
					<dim>1</dim>
					<dim>1</dim>
				</port>
				<port id="4">
					<dim>24</dim>
					<dim>1</dim>
					<dim>1</dim>
					<dim>1</dim>
				</port>
			</input>
			<output>
				<port id="5" precision="FP16">
					<dim>24</dim>
					<dim>96</dim>
					<dim>1</dim>
					<dim>1</dim>
				</port>
			</output>
		</layer>
		<layer id="113" name="394" type="Convolution" version="opset1">
			<data dilations="1,1" output_padding="0,0" pads_begin="0,0" pads_end="0,0" strides="1,1"/>
			<input>
				<port id="0">
					<dim>1</dim>
					<dim>96</dim>
					<dim>104</dim>
					<dim>104</dim>
				</port>
				<port id="1">
					<dim>24</dim>
					<dim>96</dim>
					<dim>1</dim>
					<dim>1</dim>
				</port>
			</input>
			<output>
				<port id="2" precision="FP16">
					<dim>1</dim>
					<dim>24</dim>
					<dim>104</dim>
					<dim>104</dim>
				</port>
			</output>
		</layer>
		<layer id="114" name="data_add_2567225677/copy_const1283_const" type="Const" version="opset1">
			<data element_type="f16" offset="15342" shape="1,24,1,1" size="48"/>
			<output>
				<port id="1" precision="FP16">
					<dim>1</dim>
					<dim>24</dim>
					<dim>1</dim>
					<dim>1</dim>
				</port>
			</output>
		</layer>
		<layer id="115" name="395/variance/Fused_Add_" type="Add" version="opset1">
			<input>
				<port id="0">
					<dim>1</dim>
					<dim>24</dim>
					<dim>104</dim>
					<dim>104</dim>
				</port>
				<port id="1">
					<dim>1</dim>
					<dim>24</dim>
					<dim>1</dim>
					<dim>1</dim>
				</port>
			</input>
			<output>
				<port id="2" precision="FP16">
					<dim>1</dim>
					<dim>24</dim>
					<dim>104</dim>
					<dim>104</dim>
				</port>
			</output>
		</layer>
		<layer id="116" name="49794983_const" type="Const" version="opset1">
			<data element_type="f16" offset="15390" shape="" size="2"/>
			<output>
				<port id="1" precision="FP16"/>
			</output>
		</layer>
		<layer id="117" name="49804984_const" type="Const" version="opset1">
			<data element_type="f16" offset="15392" shape="" size="2"/>
			<output>
				<port id="1" precision="FP16"/>
			</output>
		</layer>
		<layer id="118" name="49814985_const" type="Const" version="opset1">
			<data element_type="f16" offset="15390" shape="" size="2"/>
			<output>
				<port id="1" precision="FP16"/>
			</output>
		</layer>
		<layer id="119" name="49824986_const" type="Const" version="opset1">
			<data element_type="f16" offset="15392" shape="" size="2"/>
			<output>
				<port id="1" precision="FP16"/>
			</output>
		</layer>
		<layer id="120" name="396/fq_input_0" type="FakeQuantize" version="opset1">
			<data levels="256"/>
			<input>
				<port id="0">
					<dim>1</dim>
					<dim>24</dim>
					<dim>104</dim>
					<dim>104</dim>
				</port>
				<port id="1"/>
				<port id="2"/>
				<port id="3"/>
				<port id="4"/>
			</input>
			<output>
				<port id="5" precision="FP16">
					<dim>1</dim>
					<dim>24</dim>
					<dim>104</dim>
					<dim>104</dim>
				</port>
			</output>
		</layer>
		<layer id="121" name="396/fq_weights_1/Convert_to_float/Cast_015687_const" type="Const" version="opset1">
			<data element_type="u8" offset="15394" shape="144,24,1,1" size="3456"/>
			<output>
				<port id="1" precision="U8">
					<dim>144</dim>
					<dim>24</dim>
					<dim>1</dim>
					<dim>1</dim>
				</port>
			</output>
		</layer>
		<layer id="122" name="396/fq_weights_1/Convert_to_float" type="Convert" version="opset1">
			<data destination_type="f16"/>
			<input>
				<port id="0">
					<dim>144</dim>
					<dim>24</dim>
					<dim>1</dim>
					<dim>1</dim>
				</port>
			</input>
			<output>
				<port id="1" precision="FP16">
					<dim>144</dim>
					<dim>24</dim>
					<dim>1</dim>
					<dim>1</dim>
				</port>
			</output>
		</layer>
		<layer id="123" name="396/fq_weights_1/Copy/out_low12788_const" type="Const" version="opset1">
			<data element_type="f16" offset="15244" shape="1" size="2"/>
			<output>
				<port id="1" precision="FP16">
					<dim>1</dim>
				</port>
			</output>
		</layer>
		<layer id="124" name="396/fq_weights_1/Copy/out_high12789_const" type="Const" version="opset1">
			<data element_type="f16" offset="6278" shape="1" size="2"/>
			<output>
				<port id="1" precision="FP16">
					<dim>1</dim>
				</port>
			</output>
		</layer>
		<layer id="125" name="49914995_const" type="Const" version="opset1">
			<data element_type="f16" offset="18850" shape="144,1,1,1" size="288"/>
			<output>
				<port id="1" precision="FP16">
					<dim>144</dim>
					<dim>1</dim>
					<dim>1</dim>
					<dim>1</dim>
				</port>
			</output>
		</layer>
		<layer id="126" name="49924996_const" type="Const" version="opset1">
			<data element_type="f16" offset="19138" shape="144,1,1,1" size="288"/>
			<output>
				<port id="1" precision="FP16">
					<dim>144</dim>
					<dim>1</dim>
					<dim>1</dim>
					<dim>1</dim>
				</port>
			</output>
		</layer>
		<layer id="127" name="396/fq_weights_1" type="FakeQuantize" version="opset1">
			<data levels="255"/>
			<input>
				<port id="0">
					<dim>144</dim>
					<dim>24</dim>
					<dim>1</dim>
					<dim>1</dim>
				</port>
				<port id="1">
					<dim>1</dim>
				</port>
				<port id="2">
					<dim>1</dim>
				</port>
				<port id="3">
					<dim>144</dim>
					<dim>1</dim>
					<dim>1</dim>
					<dim>1</dim>
				</port>
				<port id="4">
					<dim>144</dim>
					<dim>1</dim>
					<dim>1</dim>
					<dim>1</dim>
				</port>
			</input>
			<output>
				<port id="5" precision="FP16">
					<dim>144</dim>
					<dim>24</dim>
					<dim>1</dim>
					<dim>1</dim>
				</port>
			</output>
		</layer>
		<layer id="128" name="396" type="Convolution" version="opset1">
			<data dilations="1,1" output_padding="0,0" pads_begin="0,0" pads_end="0,0" strides="1,1"/>
			<input>
				<port id="0">
					<dim>1</dim>
					<dim>24</dim>
					<dim>104</dim>
					<dim>104</dim>
				</port>
				<port id="1">
					<dim>144</dim>
					<dim>24</dim>
					<dim>1</dim>
					<dim>1</dim>
				</port>
			</input>
			<output>
				<port id="2" precision="FP16">
					<dim>1</dim>
					<dim>144</dim>
					<dim>104</dim>
					<dim>104</dim>
				</port>
			</output>
		</layer>
		<layer id="129" name="data_add_2568025685/copy_const1287_const" type="Const" version="opset1">
			<data element_type="f16" offset="19426" shape="1,144,1,1" size="288"/>
			<output>
				<port id="1" precision="FP16">
					<dim>1</dim>
					<dim>144</dim>
					<dim>1</dim>
					<dim>1</dim>
				</port>
			</output>
		</layer>
		<layer id="130" name="397/variance/Fused_Add_" type="Add" version="opset1">
			<input>
				<port id="0">
					<dim>1</dim>
					<dim>144</dim>
					<dim>104</dim>
					<dim>104</dim>
				</port>
				<port id="1">
					<dim>1</dim>
					<dim>144</dim>
					<dim>1</dim>
					<dim>1</dim>
				</port>
			</input>
			<output>
				<port id="2" precision="FP16">
					<dim>1</dim>
					<dim>144</dim>
					<dim>104</dim>
					<dim>104</dim>
				</port>
			</output>
		</layer>
		<layer id="131" name="398" type="Clamp" version="opset1">
			<data max="6.0" min="0.0"/>
			<input>
				<port id="0">
					<dim>1</dim>
					<dim>144</dim>
					<dim>104</dim>
					<dim>104</dim>
				</port>
			</input>
			<output>
				<port id="1" precision="FP16">
					<dim>1</dim>
					<dim>144</dim>
					<dim>104</dim>
					<dim>104</dim>
				</port>
			</output>
		</layer>
		<layer id="132" name="67096713_const" type="Const" version="opset1">
			<data element_type="f16" offset="19714" shape="1,144,1,1" size="288"/>
			<output>
				<port id="1" precision="FP16">
					<dim>1</dim>
					<dim>144</dim>
					<dim>1</dim>
					<dim>1</dim>
				</port>
			</output>
		</layer>
		<layer id="133" name="67106714_const" type="Const" version="opset1">
			<data element_type="f16" offset="20002" shape="1,144,1,1" size="288"/>
			<output>
				<port id="1" precision="FP16">
					<dim>1</dim>
					<dim>144</dim>
					<dim>1</dim>
					<dim>1</dim>
				</port>
			</output>
		</layer>
		<layer id="134" name="67116715_const" type="Const" version="opset1">
			<data element_type="f16" offset="19714" shape="1,144,1,1" size="288"/>
			<output>
				<port id="1" precision="FP16">
					<dim>1</dim>
					<dim>144</dim>
					<dim>1</dim>
					<dim>1</dim>
				</port>
			</output>
		</layer>
		<layer id="135" name="67126716_const" type="Const" version="opset1">
			<data element_type="f16" offset="20002" shape="1,144,1,1" size="288"/>
			<output>
				<port id="1" precision="FP16">
					<dim>1</dim>
					<dim>144</dim>
					<dim>1</dim>
					<dim>1</dim>
				</port>
			</output>
		</layer>
		<layer id="136" name="399/fq_input_0" type="FakeQuantize" version="opset1">
			<data levels="256"/>
			<input>
				<port id="0">
					<dim>1</dim>
					<dim>144</dim>
					<dim>104</dim>
					<dim>104</dim>
				</port>
				<port id="1">
					<dim>1</dim>
					<dim>144</dim>
					<dim>1</dim>
					<dim>1</dim>
				</port>
				<port id="2">
					<dim>1</dim>
					<dim>144</dim>
					<dim>1</dim>
					<dim>1</dim>
				</port>
				<port id="3">
					<dim>1</dim>
					<dim>144</dim>
					<dim>1</dim>
					<dim>1</dim>
				</port>
				<port id="4">
					<dim>1</dim>
					<dim>144</dim>
					<dim>1</dim>
					<dim>1</dim>
				</port>
			</input>
			<output>
				<port id="5" precision="FP16">
					<dim>1</dim>
					<dim>144</dim>
					<dim>104</dim>
					<dim>104</dim>
				</port>
			</output>
		</layer>
		<layer id="137" name="399/fq_weights_1/Convert_to_float/Cast_015555_const" type="Const" version="opset1">
			<data element_type="u8" offset="20290" shape="144,1,3,3" size="1296"/>
			<output>
				<port id="1" precision="U8">
					<dim>144</dim>
					<dim>1</dim>
					<dim>3</dim>
					<dim>3</dim>
				</port>
			</output>
		</layer>
		<layer id="138" name="399/fq_weights_1/Convert_to_float" type="Convert" version="opset1">
			<data destination_type="f16"/>
			<input>
				<port id="0">
					<dim>144</dim>
					<dim>1</dim>
					<dim>3</dim>
					<dim>3</dim>
				</port>
			</input>
			<output>
				<port id="1" precision="FP16">
					<dim>144</dim>
					<dim>1</dim>
					<dim>3</dim>
					<dim>3</dim>
				</port>
			</output>
		</layer>
		<layer id="139" name="399/fq_weights_1/Copy/out_low12780_const" type="Const" version="opset1">
			<data element_type="f16" offset="15244" shape="1" size="2"/>
			<output>
				<port id="1" precision="FP16">
					<dim>1</dim>
				</port>
			</output>
		</layer>
		<layer id="140" name="399/fq_weights_1/Copy/out_high12781_const" type="Const" version="opset1">
			<data element_type="f16" offset="6278" shape="1" size="2"/>
			<output>
				<port id="1" precision="FP16">
					<dim>1</dim>
				</port>
			</output>
		</layer>
		<layer id="141" name="67216725_const" type="Const" version="opset1">
			<data element_type="f16" offset="21586" shape="144,1,1,1" size="288"/>
			<output>
				<port id="1" precision="FP16">
					<dim>144</dim>
					<dim>1</dim>
					<dim>1</dim>
					<dim>1</dim>
				</port>
			</output>
		</layer>
		<layer id="142" name="67226726_const" type="Const" version="opset1">
			<data element_type="f16" offset="21874" shape="144,1,1,1" size="288"/>
			<output>
				<port id="1" precision="FP16">
					<dim>144</dim>
					<dim>1</dim>
					<dim>1</dim>
					<dim>1</dim>
				</port>
			</output>
		</layer>
		<layer id="143" name="399/fq_weights_1" type="FakeQuantize" version="opset1">
			<data levels="255"/>
			<input>
				<port id="0">
					<dim>144</dim>
					<dim>1</dim>
					<dim>3</dim>
					<dim>3</dim>
				</port>
				<port id="1">
					<dim>1</dim>
				</port>
				<port id="2">
					<dim>1</dim>
				</port>
				<port id="3">
					<dim>144</dim>
					<dim>1</dim>
					<dim>1</dim>
					<dim>1</dim>
				</port>
				<port id="4">
					<dim>144</dim>
					<dim>1</dim>
					<dim>1</dim>
					<dim>1</dim>
				</port>
			</input>
			<output>
				<port id="5" precision="FP16">
					<dim>144</dim>
					<dim>1</dim>
					<dim>3</dim>
					<dim>3</dim>
				</port>
			</output>
		</layer>
		<layer id="144" name="17481/value17483_const" type="Const" version="opset1">
			<data element_type="i64" offset="22162" shape="5" size="40"/>
			<output>
				<port id="1" precision="I64">
					<dim>5</dim>
				</port>
			</output>
		</layer>
		<layer id="145" name="17481" type="Reshape" version="opset1">
			<data special_zero="True"/>
			<input>
				<port id="0">
					<dim>144</dim>
					<dim>1</dim>
					<dim>3</dim>
					<dim>3</dim>
				</port>
				<port id="1">
					<dim>5</dim>
				</port>
			</input>
			<output>
				<port id="2" precision="FP16">
					<dim>144</dim>
					<dim>1</dim>
					<dim>1</dim>
					<dim>3</dim>
					<dim>3</dim>
				</port>
			</output>
		</layer>
		<layer id="146" name="399" type="GroupConvolution" version="opset1">
			<data dilations="1,1" output_padding="0,0" pads_begin="1,1" pads_end="1,1" strides="1,1"/>
			<input>
				<port id="0">
					<dim>1</dim>
					<dim>144</dim>
					<dim>104</dim>
					<dim>104</dim>
				</port>
				<port id="1">
					<dim>144</dim>
					<dim>1</dim>
					<dim>1</dim>
					<dim>3</dim>
					<dim>3</dim>
				</port>
			</input>
			<output>
				<port id="2" precision="FP16">
					<dim>1</dim>
					<dim>144</dim>
					<dim>104</dim>
					<dim>104</dim>
				</port>
			</output>
		</layer>
		<layer id="147" name="data_add_2568825693/copy_const1292_const" type="Const" version="opset1">
			<data element_type="f16" offset="22202" shape="1,144,1,1" size="288"/>
			<output>
				<port id="1" precision="FP16">
					<dim>1</dim>
					<dim>144</dim>
					<dim>1</dim>
					<dim>1</dim>
				</port>
			</output>
		</layer>
		<layer id="148" name="400/variance/Fused_Add_" type="Add" version="opset1">
			<input>
				<port id="0">
					<dim>1</dim>
					<dim>144</dim>
					<dim>104</dim>
					<dim>104</dim>
				</port>
				<port id="1">
					<dim>1</dim>
					<dim>144</dim>
					<dim>1</dim>
					<dim>1</dim>
				</port>
			</input>
			<output>
				<port id="2" precision="FP16">
					<dim>1</dim>
					<dim>144</dim>
					<dim>104</dim>
					<dim>104</dim>
				</port>
			</output>
		</layer>
		<layer id="149" name="401" type="Clamp" version="opset1">
			<data max="6.0" min="0.0"/>
			<input>
				<port id="0">
					<dim>1</dim>
					<dim>144</dim>
					<dim>104</dim>
					<dim>104</dim>
				</port>
			</input>
			<output>
				<port id="1" precision="FP16">
					<dim>1</dim>
					<dim>144</dim>
					<dim>104</dim>
					<dim>104</dim>
				</port>
			</output>
		</layer>
		<layer id="150" name="63496353_const" type="Const" version="opset1">
			<data element_type="f16" offset="22490" shape="" size="2"/>
			<output>
				<port id="1" precision="FP16"/>
			</output>
		</layer>
		<layer id="151" name="63506354_const" type="Const" version="opset1">
			<data element_type="f16" offset="22492" shape="" size="2"/>
			<output>
				<port id="1" precision="FP16"/>
			</output>
		</layer>
		<layer id="152" name="63516355_const" type="Const" version="opset1">
			<data element_type="f16" offset="22490" shape="" size="2"/>
			<output>
				<port id="1" precision="FP16"/>
			</output>
		</layer>
		<layer id="153" name="63526356_const" type="Const" version="opset1">
			<data element_type="f16" offset="22492" shape="" size="2"/>
			<output>
				<port id="1" precision="FP16"/>
			</output>
		</layer>
		<layer id="154" name="402/fq_input_0" type="FakeQuantize" version="opset1">
			<data levels="256"/>
			<input>
				<port id="0">
					<dim>1</dim>
					<dim>144</dim>
					<dim>104</dim>
					<dim>104</dim>
				</port>
				<port id="1"/>
				<port id="2"/>
				<port id="3"/>
				<port id="4"/>
			</input>
			<output>
				<port id="5" precision="FP16">
					<dim>1</dim>
					<dim>144</dim>
					<dim>104</dim>
					<dim>104</dim>
				</port>
			</output>
		</layer>
		<layer id="155" name="402/fq_weights_1/Convert_to_float/Cast_015391_const" type="Const" version="opset1">
			<data element_type="u8" offset="22494" shape="24,144,1,1" size="3456"/>
			<output>
				<port id="1" precision="U8">
					<dim>24</dim>
					<dim>144</dim>
					<dim>1</dim>
					<dim>1</dim>
				</port>
			</output>
		</layer>
		<layer id="156" name="402/fq_weights_1/Convert_to_float" type="Convert" version="opset1">
			<data destination_type="f16"/>
			<input>
				<port id="0">
					<dim>24</dim>
					<dim>144</dim>
					<dim>1</dim>
					<dim>1</dim>
				</port>
			</input>
			<output>
				<port id="1" precision="FP16">
					<dim>24</dim>
					<dim>144</dim>
					<dim>1</dim>
					<dim>1</dim>
				</port>
			</output>
		</layer>
		<layer id="157" name="402/fq_weights_1/Copy/out_low13444_const" type="Const" version="opset1">
			<data element_type="f16" offset="25950" shape="1" size="2"/>
			<output>
				<port id="1" precision="FP16">
					<dim>1</dim>
				</port>
			</output>
		</layer>
		<layer id="158" name="402/fq_weights_1/Copy/out_high13445_const" type="Const" version="opset1">
			<data element_type="f16" offset="6278" shape="1" size="2"/>
			<output>
				<port id="1" precision="FP16">
					<dim>1</dim>
				</port>
			</output>
		</layer>
		<layer id="159" name="63616365_const" type="Const" version="opset1">
			<data element_type="f16" offset="25952" shape="24,1,1,1" size="48"/>
			<output>
				<port id="1" precision="FP16">
					<dim>24</dim>
					<dim>1</dim>
					<dim>1</dim>
					<dim>1</dim>
				</port>
			</output>
		</layer>
		<layer id="160" name="63626366_const" type="Const" version="opset1">
			<data element_type="f16" offset="26000" shape="24,1,1,1" size="48"/>
			<output>
				<port id="1" precision="FP16">
					<dim>24</dim>
					<dim>1</dim>
					<dim>1</dim>
					<dim>1</dim>
				</port>
			</output>
		</layer>
		<layer id="161" name="402/fq_weights_1" type="FakeQuantize" version="opset1">
			<data levels="255"/>
			<input>
				<port id="0">
					<dim>24</dim>
					<dim>144</dim>
					<dim>1</dim>
					<dim>1</dim>
				</port>
				<port id="1">
					<dim>1</dim>
				</port>
				<port id="2">
					<dim>1</dim>
				</port>
				<port id="3">
					<dim>24</dim>
					<dim>1</dim>
					<dim>1</dim>
					<dim>1</dim>
				</port>
				<port id="4">
					<dim>24</dim>
					<dim>1</dim>
					<dim>1</dim>
					<dim>1</dim>
				</port>
			</input>
			<output>
				<port id="5" precision="FP16">
					<dim>24</dim>
					<dim>144</dim>
					<dim>1</dim>
					<dim>1</dim>
				</port>
			</output>
		</layer>
		<layer id="162" name="402" type="Convolution" version="opset1">
			<data dilations="1,1" output_padding="0,0" pads_begin="0,0" pads_end="0,0" strides="1,1"/>
			<input>
				<port id="0">
					<dim>1</dim>
					<dim>144</dim>
					<dim>104</dim>
					<dim>104</dim>
				</port>
				<port id="1">
					<dim>24</dim>
					<dim>144</dim>
					<dim>1</dim>
					<dim>1</dim>
				</port>
			</input>
			<output>
				<port id="2" precision="FP16">
					<dim>1</dim>
					<dim>24</dim>
					<dim>104</dim>
					<dim>104</dim>
				</port>
			</output>
		</layer>
		<layer id="163" name="data_add_2569625701/copy_const1297_const" type="Const" version="opset1">
			<data element_type="f16" offset="26048" shape="1,24,1,1" size="48"/>
			<output>
				<port id="1" precision="FP16">
					<dim>1</dim>
					<dim>24</dim>
					<dim>1</dim>
					<dim>1</dim>
				</port>
			</output>
		</layer>
		<layer id="164" name="403/variance/Fused_Add_" type="Add" version="opset1">
			<input>
				<port id="0">
					<dim>1</dim>
					<dim>24</dim>
					<dim>104</dim>
					<dim>104</dim>
				</port>
				<port id="1">
					<dim>1</dim>
					<dim>24</dim>
					<dim>1</dim>
					<dim>1</dim>
				</port>
			</input>
			<output>
				<port id="2" precision="FP16">
					<dim>1</dim>
					<dim>24</dim>
					<dim>104</dim>
					<dim>104</dim>
				</port>
			</output>
		</layer>
		<layer id="165" name="50095013_const" type="Const" version="opset1">
			<data element_type="f16" offset="26096" shape="" size="2"/>
			<output>
				<port id="1" precision="FP16"/>
			</output>
		</layer>
		<layer id="166" name="50105014_const" type="Const" version="opset1">
			<data element_type="f16" offset="26098" shape="" size="2"/>
			<output>
				<port id="1" precision="FP16"/>
			</output>
		</layer>
		<layer id="167" name="50115015_const" type="Const" version="opset1">
			<data element_type="f16" offset="26096" shape="" size="2"/>
			<output>
				<port id="1" precision="FP16"/>
			</output>
		</layer>
		<layer id="168" name="50125016_const" type="Const" version="opset1">
			<data element_type="f16" offset="26098" shape="" size="2"/>
			<output>
				<port id="1" precision="FP16"/>
			</output>
		</layer>
		<layer id="169" name="404/fq_input_0" type="FakeQuantize" version="opset1">
			<data levels="256"/>
			<input>
				<port id="0">
					<dim>1</dim>
					<dim>24</dim>
					<dim>104</dim>
					<dim>104</dim>
				</port>
				<port id="1"/>
				<port id="2"/>
				<port id="3"/>
				<port id="4"/>
			</input>
			<output>
				<port id="5" precision="FP16">
					<dim>1</dim>
					<dim>24</dim>
					<dim>104</dim>
					<dim>104</dim>
				</port>
			</output>
		</layer>
		<layer id="170" name="404" type="Add" version="opset1">
			<input>
				<port id="0">
					<dim>1</dim>
					<dim>24</dim>
					<dim>104</dim>
					<dim>104</dim>
				</port>
				<port id="1">
					<dim>1</dim>
					<dim>24</dim>
					<dim>104</dim>
					<dim>104</dim>
				</port>
			</input>
			<output>
				<port id="2" precision="FP16">
					<dim>1</dim>
					<dim>24</dim>
					<dim>104</dim>
					<dim>104</dim>
				</port>
			</output>
		</layer>
		<layer id="171" name="52495253_const" type="Const" version="opset1">
			<data element_type="f16" offset="26100" shape="" size="2"/>
			<output>
				<port id="1" precision="FP16"/>
			</output>
		</layer>
		<layer id="172" name="52505254_const" type="Const" version="opset1">
			<data element_type="f16" offset="26102" shape="" size="2"/>
			<output>
				<port id="1" precision="FP16"/>
			</output>
		</layer>
		<layer id="173" name="52515255_const" type="Const" version="opset1">
			<data element_type="f16" offset="26100" shape="" size="2"/>
			<output>
				<port id="1" precision="FP16"/>
			</output>
		</layer>
		<layer id="174" name="52525256_const" type="Const" version="opset1">
			<data element_type="f16" offset="26102" shape="" size="2"/>
			<output>
				<port id="1" precision="FP16"/>
			</output>
		</layer>
		<layer id="175" name="405/fq_input_0" type="FakeQuantize" version="opset1">
			<data levels="256"/>
			<input>
				<port id="0">
					<dim>1</dim>
					<dim>24</dim>
					<dim>104</dim>
					<dim>104</dim>
				</port>
				<port id="1"/>
				<port id="2"/>
				<port id="3"/>
				<port id="4"/>
			</input>
			<output>
				<port id="5" precision="FP16">
					<dim>1</dim>
					<dim>24</dim>
					<dim>104</dim>
					<dim>104</dim>
				</port>
			</output>
		</layer>
		<layer id="176" name="405/fq_weights_1/Convert_to_float/Cast_015419_const" type="Const" version="opset1">
			<data element_type="u8" offset="26104" shape="144,24,1,1" size="3456"/>
			<output>
				<port id="1" precision="U8">
					<dim>144</dim>
					<dim>24</dim>
					<dim>1</dim>
					<dim>1</dim>
				</port>
			</output>
		</layer>
		<layer id="177" name="405/fq_weights_1/Convert_to_float" type="Convert" version="opset1">
			<data destination_type="f16"/>
			<input>
				<port id="0">
					<dim>144</dim>
					<dim>24</dim>
					<dim>1</dim>
					<dim>1</dim>
				</port>
			</input>
			<output>
				<port id="1" precision="FP16">
					<dim>144</dim>
					<dim>24</dim>
					<dim>1</dim>
					<dim>1</dim>
				</port>
			</output>
		</layer>
		<layer id="178" name="405/fq_weights_1/Copy/out_low13220_const" type="Const" version="opset1">
			<data element_type="f16" offset="25950" shape="1" size="2"/>
			<output>
				<port id="1" precision="FP16">
					<dim>1</dim>
				</port>
			</output>
		</layer>
		<layer id="179" name="405/fq_weights_1/Copy/out_high13221_const" type="Const" version="opset1">
			<data element_type="f16" offset="6278" shape="1" size="2"/>
			<output>
				<port id="1" precision="FP16">
					<dim>1</dim>
				</port>
			</output>
		</layer>
		<layer id="180" name="52615265_const" type="Const" version="opset1">
			<data element_type="f16" offset="29560" shape="144,1,1,1" size="288"/>
			<output>
				<port id="1" precision="FP16">
					<dim>144</dim>
					<dim>1</dim>
					<dim>1</dim>
					<dim>1</dim>
				</port>
			</output>
		</layer>
		<layer id="181" name="52625266_const" type="Const" version="opset1">
			<data element_type="f16" offset="29848" shape="144,1,1,1" size="288"/>
			<output>
				<port id="1" precision="FP16">
					<dim>144</dim>
					<dim>1</dim>
					<dim>1</dim>
					<dim>1</dim>
				</port>
			</output>
		</layer>
		<layer id="182" name="405/fq_weights_1" type="FakeQuantize" version="opset1">
			<data levels="255"/>
			<input>
				<port id="0">
					<dim>144</dim>
					<dim>24</dim>
					<dim>1</dim>
					<dim>1</dim>
				</port>
				<port id="1">
					<dim>1</dim>
				</port>
				<port id="2">
					<dim>1</dim>
				</port>
				<port id="3">
					<dim>144</dim>
					<dim>1</dim>
					<dim>1</dim>
					<dim>1</dim>
				</port>
				<port id="4">
					<dim>144</dim>
					<dim>1</dim>
					<dim>1</dim>
					<dim>1</dim>
				</port>
			</input>
			<output>
				<port id="5" precision="FP16">
					<dim>144</dim>
					<dim>24</dim>
					<dim>1</dim>
					<dim>1</dim>
				</port>
			</output>
		</layer>
		<layer id="183" name="405" type="Convolution" version="opset1">
			<data dilations="1,1" output_padding="0,0" pads_begin="0,0" pads_end="0,0" strides="1,1"/>
			<input>
				<port id="0">
					<dim>1</dim>
					<dim>24</dim>
					<dim>104</dim>
					<dim>104</dim>
				</port>
				<port id="1">
					<dim>144</dim>
					<dim>24</dim>
					<dim>1</dim>
					<dim>1</dim>
				</port>
			</input>
			<output>
				<port id="2" precision="FP16">
					<dim>1</dim>
					<dim>144</dim>
					<dim>104</dim>
					<dim>104</dim>
				</port>
			</output>
		</layer>
		<layer id="184" name="data_add_2570425709/copy_const1302_const" type="Const" version="opset1">
			<data element_type="f16" offset="30136" shape="1,144,1,1" size="288"/>
			<output>
				<port id="1" precision="FP16">
					<dim>1</dim>
					<dim>144</dim>
					<dim>1</dim>
					<dim>1</dim>
				</port>
			</output>
		</layer>
		<layer id="185" name="406/variance/Fused_Add_" type="Add" version="opset1">
			<input>
				<port id="0">
					<dim>1</dim>
					<dim>144</dim>
					<dim>104</dim>
					<dim>104</dim>
				</port>
				<port id="1">
					<dim>1</dim>
					<dim>144</dim>
					<dim>1</dim>
					<dim>1</dim>
				</port>
			</input>
			<output>
				<port id="2" precision="FP16">
					<dim>1</dim>
					<dim>144</dim>
					<dim>104</dim>
					<dim>104</dim>
				</port>
			</output>
		</layer>
		<layer id="186" name="407" type="Clamp" version="opset1">
			<data max="6.0" min="0.0"/>
			<input>
				<port id="0">
					<dim>1</dim>
					<dim>144</dim>
					<dim>104</dim>
					<dim>104</dim>
				</port>
			</input>
			<output>
				<port id="1" precision="FP16">
					<dim>1</dim>
					<dim>144</dim>
					<dim>104</dim>
					<dim>104</dim>
				</port>
			</output>
		</layer>
		<layer id="187" name="68396843_const" type="Const" version="opset1">
			<data element_type="f16" offset="19714" shape="1,144,1,1" size="288"/>
			<output>
				<port id="1" precision="FP16">
					<dim>1</dim>
					<dim>144</dim>
					<dim>1</dim>
					<dim>1</dim>
				</port>
			</output>
		</layer>
		<layer id="188" name="68406844_const" type="Const" version="opset1">
			<data element_type="f16" offset="30424" shape="1,144,1,1" size="288"/>
			<output>
				<port id="1" precision="FP16">
					<dim>1</dim>
					<dim>144</dim>
					<dim>1</dim>
					<dim>1</dim>
				</port>
			</output>
		</layer>
		<layer id="189" name="68416845_const" type="Const" version="opset1">
			<data element_type="f16" offset="19714" shape="1,144,1,1" size="288"/>
			<output>
				<port id="1" precision="FP16">
					<dim>1</dim>
					<dim>144</dim>
					<dim>1</dim>
					<dim>1</dim>
				</port>
			</output>
		</layer>
		<layer id="190" name="68426846_const" type="Const" version="opset1">
			<data element_type="f16" offset="30424" shape="1,144,1,1" size="288"/>
			<output>
				<port id="1" precision="FP16">
					<dim>1</dim>
					<dim>144</dim>
					<dim>1</dim>
					<dim>1</dim>
				</port>
			</output>
		</layer>
		<layer id="191" name="408/fq_input_0" type="FakeQuantize" version="opset1">
			<data levels="256"/>
			<input>
				<port id="0">
					<dim>1</dim>
					<dim>144</dim>
					<dim>104</dim>
					<dim>104</dim>
				</port>
				<port id="1">
					<dim>1</dim>
					<dim>144</dim>
					<dim>1</dim>
					<dim>1</dim>
				</port>
				<port id="2">
					<dim>1</dim>
					<dim>144</dim>
					<dim>1</dim>
					<dim>1</dim>
				</port>
				<port id="3">
					<dim>1</dim>
					<dim>144</dim>
					<dim>1</dim>
					<dim>1</dim>
				</port>
				<port id="4">
					<dim>1</dim>
					<dim>144</dim>
					<dim>1</dim>
					<dim>1</dim>
				</port>
			</input>
			<output>
				<port id="5" precision="FP16">
					<dim>1</dim>
					<dim>144</dim>
					<dim>104</dim>
					<dim>104</dim>
				</port>
			</output>
		</layer>
		<layer id="192" name="408/fq_weights_1/Convert_to_float/Cast_015423_const" type="Const" version="opset1">
			<data element_type="u8" offset="30712" shape="144,1,3,3" size="1296"/>
			<output>
				<port id="1" precision="U8">
					<dim>144</dim>
					<dim>1</dim>
					<dim>3</dim>
					<dim>3</dim>
				</port>
			</output>
		</layer>
		<layer id="193" name="408/fq_weights_1/Convert_to_float" type="Convert" version="opset1">
			<data destination_type="f16"/>
			<input>
				<port id="0">
					<dim>144</dim>
					<dim>1</dim>
					<dim>3</dim>
					<dim>3</dim>
				</port>
			</input>
			<output>
				<port id="1" precision="FP16">
					<dim>144</dim>
					<dim>1</dim>
					<dim>3</dim>
					<dim>3</dim>
				</port>
			</output>
		</layer>
		<layer id="194" name="408/fq_weights_1/Copy/out_low13028_const" type="Const" version="opset1">
			<data element_type="f16" offset="25950" shape="1" size="2"/>
			<output>
				<port id="1" precision="FP16">
					<dim>1</dim>
				</port>
			</output>
		</layer>
		<layer id="195" name="408/fq_weights_1/Copy/out_high13029_const" type="Const" version="opset1">
			<data element_type="f16" offset="6278" shape="1" size="2"/>
			<output>
				<port id="1" precision="FP16">
					<dim>1</dim>
				</port>
			</output>
		</layer>
		<layer id="196" name="68516855_const" type="Const" version="opset1">
			<data element_type="f16" offset="32008" shape="144,1,1,1" size="288"/>
			<output>
				<port id="1" precision="FP16">
					<dim>144</dim>
					<dim>1</dim>
					<dim>1</dim>
					<dim>1</dim>
				</port>
			</output>
		</layer>
		<layer id="197" name="68526856_const" type="Const" version="opset1">
			<data element_type="f16" offset="32296" shape="144,1,1,1" size="288"/>
			<output>
				<port id="1" precision="FP16">
					<dim>144</dim>
					<dim>1</dim>
					<dim>1</dim>
					<dim>1</dim>
				</port>
			</output>
		</layer>
		<layer id="198" name="408/fq_weights_1" type="FakeQuantize" version="opset1">
			<data levels="255"/>
			<input>
				<port id="0">
					<dim>144</dim>
					<dim>1</dim>
					<dim>3</dim>
					<dim>3</dim>
				</port>
				<port id="1">
					<dim>1</dim>
				</port>
				<port id="2">
					<dim>1</dim>
				</port>
				<port id="3">
					<dim>144</dim>
					<dim>1</dim>
					<dim>1</dim>
					<dim>1</dim>
				</port>
				<port id="4">
					<dim>144</dim>
					<dim>1</dim>
					<dim>1</dim>
					<dim>1</dim>
				</port>
			</input>
			<output>
				<port id="5" precision="FP16">
					<dim>144</dim>
					<dim>1</dim>
					<dim>3</dim>
					<dim>3</dim>
				</port>
			</output>
		</layer>
		<layer id="199" name="17441/value17443_const" type="Const" version="opset1">
			<data element_type="i64" offset="22162" shape="5" size="40"/>
			<output>
				<port id="1" precision="I64">
					<dim>5</dim>
				</port>
			</output>
		</layer>
		<layer id="200" name="17441" type="Reshape" version="opset1">
			<data special_zero="True"/>
			<input>
				<port id="0">
					<dim>144</dim>
					<dim>1</dim>
					<dim>3</dim>
					<dim>3</dim>
				</port>
				<port id="1">
					<dim>5</dim>
				</port>
			</input>
			<output>
				<port id="2" precision="FP16">
					<dim>144</dim>
					<dim>1</dim>
					<dim>1</dim>
					<dim>3</dim>
					<dim>3</dim>
				</port>
			</output>
		</layer>
		<layer id="201" name="408" type="GroupConvolution" version="opset1">
			<data dilations="1,1" output_padding="0,0" pads_begin="1,1" pads_end="1,1" strides="2,2"/>
			<input>
				<port id="0">
					<dim>1</dim>
					<dim>144</dim>
					<dim>104</dim>
					<dim>104</dim>
				</port>
				<port id="1">
					<dim>144</dim>
					<dim>1</dim>
					<dim>1</dim>
					<dim>3</dim>
					<dim>3</dim>
				</port>
			</input>
			<output>
				<port id="2" precision="FP16">
					<dim>1</dim>
					<dim>144</dim>
					<dim>52</dim>
					<dim>52</dim>
				</port>
			</output>
		</layer>
		<layer id="202" name="data_add_2571225717/copy_const1307_const" type="Const" version="opset1">
			<data element_type="f16" offset="32584" shape="1,144,1,1" size="288"/>
			<output>
				<port id="1" precision="FP16">
					<dim>1</dim>
					<dim>144</dim>
					<dim>1</dim>
					<dim>1</dim>
				</port>
			</output>
		</layer>
		<layer id="203" name="409/variance/Fused_Add_" type="Add" version="opset1">
			<input>
				<port id="0">
					<dim>1</dim>
					<dim>144</dim>
					<dim>52</dim>
					<dim>52</dim>
				</port>
				<port id="1">
					<dim>1</dim>
					<dim>144</dim>
					<dim>1</dim>
					<dim>1</dim>
				</port>
			</input>
			<output>
				<port id="2" precision="FP16">
					<dim>1</dim>
					<dim>144</dim>
					<dim>52</dim>
					<dim>52</dim>
				</port>
			</output>
		</layer>
		<layer id="204" name="410" type="Clamp" version="opset1">
			<data max="6.0" min="0.0"/>
			<input>
				<port id="0">
					<dim>1</dim>
					<dim>144</dim>
					<dim>52</dim>
					<dim>52</dim>
				</port>
			</input>
			<output>
				<port id="1" precision="FP16">
					<dim>1</dim>
					<dim>144</dim>
					<dim>52</dim>
					<dim>52</dim>
				</port>
			</output>
		</layer>
		<layer id="205" name="58795883_const" type="Const" version="opset1">
			<data element_type="f16" offset="32872" shape="" size="2"/>
			<output>
				<port id="1" precision="FP16"/>
			</output>
		</layer>
		<layer id="206" name="58805884_const" type="Const" version="opset1">
			<data element_type="f16" offset="32874" shape="" size="2"/>
			<output>
				<port id="1" precision="FP16"/>
			</output>
		</layer>
		<layer id="207" name="58815885_const" type="Const" version="opset1">
			<data element_type="f16" offset="32872" shape="" size="2"/>
			<output>
				<port id="1" precision="FP16"/>
			</output>
		</layer>
		<layer id="208" name="58825886_const" type="Const" version="opset1">
			<data element_type="f16" offset="32874" shape="" size="2"/>
			<output>
				<port id="1" precision="FP16"/>
			</output>
		</layer>
		<layer id="209" name="411/fq_input_0" type="FakeQuantize" version="opset1">
			<data levels="256"/>
			<input>
				<port id="0">
					<dim>1</dim>
					<dim>144</dim>
					<dim>52</dim>
					<dim>52</dim>
				</port>
				<port id="1"/>
				<port id="2"/>
				<port id="3"/>
				<port id="4"/>
			</input>
			<output>
				<port id="5" precision="FP16">
					<dim>1</dim>
					<dim>144</dim>
					<dim>52</dim>
					<dim>52</dim>
				</port>
			</output>
		</layer>
		<layer id="210" name="411/fq_weights_1/Convert_to_float/Cast_015247_const" type="Const" version="opset1">
			<data element_type="u8" offset="32876" shape="32,144,1,1" size="4608"/>
			<output>
				<port id="1" precision="U8">
					<dim>32</dim>
					<dim>144</dim>
					<dim>1</dim>
					<dim>1</dim>
				</port>
			</output>
		</layer>
		<layer id="211" name="411/fq_weights_1/Convert_to_float" type="Convert" version="opset1">
			<data destination_type="f16"/>
			<input>
				<port id="0">
					<dim>32</dim>
					<dim>144</dim>
					<dim>1</dim>
					<dim>1</dim>
				</port>
			</input>
			<output>
				<port id="1" precision="FP16">
					<dim>32</dim>
					<dim>144</dim>
					<dim>1</dim>
					<dim>1</dim>
				</port>
			</output>
		</layer>
		<layer id="212" name="411/fq_weights_1/Copy/out_low13260_const" type="Const" version="opset1">
			<data element_type="f16" offset="37484" shape="1" size="2"/>
			<output>
				<port id="1" precision="FP16">
					<dim>1</dim>
				</port>
			</output>
		</layer>
		<layer id="213" name="411/fq_weights_1/Copy/out_high13261_const" type="Const" version="opset1">
			<data element_type="f16" offset="6278" shape="1" size="2"/>
			<output>
				<port id="1" precision="FP16">
					<dim>1</dim>
				</port>
			</output>
		</layer>
		<layer id="214" name="58915895_const" type="Const" version="opset1">
			<data element_type="f16" offset="37486" shape="32,1,1,1" size="64"/>
			<output>
				<port id="1" precision="FP16">
					<dim>32</dim>
					<dim>1</dim>
					<dim>1</dim>
					<dim>1</dim>
				</port>
			</output>
		</layer>
		<layer id="215" name="58925896_const" type="Const" version="opset1">
			<data element_type="f16" offset="37550" shape="32,1,1,1" size="64"/>
			<output>
				<port id="1" precision="FP16">
					<dim>32</dim>
					<dim>1</dim>
					<dim>1</dim>
					<dim>1</dim>
				</port>
			</output>
		</layer>
		<layer id="216" name="411/fq_weights_1" type="FakeQuantize" version="opset1">
			<data levels="255"/>
			<input>
				<port id="0">
					<dim>32</dim>
					<dim>144</dim>
					<dim>1</dim>
					<dim>1</dim>
				</port>
				<port id="1">
					<dim>1</dim>
				</port>
				<port id="2">
					<dim>1</dim>
				</port>
				<port id="3">
					<dim>32</dim>
					<dim>1</dim>
					<dim>1</dim>
					<dim>1</dim>
				</port>
				<port id="4">
					<dim>32</dim>
					<dim>1</dim>
					<dim>1</dim>
					<dim>1</dim>
				</port>
			</input>
			<output>
				<port id="5" precision="FP16">
					<dim>32</dim>
					<dim>144</dim>
					<dim>1</dim>
					<dim>1</dim>
				</port>
			</output>
		</layer>
		<layer id="217" name="411" type="Convolution" version="opset1">
			<data dilations="1,1" output_padding="0,0" pads_begin="0,0" pads_end="0,0" strides="1,1"/>
			<input>
				<port id="0">
					<dim>1</dim>
					<dim>144</dim>
					<dim>52</dim>
					<dim>52</dim>
				</port>
				<port id="1">
					<dim>32</dim>
					<dim>144</dim>
					<dim>1</dim>
					<dim>1</dim>
				</port>
			</input>
			<output>
				<port id="2" precision="FP16">
					<dim>1</dim>
					<dim>32</dim>
					<dim>52</dim>
					<dim>52</dim>
				</port>
			</output>
		</layer>
		<layer id="218" name="data_add_2572025725/copy_const1312_const" type="Const" version="opset1">
			<data element_type="f16" offset="37614" shape="1,32,1,1" size="64"/>
			<output>
				<port id="1" precision="FP16">
					<dim>1</dim>
					<dim>32</dim>
					<dim>1</dim>
					<dim>1</dim>
				</port>
			</output>
		</layer>
		<layer id="219" name="412/variance/Fused_Add_" type="Add" version="opset1">
			<input>
				<port id="0">
					<dim>1</dim>
					<dim>32</dim>
					<dim>52</dim>
					<dim>52</dim>
				</port>
				<port id="1">
					<dim>1</dim>
					<dim>32</dim>
					<dim>1</dim>
					<dim>1</dim>
				</port>
			</input>
			<output>
				<port id="2" precision="FP16">
					<dim>1</dim>
					<dim>32</dim>
					<dim>52</dim>
					<dim>52</dim>
				</port>
			</output>
		</layer>
		<layer id="220" name="69496953_const" type="Const" version="opset1">
			<data element_type="f16" offset="37678" shape="" size="2"/>
			<output>
				<port id="1" precision="FP16"/>
			</output>
		</layer>
		<layer id="221" name="69506954_const" type="Const" version="opset1">
			<data element_type="f16" offset="37680" shape="" size="2"/>
			<output>
				<port id="1" precision="FP16"/>
			</output>
		</layer>
		<layer id="222" name="69516955_const" type="Const" version="opset1">
			<data element_type="f16" offset="37678" shape="" size="2"/>
			<output>
				<port id="1" precision="FP16"/>
			</output>
		</layer>
		<layer id="223" name="69526956_const" type="Const" version="opset1">
			<data element_type="f16" offset="37680" shape="" size="2"/>
			<output>
				<port id="1" precision="FP16"/>
			</output>
		</layer>
		<layer id="224" name="413/fq_input_0" type="FakeQuantize" version="opset1">
			<data levels="256"/>
			<input>
				<port id="0">
					<dim>1</dim>
					<dim>32</dim>
					<dim>52</dim>
					<dim>52</dim>
				</port>
				<port id="1"/>
				<port id="2"/>
				<port id="3"/>
				<port id="4"/>
			</input>
			<output>
				<port id="5" precision="FP16">
					<dim>1</dim>
					<dim>32</dim>
					<dim>52</dim>
					<dim>52</dim>
				</port>
			</output>
		</layer>
		<layer id="225" name="413/fq_weights_1/Convert_to_float/Cast_015551_const" type="Const" version="opset1">
			<data element_type="u8" offset="37682" shape="192,32,1,1" size="6144"/>
			<output>
				<port id="1" precision="U8">
					<dim>192</dim>
					<dim>32</dim>
					<dim>1</dim>
					<dim>1</dim>
				</port>
			</output>
		</layer>
		<layer id="226" name="413/fq_weights_1/Convert_to_float" type="Convert" version="opset1">
			<data destination_type="f16"/>
			<input>
				<port id="0">
					<dim>192</dim>
					<dim>32</dim>
					<dim>1</dim>
					<dim>1</dim>
				</port>
			</input>
			<output>
				<port id="1" precision="FP16">
					<dim>192</dim>
					<dim>32</dim>
					<dim>1</dim>
					<dim>1</dim>
				</port>
			</output>
		</layer>
		<layer id="227" name="413/fq_weights_1/Copy/out_low12924_const" type="Const" version="opset1">
			<data element_type="f16" offset="37484" shape="1" size="2"/>
			<output>
				<port id="1" precision="FP16">
					<dim>1</dim>
				</port>
			</output>
		</layer>
		<layer id="228" name="413/fq_weights_1/Copy/out_high12925_const" type="Const" version="opset1">
			<data element_type="f16" offset="6278" shape="1" size="2"/>
			<output>
				<port id="1" precision="FP16">
					<dim>1</dim>
				</port>
			</output>
		</layer>
		<layer id="229" name="69616965_const" type="Const" version="opset1">
			<data element_type="f16" offset="43826" shape="192,1,1,1" size="384"/>
			<output>
				<port id="1" precision="FP16">
					<dim>192</dim>
					<dim>1</dim>
					<dim>1</dim>
					<dim>1</dim>
				</port>
			</output>
		</layer>
		<layer id="230" name="69626966_const" type="Const" version="opset1">
			<data element_type="f16" offset="44210" shape="192,1,1,1" size="384"/>
			<output>
				<port id="1" precision="FP16">
					<dim>192</dim>
					<dim>1</dim>
					<dim>1</dim>
					<dim>1</dim>
				</port>
			</output>
		</layer>
		<layer id="231" name="413/fq_weights_1" type="FakeQuantize" version="opset1">
			<data levels="255"/>
			<input>
				<port id="0">
					<dim>192</dim>
					<dim>32</dim>
					<dim>1</dim>
					<dim>1</dim>
				</port>
				<port id="1">
					<dim>1</dim>
				</port>
				<port id="2">
					<dim>1</dim>
				</port>
				<port id="3">
					<dim>192</dim>
					<dim>1</dim>
					<dim>1</dim>
					<dim>1</dim>
				</port>
				<port id="4">
					<dim>192</dim>
					<dim>1</dim>
					<dim>1</dim>
					<dim>1</dim>
				</port>
			</input>
			<output>
				<port id="5" precision="FP16">
					<dim>192</dim>
					<dim>32</dim>
					<dim>1</dim>
					<dim>1</dim>
				</port>
			</output>
		</layer>
		<layer id="232" name="413" type="Convolution" version="opset1">
			<data dilations="1,1" output_padding="0,0" pads_begin="0,0" pads_end="0,0" strides="1,1"/>
			<input>
				<port id="0">
					<dim>1</dim>
					<dim>32</dim>
					<dim>52</dim>
					<dim>52</dim>
				</port>
				<port id="1">
					<dim>192</dim>
					<dim>32</dim>
					<dim>1</dim>
					<dim>1</dim>
				</port>
			</input>
			<output>
				<port id="2" precision="FP16">
					<dim>1</dim>
					<dim>192</dim>
					<dim>52</dim>
					<dim>52</dim>
				</port>
			</output>
		</layer>
		<layer id="233" name="data_add_2572825733/copy_const1316_const" type="Const" version="opset1">
			<data element_type="f16" offset="44594" shape="1,192,1,1" size="384"/>
			<output>
				<port id="1" precision="FP16">
					<dim>1</dim>
					<dim>192</dim>
					<dim>1</dim>
					<dim>1</dim>
				</port>
			</output>
		</layer>
		<layer id="234" name="414/variance/Fused_Add_" type="Add" version="opset1">
			<input>
				<port id="0">
					<dim>1</dim>
					<dim>192</dim>
					<dim>52</dim>
					<dim>52</dim>
				</port>
				<port id="1">
					<dim>1</dim>
					<dim>192</dim>
					<dim>1</dim>
					<dim>1</dim>
				</port>
			</input>
			<output>
				<port id="2" precision="FP16">
					<dim>1</dim>
					<dim>192</dim>
					<dim>52</dim>
					<dim>52</dim>
				</port>
			</output>
		</layer>
		<layer id="235" name="415" type="Clamp" version="opset1">
			<data max="6.0" min="0.0"/>
			<input>
				<port id="0">
					<dim>1</dim>
					<dim>192</dim>
					<dim>52</dim>
					<dim>52</dim>
				</port>
			</input>
			<output>
				<port id="1" precision="FP16">
					<dim>1</dim>
					<dim>192</dim>
					<dim>52</dim>
					<dim>52</dim>
				</port>
			</output>
		</layer>
		<layer id="236" name="44294433_const" type="Const" version="opset1">
			<data element_type="f16" offset="44978" shape="1,192,1,1" size="384"/>
			<output>
				<port id="1" precision="FP16">
					<dim>1</dim>
					<dim>192</dim>
					<dim>1</dim>
					<dim>1</dim>
				</port>
			</output>
		</layer>
		<layer id="237" name="44304434_const" type="Const" version="opset1">
			<data element_type="f16" offset="45362" shape="1,192,1,1" size="384"/>
			<output>
				<port id="1" precision="FP16">
					<dim>1</dim>
					<dim>192</dim>
					<dim>1</dim>
					<dim>1</dim>
				</port>
			</output>
		</layer>
		<layer id="238" name="44314435_const" type="Const" version="opset1">
			<data element_type="f16" offset="44978" shape="1,192,1,1" size="384"/>
			<output>
				<port id="1" precision="FP16">
					<dim>1</dim>
					<dim>192</dim>
					<dim>1</dim>
					<dim>1</dim>
				</port>
			</output>
		</layer>
		<layer id="239" name="44324436_const" type="Const" version="opset1">
			<data element_type="f16" offset="45362" shape="1,192,1,1" size="384"/>
			<output>
				<port id="1" precision="FP16">
					<dim>1</dim>
					<dim>192</dim>
					<dim>1</dim>
					<dim>1</dim>
				</port>
			</output>
		</layer>
		<layer id="240" name="416/fq_input_0" type="FakeQuantize" version="opset1">
			<data levels="256"/>
			<input>
				<port id="0">
					<dim>1</dim>
					<dim>192</dim>
					<dim>52</dim>
					<dim>52</dim>
				</port>
				<port id="1">
					<dim>1</dim>
					<dim>192</dim>
					<dim>1</dim>
					<dim>1</dim>
				</port>
				<port id="2">
					<dim>1</dim>
					<dim>192</dim>
					<dim>1</dim>
					<dim>1</dim>
				</port>
				<port id="3">
					<dim>1</dim>
					<dim>192</dim>
					<dim>1</dim>
					<dim>1</dim>
				</port>
				<port id="4">
					<dim>1</dim>
					<dim>192</dim>
					<dim>1</dim>
					<dim>1</dim>
				</port>
			</input>
			<output>
				<port id="5" precision="FP16">
					<dim>1</dim>
					<dim>192</dim>
					<dim>52</dim>
					<dim>52</dim>
				</port>
			</output>
		</layer>
		<layer id="241" name="416/fq_weights_1/Convert_to_float/Cast_015665_const" type="Const" version="opset1">
			<data element_type="u8" offset="45746" shape="192,1,3,3" size="1728"/>
			<output>
				<port id="1" precision="U8">
					<dim>192</dim>
					<dim>1</dim>
					<dim>3</dim>
					<dim>3</dim>
				</port>
			</output>
		</layer>
		<layer id="242" name="416/fq_weights_1/Convert_to_float" type="Convert" version="opset1">
			<data destination_type="f16"/>
			<input>
				<port id="0">
					<dim>192</dim>
					<dim>1</dim>
					<dim>3</dim>
					<dim>3</dim>
				</port>
			</input>
			<output>
				<port id="1" precision="FP16">
					<dim>192</dim>
					<dim>1</dim>
					<dim>3</dim>
					<dim>3</dim>
				</port>
			</output>
		</layer>
		<layer id="243" name="416/fq_weights_1/Copy/out_low13324_const" type="Const" version="opset1">
			<data element_type="f16" offset="37484" shape="1" size="2"/>
			<output>
				<port id="1" precision="FP16">
					<dim>1</dim>
				</port>
			</output>
		</layer>
		<layer id="244" name="416/fq_weights_1/Copy/out_high13325_const" type="Const" version="opset1">
			<data element_type="f16" offset="6278" shape="1" size="2"/>
			<output>
				<port id="1" precision="FP16">
					<dim>1</dim>
				</port>
			</output>
		</layer>
		<layer id="245" name="44414445_const" type="Const" version="opset1">
			<data element_type="f16" offset="47474" shape="192,1,1,1" size="384"/>
			<output>
				<port id="1" precision="FP16">
					<dim>192</dim>
					<dim>1</dim>
					<dim>1</dim>
					<dim>1</dim>
				</port>
			</output>
		</layer>
		<layer id="246" name="44424446_const" type="Const" version="opset1">
			<data element_type="f16" offset="47858" shape="192,1,1,1" size="384"/>
			<output>
				<port id="1" precision="FP16">
					<dim>192</dim>
					<dim>1</dim>
					<dim>1</dim>
					<dim>1</dim>
				</port>
			</output>
		</layer>
		<layer id="247" name="416/fq_weights_1" type="FakeQuantize" version="opset1">
			<data levels="255"/>
			<input>
				<port id="0">
					<dim>192</dim>
					<dim>1</dim>
					<dim>3</dim>
					<dim>3</dim>
				</port>
				<port id="1">
					<dim>1</dim>
				</port>
				<port id="2">
					<dim>1</dim>
				</port>
				<port id="3">
					<dim>192</dim>
					<dim>1</dim>
					<dim>1</dim>
					<dim>1</dim>
				</port>
				<port id="4">
					<dim>192</dim>
					<dim>1</dim>
					<dim>1</dim>
					<dim>1</dim>
				</port>
			</input>
			<output>
				<port id="5" precision="FP16">
					<dim>192</dim>
					<dim>1</dim>
					<dim>3</dim>
					<dim>3</dim>
				</port>
			</output>
		</layer>
		<layer id="248" name="17469/value17471_const" type="Const" version="opset1">
			<data element_type="i64" offset="48242" shape="5" size="40"/>
			<output>
				<port id="1" precision="I64">
					<dim>5</dim>
				</port>
			</output>
		</layer>
		<layer id="249" name="17469" type="Reshape" version="opset1">
			<data special_zero="True"/>
			<input>
				<port id="0">
					<dim>192</dim>
					<dim>1</dim>
					<dim>3</dim>
					<dim>3</dim>
				</port>
				<port id="1">
					<dim>5</dim>
				</port>
			</input>
			<output>
				<port id="2" precision="FP16">
					<dim>192</dim>
					<dim>1</dim>
					<dim>1</dim>
					<dim>3</dim>
					<dim>3</dim>
				</port>
			</output>
		</layer>
		<layer id="250" name="416" type="GroupConvolution" version="opset1">
			<data dilations="1,1" output_padding="0,0" pads_begin="1,1" pads_end="1,1" strides="1,1"/>
			<input>
				<port id="0">
					<dim>1</dim>
					<dim>192</dim>
					<dim>52</dim>
					<dim>52</dim>
				</port>
				<port id="1">
					<dim>192</dim>
					<dim>1</dim>
					<dim>1</dim>
					<dim>3</dim>
					<dim>3</dim>
				</port>
			</input>
			<output>
				<port id="2" precision="FP16">
					<dim>1</dim>
					<dim>192</dim>
					<dim>52</dim>
					<dim>52</dim>
				</port>
			</output>
		</layer>
		<layer id="251" name="data_add_2573625741/copy_const1321_const" type="Const" version="opset1">
			<data element_type="f16" offset="48282" shape="1,192,1,1" size="384"/>
			<output>
				<port id="1" precision="FP16">
					<dim>1</dim>
					<dim>192</dim>
					<dim>1</dim>
					<dim>1</dim>
				</port>
			</output>
		</layer>
		<layer id="252" name="417/variance/Fused_Add_" type="Add" version="opset1">
			<input>
				<port id="0">
					<dim>1</dim>
					<dim>192</dim>
					<dim>52</dim>
					<dim>52</dim>
				</port>
				<port id="1">
					<dim>1</dim>
					<dim>192</dim>
					<dim>1</dim>
					<dim>1</dim>
				</port>
			</input>
			<output>
				<port id="2" precision="FP16">
					<dim>1</dim>
					<dim>192</dim>
					<dim>52</dim>
					<dim>52</dim>
				</port>
			</output>
		</layer>
		<layer id="253" name="418" type="Clamp" version="opset1">
			<data max="6.0" min="0.0"/>
			<input>
				<port id="0">
					<dim>1</dim>
					<dim>192</dim>
					<dim>52</dim>
					<dim>52</dim>
				</port>
			</input>
			<output>
				<port id="1" precision="FP16">
					<dim>1</dim>
					<dim>192</dim>
					<dim>52</dim>
					<dim>52</dim>
				</port>
			</output>
		</layer>
		<layer id="254" name="58595863_const" type="Const" version="opset1">
			<data element_type="f16" offset="48666" shape="" size="2"/>
			<output>
				<port id="1" precision="FP16"/>
			</output>
		</layer>
		<layer id="255" name="58605864_const" type="Const" version="opset1">
			<data element_type="f16" offset="48668" shape="" size="2"/>
			<output>
				<port id="1" precision="FP16"/>
			</output>
		</layer>
		<layer id="256" name="58615865_const" type="Const" version="opset1">
			<data element_type="f16" offset="48666" shape="" size="2"/>
			<output>
				<port id="1" precision="FP16"/>
			</output>
		</layer>
		<layer id="257" name="58625866_const" type="Const" version="opset1">
			<data element_type="f16" offset="48668" shape="" size="2"/>
			<output>
				<port id="1" precision="FP16"/>
			</output>
		</layer>
		<layer id="258" name="419/fq_input_0" type="FakeQuantize" version="opset1">
			<data levels="256"/>
			<input>
				<port id="0">
					<dim>1</dim>
					<dim>192</dim>
					<dim>52</dim>
					<dim>52</dim>
				</port>
				<port id="1"/>
				<port id="2"/>
				<port id="3"/>
				<port id="4"/>
			</input>
			<output>
				<port id="5" precision="FP16">
					<dim>1</dim>
					<dim>192</dim>
					<dim>52</dim>
					<dim>52</dim>
				</port>
			</output>
		</layer>
		<layer id="259" name="419/fq_weights_1/Convert_to_float/Cast_015307_const" type="Const" version="opset1">
			<data element_type="u8" offset="48670" shape="32,192,1,1" size="6144"/>
			<output>
				<port id="1" precision="U8">
					<dim>32</dim>
					<dim>192</dim>
					<dim>1</dim>
					<dim>1</dim>
				</port>
			</output>
		</layer>
		<layer id="260" name="419/fq_weights_1/Convert_to_float" type="Convert" version="opset1">
			<data destination_type="f16"/>
			<input>
				<port id="0">
					<dim>32</dim>
					<dim>192</dim>
					<dim>1</dim>
					<dim>1</dim>
				</port>
			</input>
			<output>
				<port id="1" precision="FP16">
					<dim>32</dim>
					<dim>192</dim>
					<dim>1</dim>
					<dim>1</dim>
				</port>
			</output>
		</layer>
		<layer id="261" name="419/fq_weights_1/Copy/out_low12884_const" type="Const" version="opset1">
			<data element_type="f16" offset="54814" shape="1" size="2"/>
			<output>
				<port id="1" precision="FP16">
					<dim>1</dim>
				</port>
			</output>
		</layer>
		<layer id="262" name="419/fq_weights_1/Copy/out_high12885_const" type="Const" version="opset1">
			<data element_type="f16" offset="6278" shape="1" size="2"/>
			<output>
				<port id="1" precision="FP16">
					<dim>1</dim>
				</port>
			</output>
		</layer>
		<layer id="263" name="58715875_const" type="Const" version="opset1">
			<data element_type="f16" offset="54816" shape="32,1,1,1" size="64"/>
			<output>
				<port id="1" precision="FP16">
					<dim>32</dim>
					<dim>1</dim>
					<dim>1</dim>
					<dim>1</dim>
				</port>
			</output>
		</layer>
		<layer id="264" name="58725876_const" type="Const" version="opset1">
			<data element_type="f16" offset="54880" shape="32,1,1,1" size="64"/>
			<output>
				<port id="1" precision="FP16">
					<dim>32</dim>
					<dim>1</dim>
					<dim>1</dim>
					<dim>1</dim>
				</port>
			</output>
		</layer>
		<layer id="265" name="419/fq_weights_1" type="FakeQuantize" version="opset1">
			<data levels="255"/>
			<input>
				<port id="0">
					<dim>32</dim>
					<dim>192</dim>
					<dim>1</dim>
					<dim>1</dim>
				</port>
				<port id="1">
					<dim>1</dim>
				</port>
				<port id="2">
					<dim>1</dim>
				</port>
				<port id="3">
					<dim>32</dim>
					<dim>1</dim>
					<dim>1</dim>
					<dim>1</dim>
				</port>
				<port id="4">
					<dim>32</dim>
					<dim>1</dim>
					<dim>1</dim>
					<dim>1</dim>
				</port>
			</input>
			<output>
				<port id="5" precision="FP16">
					<dim>32</dim>
					<dim>192</dim>
					<dim>1</dim>
					<dim>1</dim>
				</port>
			</output>
		</layer>
		<layer id="266" name="419" type="Convolution" version="opset1">
			<data dilations="1,1" output_padding="0,0" pads_begin="0,0" pads_end="0,0" strides="1,1"/>
			<input>
				<port id="0">
					<dim>1</dim>
					<dim>192</dim>
					<dim>52</dim>
					<dim>52</dim>
				</port>
				<port id="1">
					<dim>32</dim>
					<dim>192</dim>
					<dim>1</dim>
					<dim>1</dim>
				</port>
			</input>
			<output>
				<port id="2" precision="FP16">
					<dim>1</dim>
					<dim>32</dim>
					<dim>52</dim>
					<dim>52</dim>
				</port>
			</output>
		</layer>
		<layer id="267" name="data_add_2574425749/copy_const1326_const" type="Const" version="opset1">
			<data element_type="f16" offset="54944" shape="1,32,1,1" size="64"/>
			<output>
				<port id="1" precision="FP16">
					<dim>1</dim>
					<dim>32</dim>
					<dim>1</dim>
					<dim>1</dim>
				</port>
			</output>
		</layer>
		<layer id="268" name="420/variance/Fused_Add_" type="Add" version="opset1">
			<input>
				<port id="0">
					<dim>1</dim>
					<dim>32</dim>
					<dim>52</dim>
					<dim>52</dim>
				</port>
				<port id="1">
					<dim>1</dim>
					<dim>32</dim>
					<dim>1</dim>
					<dim>1</dim>
				</port>
			</input>
			<output>
				<port id="2" precision="FP16">
					<dim>1</dim>
					<dim>32</dim>
					<dim>52</dim>
					<dim>52</dim>
				</port>
			</output>
		</layer>
		<layer id="269" name="61196123_const" type="Const" version="opset1">
			<data element_type="f16" offset="55008" shape="" size="2"/>
			<output>
				<port id="1" precision="FP16"/>
			</output>
		</layer>
		<layer id="270" name="61206124_const" type="Const" version="opset1">
			<data element_type="f16" offset="55010" shape="" size="2"/>
			<output>
				<port id="1" precision="FP16"/>
			</output>
		</layer>
		<layer id="271" name="61216125_const" type="Const" version="opset1">
			<data element_type="f16" offset="55008" shape="" size="2"/>
			<output>
				<port id="1" precision="FP16"/>
			</output>
		</layer>
		<layer id="272" name="61226126_const" type="Const" version="opset1">
			<data element_type="f16" offset="55010" shape="" size="2"/>
			<output>
				<port id="1" precision="FP16"/>
			</output>
		</layer>
		<layer id="273" name="421/fq_input_0" type="FakeQuantize" version="opset1">
			<data levels="256"/>
			<input>
				<port id="0">
					<dim>1</dim>
					<dim>32</dim>
					<dim>52</dim>
					<dim>52</dim>
				</port>
				<port id="1"/>
				<port id="2"/>
				<port id="3"/>
				<port id="4"/>
			</input>
			<output>
				<port id="5" precision="FP16">
					<dim>1</dim>
					<dim>32</dim>
					<dim>52</dim>
					<dim>52</dim>
				</port>
			</output>
		</layer>
		<layer id="274" name="421" type="Add" version="opset1">
			<input>
				<port id="0">
					<dim>1</dim>
					<dim>32</dim>
					<dim>52</dim>
					<dim>52</dim>
				</port>
				<port id="1">
					<dim>1</dim>
					<dim>32</dim>
					<dim>52</dim>
					<dim>52</dim>
				</port>
			</input>
			<output>
				<port id="2" precision="FP16">
					<dim>1</dim>
					<dim>32</dim>
					<dim>52</dim>
					<dim>52</dim>
				</port>
			</output>
		</layer>
		<layer id="275" name="45694573_const" type="Const" version="opset1">
			<data element_type="f16" offset="55012" shape="" size="2"/>
			<output>
				<port id="1" precision="FP16"/>
			</output>
		</layer>
		<layer id="276" name="45704574_const" type="Const" version="opset1">
			<data element_type="f16" offset="55014" shape="" size="2"/>
			<output>
				<port id="1" precision="FP16"/>
			</output>
		</layer>
		<layer id="277" name="45714575_const" type="Const" version="opset1">
			<data element_type="f16" offset="55012" shape="" size="2"/>
			<output>
				<port id="1" precision="FP16"/>
			</output>
		</layer>
		<layer id="278" name="45724576_const" type="Const" version="opset1">
			<data element_type="f16" offset="55014" shape="" size="2"/>
			<output>
				<port id="1" precision="FP16"/>
			</output>
		</layer>
		<layer id="279" name="422/fq_input_0" type="FakeQuantize" version="opset1">
			<data levels="256"/>
			<input>
				<port id="0">
					<dim>1</dim>
					<dim>32</dim>
					<dim>52</dim>
					<dim>52</dim>
				</port>
				<port id="1"/>
				<port id="2"/>
				<port id="3"/>
				<port id="4"/>
			</input>
			<output>
				<port id="5" precision="FP16">
					<dim>1</dim>
					<dim>32</dim>
					<dim>52</dim>
					<dim>52</dim>
				</port>
			</output>
		</layer>
		<layer id="280" name="422/fq_weights_1/Convert_to_float/Cast_015241_const" type="Const" version="opset1">
			<data element_type="u8" offset="55016" shape="192,32,1,1" size="6144"/>
			<output>
				<port id="1" precision="U8">
					<dim>192</dim>
					<dim>32</dim>
					<dim>1</dim>
					<dim>1</dim>
				</port>
			</output>
		</layer>
		<layer id="281" name="422/fq_weights_1/Convert_to_float" type="Convert" version="opset1">
			<data destination_type="f16"/>
			<input>
				<port id="0">
					<dim>192</dim>
					<dim>32</dim>
					<dim>1</dim>
					<dim>1</dim>
				</port>
			</input>
			<output>
				<port id="1" precision="FP16">
					<dim>192</dim>
					<dim>32</dim>
					<dim>1</dim>
					<dim>1</dim>
				</port>
			</output>
		</layer>
		<layer id="282" name="422/fq_weights_1/Copy/out_low12916_const" type="Const" version="opset1">
			<data element_type="f16" offset="54814" shape="1" size="2"/>
			<output>
				<port id="1" precision="FP16">
					<dim>1</dim>
				</port>
			</output>
		</layer>
		<layer id="283" name="422/fq_weights_1/Copy/out_high12917_const" type="Const" version="opset1">
			<data element_type="f16" offset="6278" shape="1" size="2"/>
			<output>
				<port id="1" precision="FP16">
					<dim>1</dim>
				</port>
			</output>
		</layer>
		<layer id="284" name="45814585_const" type="Const" version="opset1">
			<data element_type="f16" offset="61160" shape="192,1,1,1" size="384"/>
			<output>
				<port id="1" precision="FP16">
					<dim>192</dim>
					<dim>1</dim>
					<dim>1</dim>
					<dim>1</dim>
				</port>
			</output>
		</layer>
		<layer id="285" name="45824586_const" type="Const" version="opset1">
			<data element_type="f16" offset="61544" shape="192,1,1,1" size="384"/>
			<output>
				<port id="1" precision="FP16">
					<dim>192</dim>
					<dim>1</dim>
					<dim>1</dim>
					<dim>1</dim>
				</port>
			</output>
		</layer>
		<layer id="286" name="422/fq_weights_1" type="FakeQuantize" version="opset1">
			<data levels="255"/>
			<input>
				<port id="0">
					<dim>192</dim>
					<dim>32</dim>
					<dim>1</dim>
					<dim>1</dim>
				</port>
				<port id="1">
					<dim>1</dim>
				</port>
				<port id="2">
					<dim>1</dim>
				</port>
				<port id="3">
					<dim>192</dim>
					<dim>1</dim>
					<dim>1</dim>
					<dim>1</dim>
				</port>
				<port id="4">
					<dim>192</dim>
					<dim>1</dim>
					<dim>1</dim>
					<dim>1</dim>
				</port>
			</input>
			<output>
				<port id="5" precision="FP16">
					<dim>192</dim>
					<dim>32</dim>
					<dim>1</dim>
					<dim>1</dim>
				</port>
			</output>
		</layer>
		<layer id="287" name="422" type="Convolution" version="opset1">
			<data dilations="1,1" output_padding="0,0" pads_begin="0,0" pads_end="0,0" strides="1,1"/>
			<input>
				<port id="0">
					<dim>1</dim>
					<dim>32</dim>
					<dim>52</dim>
					<dim>52</dim>
				</port>
				<port id="1">
					<dim>192</dim>
					<dim>32</dim>
					<dim>1</dim>
					<dim>1</dim>
				</port>
			</input>
			<output>
				<port id="2" precision="FP16">
					<dim>1</dim>
					<dim>192</dim>
					<dim>52</dim>
					<dim>52</dim>
				</port>
			</output>
		</layer>
		<layer id="288" name="data_add_2575225757/copy_const1331_const" type="Const" version="opset1">
			<data element_type="f16" offset="61928" shape="1,192,1,1" size="384"/>
			<output>
				<port id="1" precision="FP16">
					<dim>1</dim>
					<dim>192</dim>
					<dim>1</dim>
					<dim>1</dim>
				</port>
			</output>
		</layer>
		<layer id="289" name="423/variance/Fused_Add_" type="Add" version="opset1">
			<input>
				<port id="0">
					<dim>1</dim>
					<dim>192</dim>
					<dim>52</dim>
					<dim>52</dim>
				</port>
				<port id="1">
					<dim>1</dim>
					<dim>192</dim>
					<dim>1</dim>
					<dim>1</dim>
				</port>
			</input>
			<output>
				<port id="2" precision="FP16">
					<dim>1</dim>
					<dim>192</dim>
					<dim>52</dim>
					<dim>52</dim>
				</port>
			</output>
		</layer>
		<layer id="290" name="424" type="Clamp" version="opset1">
			<data max="6.0" min="0.0"/>
			<input>
				<port id="0">
					<dim>1</dim>
					<dim>192</dim>
					<dim>52</dim>
					<dim>52</dim>
				</port>
			</input>
			<output>
				<port id="1" precision="FP16">
					<dim>1</dim>
					<dim>192</dim>
					<dim>52</dim>
					<dim>52</dim>
				</port>
			</output>
		</layer>
		<layer id="291" name="53595363_const" type="Const" version="opset1">
			<data element_type="f16" offset="44978" shape="1,192,1,1" size="384"/>
			<output>
				<port id="1" precision="FP16">
					<dim>1</dim>
					<dim>192</dim>
					<dim>1</dim>
					<dim>1</dim>
				</port>
			</output>
		</layer>
		<layer id="292" name="53605364_const" type="Const" version="opset1">
			<data element_type="f16" offset="62312" shape="1,192,1,1" size="384"/>
			<output>
				<port id="1" precision="FP16">
					<dim>1</dim>
					<dim>192</dim>
					<dim>1</dim>
					<dim>1</dim>
				</port>
			</output>
		</layer>
		<layer id="293" name="53615365_const" type="Const" version="opset1">
			<data element_type="f16" offset="44978" shape="1,192,1,1" size="384"/>
			<output>
				<port id="1" precision="FP16">
					<dim>1</dim>
					<dim>192</dim>
					<dim>1</dim>
					<dim>1</dim>
				</port>
			</output>
		</layer>
		<layer id="294" name="53625366_const" type="Const" version="opset1">
			<data element_type="f16" offset="62312" shape="1,192,1,1" size="384"/>
			<output>
				<port id="1" precision="FP16">
					<dim>1</dim>
					<dim>192</dim>
					<dim>1</dim>
					<dim>1</dim>
				</port>
			</output>
		</layer>
		<layer id="295" name="425/fq_input_0" type="FakeQuantize" version="opset1">
			<data levels="256"/>
			<input>
				<port id="0">
					<dim>1</dim>
					<dim>192</dim>
					<dim>52</dim>
					<dim>52</dim>
				</port>
				<port id="1">
					<dim>1</dim>
					<dim>192</dim>
					<dim>1</dim>
					<dim>1</dim>
				</port>
				<port id="2">
					<dim>1</dim>
					<dim>192</dim>
					<dim>1</dim>
					<dim>1</dim>
				</port>
				<port id="3">
					<dim>1</dim>
					<dim>192</dim>
					<dim>1</dim>
					<dim>1</dim>
				</port>
				<port id="4">
					<dim>1</dim>
					<dim>192</dim>
					<dim>1</dim>
					<dim>1</dim>
				</port>
			</input>
			<output>
				<port id="5" precision="FP16">
					<dim>1</dim>
					<dim>192</dim>
					<dim>52</dim>
					<dim>52</dim>
				</port>
			</output>
		</layer>
		<layer id="296" name="425/fq_weights_1/Convert_to_float/Cast_015447_const" type="Const" version="opset1">
			<data element_type="u8" offset="62696" shape="192,1,3,3" size="1728"/>
			<output>
				<port id="1" precision="U8">
					<dim>192</dim>
					<dim>1</dim>
					<dim>3</dim>
					<dim>3</dim>
				</port>
			</output>
		</layer>
		<layer id="297" name="425/fq_weights_1/Convert_to_float" type="Convert" version="opset1">
			<data destination_type="f16"/>
			<input>
				<port id="0">
					<dim>192</dim>
					<dim>1</dim>
					<dim>3</dim>
					<dim>3</dim>
				</port>
			</input>
			<output>
				<port id="1" precision="FP16">
					<dim>192</dim>
					<dim>1</dim>
					<dim>3</dim>
					<dim>3</dim>
				</port>
			</output>
		</layer>
		<layer id="298" name="425/fq_weights_1/Copy/out_low13460_const" type="Const" version="opset1">
			<data element_type="f16" offset="54814" shape="1" size="2"/>
			<output>
				<port id="1" precision="FP16">
					<dim>1</dim>
				</port>
			</output>
		</layer>
		<layer id="299" name="425/fq_weights_1/Copy/out_high13461_const" type="Const" version="opset1">
			<data element_type="f16" offset="6278" shape="1" size="2"/>
			<output>
				<port id="1" precision="FP16">
					<dim>1</dim>
				</port>
			</output>
		</layer>
		<layer id="300" name="53715375_const" type="Const" version="opset1">
			<data element_type="f16" offset="64424" shape="192,1,1,1" size="384"/>
			<output>
				<port id="1" precision="FP16">
					<dim>192</dim>
					<dim>1</dim>
					<dim>1</dim>
					<dim>1</dim>
				</port>
			</output>
		</layer>
		<layer id="301" name="53725376_const" type="Const" version="opset1">
			<data element_type="f16" offset="64808" shape="192,1,1,1" size="384"/>
			<output>
				<port id="1" precision="FP16">
					<dim>192</dim>
					<dim>1</dim>
					<dim>1</dim>
					<dim>1</dim>
				</port>
			</output>
		</layer>
		<layer id="302" name="425/fq_weights_1" type="FakeQuantize" version="opset1">
			<data levels="255"/>
			<input>
				<port id="0">
					<dim>192</dim>
					<dim>1</dim>
					<dim>3</dim>
					<dim>3</dim>
				</port>
				<port id="1">
					<dim>1</dim>
				</port>
				<port id="2">
					<dim>1</dim>
				</port>
				<port id="3">
					<dim>192</dim>
					<dim>1</dim>
					<dim>1</dim>
					<dim>1</dim>
				</port>
				<port id="4">
					<dim>192</dim>
					<dim>1</dim>
					<dim>1</dim>
					<dim>1</dim>
				</port>
			</input>
			<output>
				<port id="5" precision="FP16">
					<dim>192</dim>
					<dim>1</dim>
					<dim>3</dim>
					<dim>3</dim>
				</port>
			</output>
		</layer>
		<layer id="303" name="17417/value17419_const" type="Const" version="opset1">
			<data element_type="i64" offset="48242" shape="5" size="40"/>
			<output>
				<port id="1" precision="I64">
					<dim>5</dim>
				</port>
			</output>
		</layer>
		<layer id="304" name="17417" type="Reshape" version="opset1">
			<data special_zero="True"/>
			<input>
				<port id="0">
					<dim>192</dim>
					<dim>1</dim>
					<dim>3</dim>
					<dim>3</dim>
				</port>
				<port id="1">
					<dim>5</dim>
				</port>
			</input>
			<output>
				<port id="2" precision="FP16">
					<dim>192</dim>
					<dim>1</dim>
					<dim>1</dim>
					<dim>3</dim>
					<dim>3</dim>
				</port>
			</output>
		</layer>
		<layer id="305" name="425" type="GroupConvolution" version="opset1">
			<data dilations="1,1" output_padding="0,0" pads_begin="1,1" pads_end="1,1" strides="1,1"/>
			<input>
				<port id="0">
					<dim>1</dim>
					<dim>192</dim>
					<dim>52</dim>
					<dim>52</dim>
				</port>
				<port id="1">
					<dim>192</dim>
					<dim>1</dim>
					<dim>1</dim>
					<dim>3</dim>
					<dim>3</dim>
				</port>
			</input>
			<output>
				<port id="2" precision="FP16">
					<dim>1</dim>
					<dim>192</dim>
					<dim>52</dim>
					<dim>52</dim>
				</port>
			</output>
		</layer>
		<layer id="306" name="data_add_2576025765/copy_const1336_const" type="Const" version="opset1">
			<data element_type="f16" offset="65192" shape="1,192,1,1" size="384"/>
			<output>
				<port id="1" precision="FP16">
					<dim>1</dim>
					<dim>192</dim>
					<dim>1</dim>
					<dim>1</dim>
				</port>
			</output>
		</layer>
		<layer id="307" name="426/variance/Fused_Add_" type="Add" version="opset1">
			<input>
				<port id="0">
					<dim>1</dim>
					<dim>192</dim>
					<dim>52</dim>
					<dim>52</dim>
				</port>
				<port id="1">
					<dim>1</dim>
					<dim>192</dim>
					<dim>1</dim>
					<dim>1</dim>
				</port>
			</input>
			<output>
				<port id="2" precision="FP16">
					<dim>1</dim>
					<dim>192</dim>
					<dim>52</dim>
					<dim>52</dim>
				</port>
			</output>
		</layer>
		<layer id="308" name="427" type="Clamp" version="opset1">
			<data max="6.0" min="0.0"/>
			<input>
				<port id="0">
					<dim>1</dim>
					<dim>192</dim>
					<dim>52</dim>
					<dim>52</dim>
				</port>
			</input>
			<output>
				<port id="1" precision="FP16">
					<dim>1</dim>
					<dim>192</dim>
					<dim>52</dim>
					<dim>52</dim>
				</port>
			</output>
		</layer>
		<layer id="309" name="59895993_const" type="Const" version="opset1">
			<data element_type="f16" offset="65576" shape="" size="2"/>
			<output>
				<port id="1" precision="FP16"/>
			</output>
		</layer>
		<layer id="310" name="59905994_const" type="Const" version="opset1">
			<data element_type="f16" offset="65578" shape="" size="2"/>
			<output>
				<port id="1" precision="FP16"/>
			</output>
		</layer>
		<layer id="311" name="59915995_const" type="Const" version="opset1">
			<data element_type="f16" offset="65576" shape="" size="2"/>
			<output>
				<port id="1" precision="FP16"/>
			</output>
		</layer>
		<layer id="312" name="59925996_const" type="Const" version="opset1">
			<data element_type="f16" offset="65578" shape="" size="2"/>
			<output>
				<port id="1" precision="FP16"/>
			</output>
		</layer>
		<layer id="313" name="428/fq_input_0" type="FakeQuantize" version="opset1">
			<data levels="256"/>
			<input>
				<port id="0">
					<dim>1</dim>
					<dim>192</dim>
					<dim>52</dim>
					<dim>52</dim>
				</port>
				<port id="1"/>
				<port id="2"/>
				<port id="3"/>
				<port id="4"/>
			</input>
			<output>
				<port id="5" precision="FP16">
					<dim>1</dim>
					<dim>192</dim>
					<dim>52</dim>
					<dim>52</dim>
				</port>
			</output>
		</layer>
		<layer id="314" name="428/fq_weights_1/Convert_to_float/Cast_015693_const" type="Const" version="opset1">
			<data element_type="u8" offset="65580" shape="32,192,1,1" size="6144"/>
			<output>
				<port id="1" precision="U8">
					<dim>32</dim>
					<dim>192</dim>
					<dim>1</dim>
					<dim>1</dim>
				</port>
			</output>
		</layer>
		<layer id="315" name="428/fq_weights_1/Convert_to_float" type="Convert" version="opset1">
			<data destination_type="f16"/>
			<input>
				<port id="0">
					<dim>32</dim>
					<dim>192</dim>
					<dim>1</dim>
					<dim>1</dim>
				</port>
			</input>
			<output>
				<port id="1" precision="FP16">
					<dim>32</dim>
					<dim>192</dim>
					<dim>1</dim>
					<dim>1</dim>
				</port>
			</output>
		</layer>
		<layer id="316" name="428/fq_weights_1/Copy/out_low13396_const" type="Const" version="opset1">
			<data element_type="f16" offset="71724" shape="1" size="2"/>
			<output>
				<port id="1" precision="FP16">
					<dim>1</dim>
				</port>
			</output>
		</layer>
		<layer id="317" name="428/fq_weights_1/Copy/out_high13397_const" type="Const" version="opset1">
			<data element_type="f16" offset="6278" shape="1" size="2"/>
			<output>
				<port id="1" precision="FP16">
					<dim>1</dim>
				</port>
			</output>
		</layer>
		<layer id="318" name="60016005_const" type="Const" version="opset1">
			<data element_type="f16" offset="71726" shape="32,1,1,1" size="64"/>
			<output>
				<port id="1" precision="FP16">
					<dim>32</dim>
					<dim>1</dim>
					<dim>1</dim>
					<dim>1</dim>
				</port>
			</output>
		</layer>
		<layer id="319" name="60026006_const" type="Const" version="opset1">
			<data element_type="f16" offset="71790" shape="32,1,1,1" size="64"/>
			<output>
				<port id="1" precision="FP16">
					<dim>32</dim>
					<dim>1</dim>
					<dim>1</dim>
					<dim>1</dim>
				</port>
			</output>
		</layer>
		<layer id="320" name="428/fq_weights_1" type="FakeQuantize" version="opset1">
			<data levels="255"/>
			<input>
				<port id="0">
					<dim>32</dim>
					<dim>192</dim>
					<dim>1</dim>
					<dim>1</dim>
				</port>
				<port id="1">
					<dim>1</dim>
				</port>
				<port id="2">
					<dim>1</dim>
				</port>
				<port id="3">
					<dim>32</dim>
					<dim>1</dim>
					<dim>1</dim>
					<dim>1</dim>
				</port>
				<port id="4">
					<dim>32</dim>
					<dim>1</dim>
					<dim>1</dim>
					<dim>1</dim>
				</port>
			</input>
			<output>
				<port id="5" precision="FP16">
					<dim>32</dim>
					<dim>192</dim>
					<dim>1</dim>
					<dim>1</dim>
				</port>
			</output>
		</layer>
		<layer id="321" name="428" type="Convolution" version="opset1">
			<data dilations="1,1" output_padding="0,0" pads_begin="0,0" pads_end="0,0" strides="1,1"/>
			<input>
				<port id="0">
					<dim>1</dim>
					<dim>192</dim>
					<dim>52</dim>
					<dim>52</dim>
				</port>
				<port id="1">
					<dim>32</dim>
					<dim>192</dim>
					<dim>1</dim>
					<dim>1</dim>
				</port>
			</input>
			<output>
				<port id="2" precision="FP16">
					<dim>1</dim>
					<dim>32</dim>
					<dim>52</dim>
					<dim>52</dim>
				</port>
			</output>
		</layer>
		<layer id="322" name="data_add_2576825773/copy_const1341_const" type="Const" version="opset1">
			<data element_type="f16" offset="71854" shape="1,32,1,1" size="64"/>
			<output>
				<port id="1" precision="FP16">
					<dim>1</dim>
					<dim>32</dim>
					<dim>1</dim>
					<dim>1</dim>
				</port>
			</output>
		</layer>
		<layer id="323" name="429/variance/Fused_Add_" type="Add" version="opset1">
			<input>
				<port id="0">
					<dim>1</dim>
					<dim>32</dim>
					<dim>52</dim>
					<dim>52</dim>
				</port>
				<port id="1">
					<dim>1</dim>
					<dim>32</dim>
					<dim>1</dim>
					<dim>1</dim>
				</port>
			</input>
			<output>
				<port id="2" precision="FP16">
					<dim>1</dim>
					<dim>32</dim>
					<dim>52</dim>
					<dim>52</dim>
				</port>
			</output>
		</layer>
		<layer id="324" name="63096313_const" type="Const" version="opset1">
			<data element_type="f16" offset="71918" shape="" size="2"/>
			<output>
				<port id="1" precision="FP16"/>
			</output>
		</layer>
		<layer id="325" name="63106314_const" type="Const" version="opset1">
			<data element_type="f16" offset="71920" shape="" size="2"/>
			<output>
				<port id="1" precision="FP16"/>
			</output>
		</layer>
		<layer id="326" name="63116315_const" type="Const" version="opset1">
			<data element_type="f16" offset="71918" shape="" size="2"/>
			<output>
				<port id="1" precision="FP16"/>
			</output>
		</layer>
		<layer id="327" name="63126316_const" type="Const" version="opset1">
			<data element_type="f16" offset="71920" shape="" size="2"/>
			<output>
				<port id="1" precision="FP16"/>
			</output>
		</layer>
		<layer id="328" name="430/fq_input_0" type="FakeQuantize" version="opset1">
			<data levels="256"/>
			<input>
				<port id="0">
					<dim>1</dim>
					<dim>32</dim>
					<dim>52</dim>
					<dim>52</dim>
				</port>
				<port id="1"/>
				<port id="2"/>
				<port id="3"/>
				<port id="4"/>
			</input>
			<output>
				<port id="5" precision="FP16">
					<dim>1</dim>
					<dim>32</dim>
					<dim>52</dim>
					<dim>52</dim>
				</port>
			</output>
		</layer>
		<layer id="329" name="430" type="Add" version="opset1">
			<input>
				<port id="0">
					<dim>1</dim>
					<dim>32</dim>
					<dim>52</dim>
					<dim>52</dim>
				</port>
				<port id="1">
					<dim>1</dim>
					<dim>32</dim>
					<dim>52</dim>
					<dim>52</dim>
				</port>
			</input>
			<output>
				<port id="2" precision="FP16">
					<dim>1</dim>
					<dim>32</dim>
					<dim>52</dim>
					<dim>52</dim>
				</port>
			</output>
		</layer>
		<layer id="330" name="51595163_const" type="Const" version="opset1">
			<data element_type="f16" offset="71922" shape="" size="2"/>
			<output>
				<port id="1" precision="FP16"/>
			</output>
		</layer>
		<layer id="331" name="51605164_const" type="Const" version="opset1">
			<data element_type="f16" offset="71924" shape="" size="2"/>
			<output>
				<port id="1" precision="FP16"/>
			</output>
		</layer>
		<layer id="332" name="51615165_const" type="Const" version="opset1">
			<data element_type="f16" offset="71922" shape="" size="2"/>
			<output>
				<port id="1" precision="FP16"/>
			</output>
		</layer>
		<layer id="333" name="51625166_const" type="Const" version="opset1">
			<data element_type="f16" offset="71924" shape="" size="2"/>
			<output>
				<port id="1" precision="FP16"/>
			</output>
		</layer>
		<layer id="334" name="431/fq_input_0" type="FakeQuantize" version="opset1">
			<data levels="256"/>
			<input>
				<port id="0">
					<dim>1</dim>
					<dim>32</dim>
					<dim>52</dim>
					<dim>52</dim>
				</port>
				<port id="1"/>
				<port id="2"/>
				<port id="3"/>
				<port id="4"/>
			</input>
			<output>
				<port id="5" precision="FP16">
					<dim>1</dim>
					<dim>32</dim>
					<dim>52</dim>
					<dim>52</dim>
				</port>
			</output>
		</layer>
		<layer id="335" name="526/WithoutBiases/fq_weights_1/Convert_to_float/Cast_015565_const" type="Const" version="opset1">
			<data element_type="u8" offset="71926" shape="48,32,1,1" size="1536"/>
			<output>
				<port id="1" precision="U8">
					<dim>48</dim>
					<dim>32</dim>
					<dim>1</dim>
					<dim>1</dim>
				</port>
			</output>
		</layer>
		<layer id="336" name="526/WithoutBiases/fq_weights_1/Convert_to_float" type="Convert" version="opset1">
			<data destination_type="f16"/>
			<input>
				<port id="0">
					<dim>48</dim>
					<dim>32</dim>
					<dim>1</dim>
					<dim>1</dim>
				</port>
			</input>
			<output>
				<port id="1" precision="FP16">
					<dim>48</dim>
					<dim>32</dim>
					<dim>1</dim>
					<dim>1</dim>
				</port>
			</output>
		</layer>
		<layer id="337" name="526/WithoutBiases/fq_weights_1/Copy/out_low13228_const" type="Const" version="opset1">
			<data element_type="f16" offset="71724" shape="1" size="2"/>
			<output>
				<port id="1" precision="FP16">
					<dim>1</dim>
				</port>
			</output>
		</layer>
		<layer id="338" name="526/WithoutBiases/fq_weights_1/Copy/out_high13229_const" type="Const" version="opset1">
			<data element_type="f16" offset="6278" shape="1" size="2"/>
			<output>
				<port id="1" precision="FP16">
					<dim>1</dim>
				</port>
			</output>
		</layer>
		<layer id="339" name="65816585_const" type="Const" version="opset1">
			<data element_type="f16" offset="73462" shape="48,1,1,1" size="96"/>
			<output>
				<port id="1" precision="FP16">
					<dim>48</dim>
					<dim>1</dim>
					<dim>1</dim>
					<dim>1</dim>
				</port>
			</output>
		</layer>
		<layer id="340" name="65826586_const" type="Const" version="opset1">
			<data element_type="f16" offset="73558" shape="48,1,1,1" size="96"/>
			<output>
				<port id="1" precision="FP16">
					<dim>48</dim>
					<dim>1</dim>
					<dim>1</dim>
					<dim>1</dim>
				</port>
			</output>
		</layer>
		<layer id="341" name="526/WithoutBiases/fq_weights_1" type="FakeQuantize" version="opset1">
			<data levels="255"/>
			<input>
				<port id="0">
					<dim>48</dim>
					<dim>32</dim>
					<dim>1</dim>
					<dim>1</dim>
				</port>
				<port id="1">
					<dim>1</dim>
				</port>
				<port id="2">
					<dim>1</dim>
				</port>
				<port id="3">
					<dim>48</dim>
					<dim>1</dim>
					<dim>1</dim>
					<dim>1</dim>
				</port>
				<port id="4">
					<dim>48</dim>
					<dim>1</dim>
					<dim>1</dim>
					<dim>1</dim>
				</port>
			</input>
			<output>
				<port id="5" precision="FP16">
					<dim>48</dim>
					<dim>32</dim>
					<dim>1</dim>
					<dim>1</dim>
				</port>
			</output>
		</layer>
		<layer id="342" name="526/WithoutBiases" type="Convolution" version="opset1">
			<data dilations="1,1" output_padding="0,0" pads_begin="0,0" pads_end="0,0" strides="1,1"/>
			<input>
				<port id="0">
					<dim>1</dim>
					<dim>32</dim>
					<dim>52</dim>
					<dim>52</dim>
				</port>
				<port id="1">
					<dim>48</dim>
					<dim>32</dim>
					<dim>1</dim>
					<dim>1</dim>
				</port>
			</input>
			<output>
				<port id="2" precision="FP16">
					<dim>1</dim>
					<dim>48</dim>
					<dim>52</dim>
					<dim>52</dim>
				</port>
			</output>
		</layer>
		<layer id="343" name="526/Dims16786/copy_const1346_const" type="Const" version="opset1">
			<data element_type="f16" offset="73654" shape="1,48,1,1" size="96"/>
			<output>
				<port id="1" precision="FP16">
					<dim>1</dim>
					<dim>48</dim>
					<dim>1</dim>
					<dim>1</dim>
				</port>
			</output>
		</layer>
		<layer id="344" name="526" type="Add" version="opset1">
			<input>
				<port id="0">
					<dim>1</dim>
					<dim>48</dim>
					<dim>52</dim>
					<dim>52</dim>
				</port>
				<port id="1">
					<dim>1</dim>
					<dim>48</dim>
					<dim>1</dim>
					<dim>1</dim>
				</port>
			</input>
			<output>
				<port id="2" precision="FP16">
					<dim>1</dim>
					<dim>48</dim>
					<dim>52</dim>
					<dim>52</dim>
				</port>
			</output>
		</layer>
		<layer id="345" name="46994703_const" type="Const" version="opset1">
			<data element_type="f16" offset="73750" shape="" size="2"/>
			<output>
				<port id="1" precision="FP16"/>
			</output>
		</layer>
		<layer id="346" name="47004704_const" type="Const" version="opset1">
			<data element_type="f16" offset="73752" shape="" size="2"/>
			<output>
				<port id="1" precision="FP16"/>
			</output>
		</layer>
		<layer id="347" name="47014705_const" type="Const" version="opset1">
			<data element_type="f16" offset="73750" shape="" size="2"/>
			<output>
				<port id="1" precision="FP16"/>
			</output>
		</layer>
		<layer id="348" name="47024706_const" type="Const" version="opset1">
			<data element_type="f16" offset="73752" shape="" size="2"/>
			<output>
				<port id="1" precision="FP16"/>
			</output>
		</layer>
		<layer id="349" name="586/fq_input_0" type="FakeQuantize" version="opset1">
			<data levels="256"/>
			<input>
				<port id="0">
					<dim>1</dim>
					<dim>48</dim>
					<dim>52</dim>
					<dim>52</dim>
				</port>
				<port id="1"/>
				<port id="2"/>
				<port id="3"/>
				<port id="4"/>
			</input>
			<output>
				<port id="5" precision="FP16">
					<dim>1</dim>
					<dim>48</dim>
					<dim>52</dim>
					<dim>52</dim>
				</port>
			</output>
		</layer>
		<layer id="350" name="431/fq_weights_1/Convert_to_float/Cast_015455_const" type="Const" version="opset1">
			<data element_type="u8" offset="73754" shape="192,32,1,1" size="6144"/>
			<output>
				<port id="1" precision="U8">
					<dim>192</dim>
					<dim>32</dim>
					<dim>1</dim>
					<dim>1</dim>
				</port>
			</output>
		</layer>
		<layer id="351" name="431/fq_weights_1/Convert_to_float" type="Convert" version="opset1">
			<data destination_type="f16"/>
			<input>
				<port id="0">
					<dim>192</dim>
					<dim>32</dim>
					<dim>1</dim>
					<dim>1</dim>
				</port>
			</input>
			<output>
				<port id="1" precision="FP16">
					<dim>192</dim>
					<dim>32</dim>
					<dim>1</dim>
					<dim>1</dim>
				</port>
			</output>
		</layer>
		<layer id="352" name="431/fq_weights_1/Copy/out_low13196_const" type="Const" version="opset1">
			<data element_type="f16" offset="71724" shape="1" size="2"/>
			<output>
				<port id="1" precision="FP16">
					<dim>1</dim>
				</port>
			</output>
		</layer>
		<layer id="353" name="431/fq_weights_1/Copy/out_high13197_const" type="Const" version="opset1">
			<data element_type="f16" offset="6278" shape="1" size="2"/>
			<output>
				<port id="1" precision="FP16">
					<dim>1</dim>
				</port>
			</output>
		</layer>
		<layer id="354" name="51715175_const" type="Const" version="opset1">
			<data element_type="f16" offset="79898" shape="192,1,1,1" size="384"/>
			<output>
				<port id="1" precision="FP16">
					<dim>192</dim>
					<dim>1</dim>
					<dim>1</dim>
					<dim>1</dim>
				</port>
			</output>
		</layer>
		<layer id="355" name="51725176_const" type="Const" version="opset1">
			<data element_type="f16" offset="80282" shape="192,1,1,1" size="384"/>
			<output>
				<port id="1" precision="FP16">
					<dim>192</dim>
					<dim>1</dim>
					<dim>1</dim>
					<dim>1</dim>
				</port>
			</output>
		</layer>
		<layer id="356" name="431/fq_weights_1" type="FakeQuantize" version="opset1">
			<data levels="255"/>
			<input>
				<port id="0">
					<dim>192</dim>
					<dim>32</dim>
					<dim>1</dim>
					<dim>1</dim>
				</port>
				<port id="1">
					<dim>1</dim>
				</port>
				<port id="2">
					<dim>1</dim>
				</port>
				<port id="3">
					<dim>192</dim>
					<dim>1</dim>
					<dim>1</dim>
					<dim>1</dim>
				</port>
				<port id="4">
					<dim>192</dim>
					<dim>1</dim>
					<dim>1</dim>
					<dim>1</dim>
				</port>
			</input>
			<output>
				<port id="5" precision="FP16">
					<dim>192</dim>
					<dim>32</dim>
					<dim>1</dim>
					<dim>1</dim>
				</port>
			</output>
		</layer>
		<layer id="357" name="431" type="Convolution" version="opset1">
			<data dilations="1,1" output_padding="0,0" pads_begin="0,0" pads_end="0,0" strides="1,1"/>
			<input>
				<port id="0">
					<dim>1</dim>
					<dim>32</dim>
					<dim>52</dim>
					<dim>52</dim>
				</port>
				<port id="1">
					<dim>192</dim>
					<dim>32</dim>
					<dim>1</dim>
					<dim>1</dim>
				</port>
			</input>
			<output>
				<port id="2" precision="FP16">
					<dim>1</dim>
					<dim>192</dim>
					<dim>52</dim>
					<dim>52</dim>
				</port>
			</output>
		</layer>
		<layer id="358" name="data_add_2577625781/copy_const1350_const" type="Const" version="opset1">
			<data element_type="f16" offset="80666" shape="1,192,1,1" size="384"/>
			<output>
				<port id="1" precision="FP16">
					<dim>1</dim>
					<dim>192</dim>
					<dim>1</dim>
					<dim>1</dim>
				</port>
			</output>
		</layer>
		<layer id="359" name="432/variance/Fused_Add_" type="Add" version="opset1">
			<input>
				<port id="0">
					<dim>1</dim>
					<dim>192</dim>
					<dim>52</dim>
					<dim>52</dim>
				</port>
				<port id="1">
					<dim>1</dim>
					<dim>192</dim>
					<dim>1</dim>
					<dim>1</dim>
				</port>
			</input>
			<output>
				<port id="2" precision="FP16">
					<dim>1</dim>
					<dim>192</dim>
					<dim>52</dim>
					<dim>52</dim>
				</port>
			</output>
		</layer>
		<layer id="360" name="433" type="Clamp" version="opset1">
			<data max="6.0" min="0.0"/>
			<input>
				<port id="0">
					<dim>1</dim>
					<dim>192</dim>
					<dim>52</dim>
					<dim>52</dim>
				</port>
			</input>
			<output>
				<port id="1" precision="FP16">
					<dim>1</dim>
					<dim>192</dim>
					<dim>52</dim>
					<dim>52</dim>
				</port>
			</output>
		</layer>
		<layer id="361" name="60796083_const" type="Const" version="opset1">
			<data element_type="f16" offset="44978" shape="1,192,1,1" size="384"/>
			<output>
				<port id="1" precision="FP16">
					<dim>1</dim>
					<dim>192</dim>
					<dim>1</dim>
					<dim>1</dim>
				</port>
			</output>
		</layer>
		<layer id="362" name="60806084_const" type="Const" version="opset1">
			<data element_type="f16" offset="81050" shape="1,192,1,1" size="384"/>
			<output>
				<port id="1" precision="FP16">
					<dim>1</dim>
					<dim>192</dim>
					<dim>1</dim>
					<dim>1</dim>
				</port>
			</output>
		</layer>
		<layer id="363" name="60816085_const" type="Const" version="opset1">
			<data element_type="f16" offset="44978" shape="1,192,1,1" size="384"/>
			<output>
				<port id="1" precision="FP16">
					<dim>1</dim>
					<dim>192</dim>
					<dim>1</dim>
					<dim>1</dim>
				</port>
			</output>
		</layer>
		<layer id="364" name="60826086_const" type="Const" version="opset1">
			<data element_type="f16" offset="81050" shape="1,192,1,1" size="384"/>
			<output>
				<port id="1" precision="FP16">
					<dim>1</dim>
					<dim>192</dim>
					<dim>1</dim>
					<dim>1</dim>
				</port>
			</output>
		</layer>
		<layer id="365" name="434/fq_input_0" type="FakeQuantize" version="opset1">
			<data levels="256"/>
			<input>
				<port id="0">
					<dim>1</dim>
					<dim>192</dim>
					<dim>52</dim>
					<dim>52</dim>
				</port>
				<port id="1">
					<dim>1</dim>
					<dim>192</dim>
					<dim>1</dim>
					<dim>1</dim>
				</port>
				<port id="2">
					<dim>1</dim>
					<dim>192</dim>
					<dim>1</dim>
					<dim>1</dim>
				</port>
				<port id="3">
					<dim>1</dim>
					<dim>192</dim>
					<dim>1</dim>
					<dim>1</dim>
				</port>
				<port id="4">
					<dim>1</dim>
					<dim>192</dim>
					<dim>1</dim>
					<dim>1</dim>
				</port>
			</input>
			<output>
				<port id="5" precision="FP16">
					<dim>1</dim>
					<dim>192</dim>
					<dim>52</dim>
					<dim>52</dim>
				</port>
			</output>
		</layer>
		<layer id="366" name="434/fq_weights_1/Convert_to_float/Cast_015655_const" type="Const" version="opset1">
			<data element_type="u8" offset="81434" shape="192,1,3,3" size="1728"/>
			<output>
				<port id="1" precision="U8">
					<dim>192</dim>
					<dim>1</dim>
					<dim>3</dim>
					<dim>3</dim>
				</port>
			</output>
		</layer>
		<layer id="367" name="434/fq_weights_1/Convert_to_float" type="Convert" version="opset1">
			<data destination_type="f16"/>
			<input>
				<port id="0">
					<dim>192</dim>
					<dim>1</dim>
					<dim>3</dim>
					<dim>3</dim>
				</port>
			</input>
			<output>
				<port id="1" precision="FP16">
					<dim>192</dim>
					<dim>1</dim>
					<dim>3</dim>
					<dim>3</dim>
				</port>
			</output>
		</layer>
		<layer id="368" name="434/fq_weights_1/Copy/out_low13036_const" type="Const" version="opset1">
			<data element_type="f16" offset="71724" shape="1" size="2"/>
			<output>
				<port id="1" precision="FP16">
					<dim>1</dim>
				</port>
			</output>
		</layer>
		<layer id="369" name="434/fq_weights_1/Copy/out_high13037_const" type="Const" version="opset1">
			<data element_type="f16" offset="6278" shape="1" size="2"/>
			<output>
				<port id="1" precision="FP16">
					<dim>1</dim>
				</port>
			</output>
		</layer>
		<layer id="370" name="60916095_const" type="Const" version="opset1">
			<data element_type="f16" offset="83162" shape="192,1,1,1" size="384"/>
			<output>
				<port id="1" precision="FP16">
					<dim>192</dim>
					<dim>1</dim>
					<dim>1</dim>
					<dim>1</dim>
				</port>
			</output>
		</layer>
		<layer id="371" name="60926096_const" type="Const" version="opset1">
			<data element_type="f16" offset="83546" shape="192,1,1,1" size="384"/>
			<output>
				<port id="1" precision="FP16">
					<dim>192</dim>
					<dim>1</dim>
					<dim>1</dim>
					<dim>1</dim>
				</port>
			</output>
		</layer>
		<layer id="372" name="434/fq_weights_1" type="FakeQuantize" version="opset1">
			<data levels="255"/>
			<input>
				<port id="0">
					<dim>192</dim>
					<dim>1</dim>
					<dim>3</dim>
					<dim>3</dim>
				</port>
				<port id="1">
					<dim>1</dim>
				</port>
				<port id="2">
					<dim>1</dim>
				</port>
				<port id="3">
					<dim>192</dim>
					<dim>1</dim>
					<dim>1</dim>
					<dim>1</dim>
				</port>
				<port id="4">
					<dim>192</dim>
					<dim>1</dim>
					<dim>1</dim>
					<dim>1</dim>
				</port>
			</input>
			<output>
				<port id="5" precision="FP16">
					<dim>192</dim>
					<dim>1</dim>
					<dim>3</dim>
					<dim>3</dim>
				</port>
			</output>
		</layer>
		<layer id="373" name="17437/value17439_const" type="Const" version="opset1">
			<data element_type="i64" offset="48242" shape="5" size="40"/>
			<output>
				<port id="1" precision="I64">
					<dim>5</dim>
				</port>
			</output>
		</layer>
		<layer id="374" name="17437" type="Reshape" version="opset1">
			<data special_zero="True"/>
			<input>
				<port id="0">
					<dim>192</dim>
					<dim>1</dim>
					<dim>3</dim>
					<dim>3</dim>
				</port>
				<port id="1">
					<dim>5</dim>
				</port>
			</input>
			<output>
				<port id="2" precision="FP16">
					<dim>192</dim>
					<dim>1</dim>
					<dim>1</dim>
					<dim>3</dim>
					<dim>3</dim>
				</port>
			</output>
		</layer>
		<layer id="375" name="434" type="GroupConvolution" version="opset1">
			<data dilations="1,1" output_padding="0,0" pads_begin="1,1" pads_end="1,1" strides="2,2"/>
			<input>
				<port id="0">
					<dim>1</dim>
					<dim>192</dim>
					<dim>52</dim>
					<dim>52</dim>
				</port>
				<port id="1">
					<dim>192</dim>
					<dim>1</dim>
					<dim>1</dim>
					<dim>3</dim>
					<dim>3</dim>
				</port>
			</input>
			<output>
				<port id="2" precision="FP16">
					<dim>1</dim>
					<dim>192</dim>
					<dim>26</dim>
					<dim>26</dim>
				</port>
			</output>
		</layer>
		<layer id="376" name="data_add_2578425789/copy_const1355_const" type="Const" version="opset1">
			<data element_type="f16" offset="83930" shape="1,192,1,1" size="384"/>
			<output>
				<port id="1" precision="FP16">
					<dim>1</dim>
					<dim>192</dim>
					<dim>1</dim>
					<dim>1</dim>
				</port>
			</output>
		</layer>
		<layer id="377" name="435/variance/Fused_Add_" type="Add" version="opset1">
			<input>
				<port id="0">
					<dim>1</dim>
					<dim>192</dim>
					<dim>26</dim>
					<dim>26</dim>
				</port>
				<port id="1">
					<dim>1</dim>
					<dim>192</dim>
					<dim>1</dim>
					<dim>1</dim>
				</port>
			</input>
			<output>
				<port id="2" precision="FP16">
					<dim>1</dim>
					<dim>192</dim>
					<dim>26</dim>
					<dim>26</dim>
				</port>
			</output>
		</layer>
		<layer id="378" name="436" type="Clamp" version="opset1">
			<data max="6.0" min="0.0"/>
			<input>
				<port id="0">
					<dim>1</dim>
					<dim>192</dim>
					<dim>26</dim>
					<dim>26</dim>
				</port>
			</input>
			<output>
				<port id="1" precision="FP16">
					<dim>1</dim>
					<dim>192</dim>
					<dim>26</dim>
					<dim>26</dim>
				</port>
			</output>
		</layer>
		<layer id="379" name="54295433_const" type="Const" version="opset1">
			<data element_type="f16" offset="84314" shape="" size="2"/>
			<output>
				<port id="1" precision="FP16"/>
			</output>
		</layer>
		<layer id="380" name="54305434_const" type="Const" version="opset1">
			<data element_type="f16" offset="84316" shape="" size="2"/>
			<output>
				<port id="1" precision="FP16"/>
			</output>
		</layer>
		<layer id="381" name="54315435_const" type="Const" version="opset1">
			<data element_type="f16" offset="84314" shape="" size="2"/>
			<output>
				<port id="1" precision="FP16"/>
			</output>
		</layer>
		<layer id="382" name="54325436_const" type="Const" version="opset1">
			<data element_type="f16" offset="84316" shape="" size="2"/>
			<output>
				<port id="1" precision="FP16"/>
			</output>
		</layer>
		<layer id="383" name="437/fq_input_0" type="FakeQuantize" version="opset1">
			<data levels="256"/>
			<input>
				<port id="0">
					<dim>1</dim>
					<dim>192</dim>
					<dim>26</dim>
					<dim>26</dim>
				</port>
				<port id="1"/>
				<port id="2"/>
				<port id="3"/>
				<port id="4"/>
			</input>
			<output>
				<port id="5" precision="FP16">
					<dim>1</dim>
					<dim>192</dim>
					<dim>26</dim>
					<dim>26</dim>
				</port>
			</output>
		</layer>
		<layer id="384" name="437/fq_weights_1/Convert_to_float/Cast_015635_const" type="Const" version="opset1">
			<data element_type="u8" offset="84318" shape="64,192,1,1" size="12288"/>
			<output>
				<port id="1" precision="U8">
					<dim>64</dim>
					<dim>192</dim>
					<dim>1</dim>
					<dim>1</dim>
				</port>
			</output>
		</layer>
		<layer id="385" name="437/fq_weights_1/Convert_to_float" type="Convert" version="opset1">
			<data destination_type="f16"/>
			<input>
				<port id="0">
					<dim>64</dim>
					<dim>192</dim>
					<dim>1</dim>
					<dim>1</dim>
				</port>
			</input>
			<output>
				<port id="1" precision="FP16">
					<dim>64</dim>
					<dim>192</dim>
					<dim>1</dim>
					<dim>1</dim>
				</port>
			</output>
		</layer>
		<layer id="386" name="437/fq_weights_1/Copy/out_low12652_const" type="Const" version="opset1">
			<data element_type="f16" offset="96606" shape="1" size="2"/>
			<output>
				<port id="1" precision="FP16">
					<dim>1</dim>
				</port>
			</output>
		</layer>
		<layer id="387" name="437/fq_weights_1/Copy/out_high12653_const" type="Const" version="opset1">
			<data element_type="f16" offset="6278" shape="1" size="2"/>
			<output>
				<port id="1" precision="FP16">
					<dim>1</dim>
				</port>
			</output>
		</layer>
		<layer id="388" name="54415445_const" type="Const" version="opset1">
			<data element_type="f16" offset="96608" shape="64,1,1,1" size="128"/>
			<output>
				<port id="1" precision="FP16">
					<dim>64</dim>
					<dim>1</dim>
					<dim>1</dim>
					<dim>1</dim>
				</port>
			</output>
		</layer>
		<layer id="389" name="54425446_const" type="Const" version="opset1">
			<data element_type="f16" offset="96736" shape="64,1,1,1" size="128"/>
			<output>
				<port id="1" precision="FP16">
					<dim>64</dim>
					<dim>1</dim>
					<dim>1</dim>
					<dim>1</dim>
				</port>
			</output>
		</layer>
		<layer id="390" name="437/fq_weights_1" type="FakeQuantize" version="opset1">
			<data levels="255"/>
			<input>
				<port id="0">
					<dim>64</dim>
					<dim>192</dim>
					<dim>1</dim>
					<dim>1</dim>
				</port>
				<port id="1">
					<dim>1</dim>
				</port>
				<port id="2">
					<dim>1</dim>
				</port>
				<port id="3">
					<dim>64</dim>
					<dim>1</dim>
					<dim>1</dim>
					<dim>1</dim>
				</port>
				<port id="4">
					<dim>64</dim>
					<dim>1</dim>
					<dim>1</dim>
					<dim>1</dim>
				</port>
			</input>
			<output>
				<port id="5" precision="FP16">
					<dim>64</dim>
					<dim>192</dim>
					<dim>1</dim>
					<dim>1</dim>
				</port>
			</output>
		</layer>
		<layer id="391" name="437" type="Convolution" version="opset1">
			<data dilations="1,1" output_padding="0,0" pads_begin="0,0" pads_end="0,0" strides="1,1"/>
			<input>
				<port id="0">
					<dim>1</dim>
					<dim>192</dim>
					<dim>26</dim>
					<dim>26</dim>
				</port>
				<port id="1">
					<dim>64</dim>
					<dim>192</dim>
					<dim>1</dim>
					<dim>1</dim>
				</port>
			</input>
			<output>
				<port id="2" precision="FP16">
					<dim>1</dim>
					<dim>64</dim>
					<dim>26</dim>
					<dim>26</dim>
				</port>
			</output>
		</layer>
		<layer id="392" name="data_add_2579225797/copy_const1360_const" type="Const" version="opset1">
			<data element_type="f16" offset="96864" shape="1,64,1,1" size="128"/>
			<output>
				<port id="1" precision="FP16">
					<dim>1</dim>
					<dim>64</dim>
					<dim>1</dim>
					<dim>1</dim>
				</port>
			</output>
		</layer>
		<layer id="393" name="438/variance/Fused_Add_" type="Add" version="opset1">
			<input>
				<port id="0">
					<dim>1</dim>
					<dim>64</dim>
					<dim>26</dim>
					<dim>26</dim>
				</port>
				<port id="1">
					<dim>1</dim>
					<dim>64</dim>
					<dim>1</dim>
					<dim>1</dim>
				</port>
			</input>
			<output>
				<port id="2" precision="FP16">
					<dim>1</dim>
					<dim>64</dim>
					<dim>26</dim>
					<dim>26</dim>
				</port>
			</output>
		</layer>
		<layer id="394" name="73197323_const" type="Const" version="opset1">
			<data element_type="f16" offset="96992" shape="" size="2"/>
			<output>
				<port id="1" precision="FP16"/>
			</output>
		</layer>
		<layer id="395" name="73207324_const" type="Const" version="opset1">
			<data element_type="f16" offset="96994" shape="" size="2"/>
			<output>
				<port id="1" precision="FP16"/>
			</output>
		</layer>
		<layer id="396" name="73217325_const" type="Const" version="opset1">
			<data element_type="f16" offset="96992" shape="" size="2"/>
			<output>
				<port id="1" precision="FP16"/>
			</output>
		</layer>
		<layer id="397" name="73227326_const" type="Const" version="opset1">
			<data element_type="f16" offset="96994" shape="" size="2"/>
			<output>
				<port id="1" precision="FP16"/>
			</output>
		</layer>
		<layer id="398" name="439/fq_input_0" type="FakeQuantize" version="opset1">
			<data levels="256"/>
			<input>
				<port id="0">
					<dim>1</dim>
					<dim>64</dim>
					<dim>26</dim>
					<dim>26</dim>
				</port>
				<port id="1"/>
				<port id="2"/>
				<port id="3"/>
				<port id="4"/>
			</input>
			<output>
				<port id="5" precision="FP16">
					<dim>1</dim>
					<dim>64</dim>
					<dim>26</dim>
					<dim>26</dim>
				</port>
			</output>
		</layer>
		<layer id="399" name="439/fq_weights_1/Convert_to_float/Cast_015465_const" type="Const" version="opset1">
			<data element_type="u8" offset="96996" shape="384,64,1,1" size="24576"/>
			<output>
				<port id="1" precision="U8">
					<dim>384</dim>
					<dim>64</dim>
					<dim>1</dim>
					<dim>1</dim>
				</port>
			</output>
		</layer>
		<layer id="400" name="439/fq_weights_1/Convert_to_float" type="Convert" version="opset1">
			<data destination_type="f16"/>
			<input>
				<port id="0">
					<dim>384</dim>
					<dim>64</dim>
					<dim>1</dim>
					<dim>1</dim>
				</port>
			</input>
			<output>
				<port id="1" precision="FP16">
					<dim>384</dim>
					<dim>64</dim>
					<dim>1</dim>
					<dim>1</dim>
				</port>
			</output>
		</layer>
		<layer id="401" name="439/fq_weights_1/Copy/out_low12956_const" type="Const" version="opset1">
			<data element_type="f16" offset="96606" shape="1" size="2"/>
			<output>
				<port id="1" precision="FP16">
					<dim>1</dim>
				</port>
			</output>
		</layer>
		<layer id="402" name="439/fq_weights_1/Copy/out_high12957_const" type="Const" version="opset1">
			<data element_type="f16" offset="6278" shape="1" size="2"/>
			<output>
				<port id="1" precision="FP16">
					<dim>1</dim>
				</port>
			</output>
		</layer>
		<layer id="403" name="73317335_const" type="Const" version="opset1">
			<data element_type="f16" offset="121572" shape="384,1,1,1" size="768"/>
			<output>
				<port id="1" precision="FP16">
					<dim>384</dim>
					<dim>1</dim>
					<dim>1</dim>
					<dim>1</dim>
				</port>
			</output>
		</layer>
		<layer id="404" name="73327336_const" type="Const" version="opset1">
			<data element_type="f16" offset="122340" shape="384,1,1,1" size="768"/>
			<output>
				<port id="1" precision="FP16">
					<dim>384</dim>
					<dim>1</dim>
					<dim>1</dim>
					<dim>1</dim>
				</port>
			</output>
		</layer>
		<layer id="405" name="439/fq_weights_1" type="FakeQuantize" version="opset1">
			<data levels="255"/>
			<input>
				<port id="0">
					<dim>384</dim>
					<dim>64</dim>
					<dim>1</dim>
					<dim>1</dim>
				</port>
				<port id="1">
					<dim>1</dim>
				</port>
				<port id="2">
					<dim>1</dim>
				</port>
				<port id="3">
					<dim>384</dim>
					<dim>1</dim>
					<dim>1</dim>
					<dim>1</dim>
				</port>
				<port id="4">
					<dim>384</dim>
					<dim>1</dim>
					<dim>1</dim>
					<dim>1</dim>
				</port>
			</input>
			<output>
				<port id="5" precision="FP16">
					<dim>384</dim>
					<dim>64</dim>
					<dim>1</dim>
					<dim>1</dim>
				</port>
			</output>
		</layer>
		<layer id="406" name="439" type="Convolution" version="opset1">
			<data dilations="1,1" output_padding="0,0" pads_begin="0,0" pads_end="0,0" strides="1,1"/>
			<input>
				<port id="0">
					<dim>1</dim>
					<dim>64</dim>
					<dim>26</dim>
					<dim>26</dim>
				</port>
				<port id="1">
					<dim>384</dim>
					<dim>64</dim>
					<dim>1</dim>
					<dim>1</dim>
				</port>
			</input>
			<output>
				<port id="2" precision="FP16">
					<dim>1</dim>
					<dim>384</dim>
					<dim>26</dim>
					<dim>26</dim>
				</port>
			</output>
		</layer>
		<layer id="407" name="data_add_2580025805/copy_const1364_const" type="Const" version="opset1">
			<data element_type="f16" offset="123108" shape="1,384,1,1" size="768"/>
			<output>
				<port id="1" precision="FP16">
					<dim>1</dim>
					<dim>384</dim>
					<dim>1</dim>
					<dim>1</dim>
				</port>
			</output>
		</layer>
		<layer id="408" name="440/variance/Fused_Add_" type="Add" version="opset1">
			<input>
				<port id="0">
					<dim>1</dim>
					<dim>384</dim>
					<dim>26</dim>
					<dim>26</dim>
				</port>
				<port id="1">
					<dim>1</dim>
					<dim>384</dim>
					<dim>1</dim>
					<dim>1</dim>
				</port>
			</input>
			<output>
				<port id="2" precision="FP16">
					<dim>1</dim>
					<dim>384</dim>
					<dim>26</dim>
					<dim>26</dim>
				</port>
			</output>
		</layer>
		<layer id="409" name="441" type="Clamp" version="opset1">
			<data max="6.0" min="0.0"/>
			<input>
				<port id="0">
					<dim>1</dim>
					<dim>384</dim>
					<dim>26</dim>
					<dim>26</dim>
				</port>
			</input>
			<output>
				<port id="1" precision="FP16">
					<dim>1</dim>
					<dim>384</dim>
					<dim>26</dim>
					<dim>26</dim>
				</port>
			</output>
		</layer>
		<layer id="410" name="47394743_const" type="Const" version="opset1">
			<data element_type="f16" offset="123876" shape="1,384,1,1" size="768"/>
			<output>
				<port id="1" precision="FP16">
					<dim>1</dim>
					<dim>384</dim>
					<dim>1</dim>
					<dim>1</dim>
				</port>
			</output>
		</layer>
		<layer id="411" name="47404744_const" type="Const" version="opset1">
			<data element_type="f16" offset="124644" shape="1,384,1,1" size="768"/>
			<output>
				<port id="1" precision="FP16">
					<dim>1</dim>
					<dim>384</dim>
					<dim>1</dim>
					<dim>1</dim>
				</port>
			</output>
		</layer>
		<layer id="412" name="47414745_const" type="Const" version="opset1">
			<data element_type="f16" offset="123876" shape="1,384,1,1" size="768"/>
			<output>
				<port id="1" precision="FP16">
					<dim>1</dim>
					<dim>384</dim>
					<dim>1</dim>
					<dim>1</dim>
				</port>
			</output>
		</layer>
		<layer id="413" name="47424746_const" type="Const" version="opset1">
			<data element_type="f16" offset="124644" shape="1,384,1,1" size="768"/>
			<output>
				<port id="1" precision="FP16">
					<dim>1</dim>
					<dim>384</dim>
					<dim>1</dim>
					<dim>1</dim>
				</port>
			</output>
		</layer>
		<layer id="414" name="442/fq_input_0" type="FakeQuantize" version="opset1">
			<data levels="256"/>
			<input>
				<port id="0">
					<dim>1</dim>
					<dim>384</dim>
					<dim>26</dim>
					<dim>26</dim>
				</port>
				<port id="1">
					<dim>1</dim>
					<dim>384</dim>
					<dim>1</dim>
					<dim>1</dim>
				</port>
				<port id="2">
					<dim>1</dim>
					<dim>384</dim>
					<dim>1</dim>
					<dim>1</dim>
				</port>
				<port id="3">
					<dim>1</dim>
					<dim>384</dim>
					<dim>1</dim>
					<dim>1</dim>
				</port>
				<port id="4">
					<dim>1</dim>
					<dim>384</dim>
					<dim>1</dim>
					<dim>1</dim>
				</port>
			</input>
			<output>
				<port id="5" precision="FP16">
					<dim>1</dim>
					<dim>384</dim>
					<dim>26</dim>
					<dim>26</dim>
				</port>
			</output>
		</layer>
		<layer id="415" name="442/fq_weights_1/Convert_to_float/Cast_015545_const" type="Const" version="opset1">
			<data element_type="u8" offset="125412" shape="384,1,3,3" size="3456"/>
			<output>
				<port id="1" precision="U8">
					<dim>384</dim>
					<dim>1</dim>
					<dim>3</dim>
					<dim>3</dim>
				</port>
			</output>
		</layer>
		<layer id="416" name="442/fq_weights_1/Convert_to_float" type="Convert" version="opset1">
			<data destination_type="f16"/>
			<input>
				<port id="0">
					<dim>384</dim>
					<dim>1</dim>
					<dim>3</dim>
					<dim>3</dim>
				</port>
			</input>
			<output>
				<port id="1" precision="FP16">
					<dim>384</dim>
					<dim>1</dim>
					<dim>3</dim>
					<dim>3</dim>
				</port>
			</output>
		</layer>
		<layer id="417" name="442/fq_weights_1/Copy/out_low13452_const" type="Const" version="opset1">
			<data element_type="f16" offset="96606" shape="1" size="2"/>
			<output>
				<port id="1" precision="FP16">
					<dim>1</dim>
				</port>
			</output>
		</layer>
		<layer id="418" name="442/fq_weights_1/Copy/out_high13453_const" type="Const" version="opset1">
			<data element_type="f16" offset="6278" shape="1" size="2"/>
			<output>
…
		<edge from-layer="2207" from-port="1" to-layer="2208" to-port="0"/>
		<edge from-layer="2208" from-port="1" to-layer="2213" to-port="0"/>
		<edge from-layer="2209" from-port="1" to-layer="2213" to-port="1"/>
		<edge from-layer="2210" from-port="1" to-layer="2213" to-port="2"/>
		<edge from-layer="2211" from-port="1" to-layer="2213" to-port="3"/>
		<edge from-layer="2212" from-port="1" to-layer="2213" to-port="4"/>
		<edge from-layer="2206" from-port="5" to-layer="2214" to-port="0"/>
		<edge from-layer="2213" from-port="5" to-layer="2214" to-port="1"/>
		<edge from-layer="2214" from-port="2" to-layer="2216" to-port="0"/>
		<edge from-layer="2215" from-port="1" to-layer="2216" to-port="1"/>
		<edge from-layer="2216" from-port="2" to-layer="2221" to-port="0"/>
		<edge from-layer="2217" from-port="1" to-layer="2221" to-port="1"/>
		<edge from-layer="2218" from-port="1" to-layer="2221" to-port="2"/>
		<edge from-layer="2219" from-port="1" to-layer="2221" to-port="3"/>
		<edge from-layer="2220" from-port="1" to-layer="2221" to-port="4"/>
		<edge from-layer="2221" from-port="5" to-layer="2222" to-port="0"/>
		<edge from-layer="2222" from-port="1" to-layer="2224" to-port="0"/>
		<edge from-layer="2223" from-port="1" to-layer="2224" to-port="1"/>
		<edge from-layer="2224" from-port="2" to-layer="2226" to-port="0"/>
		<edge from-layer="2225" from-port="1" to-layer="2226" to-port="1"/>
		<edge from-layer="2226" from-port="2" to-layer="2227" to-port="0"/>
		<edge from-layer="2227" from-port="1" to-layer="2232" to-port="0"/>
		<edge from-layer="2228" from-port="1" to-layer="2232" to-port="1"/>
		<edge from-layer="2229" from-port="1" to-layer="2232" to-port="2"/>
		<edge from-layer="2230" from-port="1" to-layer="2232" to-port="3"/>
		<edge from-layer="2231" from-port="1" to-layer="2232" to-port="4"/>
		<edge from-layer="2233" from-port="1" to-layer="2234" to-port="0"/>
		<edge from-layer="2234" from-port="1" to-layer="2239" to-port="0"/>
		<edge from-layer="2235" from-port="1" to-layer="2239" to-port="1"/>
		<edge from-layer="2236" from-port="1" to-layer="2239" to-port="2"/>
		<edge from-layer="2237" from-port="1" to-layer="2239" to-port="3"/>
		<edge from-layer="2238" from-port="1" to-layer="2239" to-port="4"/>
		<edge from-layer="2232" from-port="5" to-layer="2240" to-port="0"/>
		<edge from-layer="2239" from-port="5" to-layer="2240" to-port="1"/>
		<edge from-layer="2240" from-port="2" to-layer="2242" to-port="0"/>
		<edge from-layer="2241" from-port="1" to-layer="2242" to-port="1"/>
		<edge from-layer="2242" from-port="2" to-layer="2247" to-port="0"/>
		<edge from-layer="2243" from-port="1" to-layer="2247" to-port="1"/>
		<edge from-layer="2244" from-port="1" to-layer="2247" to-port="2"/>
		<edge from-layer="2245" from-port="1" to-layer="2247" to-port="3"/>
		<edge from-layer="2246" from-port="1" to-layer="2247" to-port="4"/>
		<edge from-layer="2247" from-port="5" to-layer="2248" to-port="0"/>
		<edge from-layer="2248" from-port="1" to-layer="2250" to-port="0"/>
		<edge from-layer="2249" from-port="1" to-layer="2250" to-port="1"/>
		<edge from-layer="2250" from-port="2" to-layer="2252" to-port="0"/>
		<edge from-layer="2251" from-port="1" to-layer="2252" to-port="1"/>
		<edge from-layer="2252" from-port="2" to-layer="2253" to-port="0"/>
		<edge from-layer="2253" from-port="1" to-layer="2258" to-port="0"/>
		<edge from-layer="2254" from-port="1" to-layer="2258" to-port="1"/>
		<edge from-layer="2255" from-port="1" to-layer="2258" to-port="2"/>
		<edge from-layer="2256" from-port="1" to-layer="2258" to-port="3"/>
		<edge from-layer="2257" from-port="1" to-layer="2258" to-port="4"/>
		<edge from-layer="2259" from-port="1" to-layer="2260" to-port="0"/>
		<edge from-layer="2260" from-port="1" to-layer="2265" to-port="0"/>
		<edge from-layer="2261" from-port="1" to-layer="2265" to-port="1"/>
		<edge from-layer="2262" from-port="1" to-layer="2265" to-port="2"/>
		<edge from-layer="2263" from-port="1" to-layer="2265" to-port="3"/>
		<edge from-layer="2264" from-port="1" to-layer="2265" to-port="4"/>
		<edge from-layer="2258" from-port="5" to-layer="2266" to-port="0"/>
		<edge from-layer="2265" from-port="5" to-layer="2266" to-port="1"/>
		<edge from-layer="2266" from-port="2" to-layer="2268" to-port="0"/>
		<edge from-layer="2267" from-port="1" to-layer="2268" to-port="1"/>
		<edge from-layer="2268" from-port="2" to-layer="2273" to-port="0"/>
		<edge from-layer="2269" from-port="1" to-layer="2273" to-port="1"/>
		<edge from-layer="2270" from-port="1" to-layer="2273" to-port="2"/>
		<edge from-layer="2271" from-port="1" to-layer="2273" to-port="3"/>
		<edge from-layer="2272" from-port="1" to-layer="2273" to-port="4"/>
		<edge from-layer="2273" from-port="5" to-layer="2274" to-port="0"/>
		<edge from-layer="2274" from-port="1" to-layer="2276" to-port="0"/>
		<edge from-layer="2275" from-port="1" to-layer="2276" to-port="1"/>
		<edge from-layer="2276" from-port="2" to-layer="2278" to-port="0"/>
		<edge from-layer="2277" from-port="1" to-layer="2278" to-port="1"/>
		<edge from-layer="2278" from-port="2" to-layer="2279" to-port="0"/>
		<edge from-layer="2279" from-port="1" to-layer="2284" to-port="0"/>
		<edge from-layer="2280" from-port="1" to-layer="2284" to-port="1"/>
		<edge from-layer="2281" from-port="1" to-layer="2284" to-port="2"/>
		<edge from-layer="2282" from-port="1" to-layer="2284" to-port="3"/>
		<edge from-layer="2283" from-port="1" to-layer="2284" to-port="4"/>
		<edge from-layer="2285" from-port="1" to-layer="2286" to-port="0"/>
		<edge from-layer="2286" from-port="1" to-layer="2291" to-port="0"/>
		<edge from-layer="2287" from-port="1" to-layer="2291" to-port="1"/>
		<edge from-layer="2288" from-port="1" to-layer="2291" to-port="2"/>
		<edge from-layer="2289" from-port="1" to-layer="2291" to-port="3"/>
		<edge from-layer="2290" from-port="1" to-layer="2291" to-port="4"/>
		<edge from-layer="2284" from-port="5" to-layer="2292" to-port="0"/>
		<edge from-layer="2291" from-port="5" to-layer="2292" to-port="1"/>
		<edge from-layer="2292" from-port="2" to-layer="2294" to-port="0"/>
		<edge from-layer="2293" from-port="1" to-layer="2294" to-port="1"/>
		<edge from-layer="2294" from-port="2" to-layer="2297" to-port="0"/>
		<edge from-layer="2295" from-port="1" to-layer="2297" to-port="1"/>
		<edge from-layer="2296" from-port="1" to-layer="2297" to-port="2"/>
		<edge from-layer="2297" from-port="3" to-layer="2299" to-port="0"/>
		<edge from-layer="2298" from-port="1" to-layer="2299" to-port="1"/>
		<edge from-layer="2299" from-port="2" to-layer="2301" to-port="0"/>
		<edge from-layer="2300" from-port="1" to-layer="2301" to-port="1"/>
		<edge from-layer="2301" from-port="2" to-layer="2302" to-port="0"/>
		<edge from-layer="2303" from-port="1" to-layer="2304" to-port="0"/>
		<edge from-layer="2304" from-port="1" to-layer="2309" to-port="0"/>
		<edge from-layer="2305" from-port="1" to-layer="2309" to-port="1"/>
		<edge from-layer="2306" from-port="1" to-layer="2309" to-port="2"/>
		<edge from-layer="2307" from-port="1" to-layer="2309" to-port="3"/>
		<edge from-layer="2308" from-port="1" to-layer="2309" to-port="4"/>
		<edge from-layer="1419" from-port="5" to-layer="2310" to-port="0"/>
		<edge from-layer="2309" from-port="5" to-layer="2310" to-port="1"/>
		<edge from-layer="2310" from-port="2" to-layer="2312" to-port="0"/>
		<edge from-layer="2311" from-port="1" to-layer="2312" to-port="1"/>
		<edge from-layer="2312" from-port="2" to-layer="2317" to-port="0"/>
		<edge from-layer="2313" from-port="1" to-layer="2317" to-port="1"/>
		<edge from-layer="2314" from-port="1" to-layer="2317" to-port="2"/>
		<edge from-layer="2315" from-port="1" to-layer="2317" to-port="3"/>
		<edge from-layer="2316" from-port="1" to-layer="2317" to-port="4"/>
		<edge from-layer="2317" from-port="5" to-layer="2318" to-port="0"/>
		<edge from-layer="2318" from-port="1" to-layer="2320" to-port="0"/>
		<edge from-layer="2319" from-port="1" to-layer="2320" to-port="1"/>
		<edge from-layer="2320" from-port="2" to-layer="2322" to-port="0"/>
		<edge from-layer="2321" from-port="1" to-layer="2322" to-port="1"/>
		<edge from-layer="2322" from-port="2" to-layer="2323" to-port="0"/>
		<edge from-layer="2323" from-port="1" to-layer="2328" to-port="0"/>
		<edge from-layer="2324" from-port="1" to-layer="2328" to-port="1"/>
		<edge from-layer="2325" from-port="1" to-layer="2328" to-port="2"/>
		<edge from-layer="2326" from-port="1" to-layer="2328" to-port="3"/>
		<edge from-layer="2327" from-port="1" to-layer="2328" to-port="4"/>
		<edge from-layer="2329" from-port="1" to-layer="2330" to-port="0"/>
		<edge from-layer="2330" from-port="1" to-layer="2335" to-port="0"/>
		<edge from-layer="2331" from-port="1" to-layer="2335" to-port="1"/>
		<edge from-layer="2332" from-port="1" to-layer="2335" to-port="2"/>
		<edge from-layer="2333" from-port="1" to-layer="2335" to-port="3"/>
		<edge from-layer="2334" from-port="1" to-layer="2335" to-port="4"/>
		<edge from-layer="2328" from-port="5" to-layer="2336" to-port="0"/>
		<edge from-layer="2335" from-port="5" to-layer="2336" to-port="1"/>
		<edge from-layer="2336" from-port="2" to-layer="2338" to-port="0"/>
		<edge from-layer="2337" from-port="1" to-layer="2338" to-port="1"/>
		<edge from-layer="2338" from-port="2" to-layer="2343" to-port="0"/>
		<edge from-layer="2339" from-port="1" to-layer="2343" to-port="1"/>
		<edge from-layer="2340" from-port="1" to-layer="2343" to-port="2"/>
		<edge from-layer="2341" from-port="1" to-layer="2343" to-port="3"/>
		<edge from-layer="2342" from-port="1" to-layer="2343" to-port="4"/>
		<edge from-layer="2343" from-port="5" to-layer="2344" to-port="0"/>
		<edge from-layer="2344" from-port="1" to-layer="2346" to-port="0"/>
		<edge from-layer="2345" from-port="1" to-layer="2346" to-port="1"/>
		<edge from-layer="2346" from-port="2" to-layer="2348" to-port="0"/>
		<edge from-layer="2347" from-port="1" to-layer="2348" to-port="1"/>
		<edge from-layer="2348" from-port="2" to-layer="2349" to-port="0"/>
		<edge from-layer="2349" from-port="1" to-layer="2354" to-port="0"/>
		<edge from-layer="2350" from-port="1" to-layer="2354" to-port="1"/>
		<edge from-layer="2351" from-port="1" to-layer="2354" to-port="2"/>
		<edge from-layer="2352" from-port="1" to-layer="2354" to-port="3"/>
		<edge from-layer="2353" from-port="1" to-layer="2354" to-port="4"/>
		<edge from-layer="2355" from-port="1" to-layer="2356" to-port="0"/>
		<edge from-layer="2356" from-port="1" to-layer="2361" to-port="0"/>
		<edge from-layer="2357" from-port="1" to-layer="2361" to-port="1"/>
		<edge from-layer="2358" from-port="1" to-layer="2361" to-port="2"/>
		<edge from-layer="2359" from-port="1" to-layer="2361" to-port="3"/>
		<edge from-layer="2360" from-port="1" to-layer="2361" to-port="4"/>
		<edge from-layer="2354" from-port="5" to-layer="2362" to-port="0"/>
		<edge from-layer="2361" from-port="5" to-layer="2362" to-port="1"/>
		<edge from-layer="2362" from-port="2" to-layer="2364" to-port="0"/>
		<edge from-layer="2363" from-port="1" to-layer="2364" to-port="1"/>
		<edge from-layer="2364" from-port="2" to-layer="2369" to-port="0"/>
		<edge from-layer="2365" from-port="1" to-layer="2369" to-port="1"/>
		<edge from-layer="2366" from-port="1" to-layer="2369" to-port="2"/>
		<edge from-layer="2367" from-port="1" to-layer="2369" to-port="3"/>
		<edge from-layer="2368" from-port="1" to-layer="2369" to-port="4"/>
		<edge from-layer="2369" from-port="5" to-layer="2370" to-port="0"/>
		<edge from-layer="2370" from-port="1" to-layer="2372" to-port="0"/>
		<edge from-layer="2371" from-port="1" to-layer="2372" to-port="1"/>
		<edge from-layer="2372" from-port="2" to-layer="2374" to-port="0"/>
		<edge from-layer="2373" from-port="1" to-layer="2374" to-port="1"/>
		<edge from-layer="2374" from-port="2" to-layer="2375" to-port="0"/>
		<edge from-layer="2375" from-port="1" to-layer="2380" to-port="0"/>
		<edge from-layer="2376" from-port="1" to-layer="2380" to-port="1"/>
		<edge from-layer="2377" from-port="1" to-layer="2380" to-port="2"/>
		<edge from-layer="2378" from-port="1" to-layer="2380" to-port="3"/>
		<edge from-layer="2379" from-port="1" to-layer="2380" to-port="4"/>
		<edge from-layer="2381" from-port="1" to-layer="2382" to-port="0"/>
		<edge from-layer="2382" from-port="1" to-layer="2387" to-port="0"/>
		<edge from-layer="2383" from-port="1" to-layer="2387" to-port="1"/>
		<edge from-layer="2384" from-port="1" to-layer="2387" to-port="2"/>
		<edge from-layer="2385" from-port="1" to-layer="2387" to-port="3"/>
		<edge from-layer="2386" from-port="1" to-layer="2387" to-port="4"/>
		<edge from-layer="2380" from-port="5" to-layer="2388" to-port="0"/>
		<edge from-layer="2387" from-port="5" to-layer="2388" to-port="1"/>
		<edge from-layer="2388" from-port="2" to-layer="2390" to-port="0"/>
		<edge from-layer="2389" from-port="1" to-layer="2390" to-port="1"/>
		<edge from-layer="2390" from-port="2" to-layer="2395" to-port="0"/>
		<edge from-layer="2391" from-port="1" to-layer="2395" to-port="1"/>
		<edge from-layer="2392" from-port="1" to-layer="2395" to-port="2"/>
		<edge from-layer="2393" from-port="1" to-layer="2395" to-port="3"/>
		<edge from-layer="2394" from-port="1" to-layer="2395" to-port="4"/>
		<edge from-layer="2395" from-port="5" to-layer="2396" to-port="0"/>
		<edge from-layer="2396" from-port="1" to-layer="2398" to-port="0"/>
		<edge from-layer="2397" from-port="1" to-layer="2398" to-port="1"/>
		<edge from-layer="2398" from-port="2" to-layer="2400" to-port="0"/>
		<edge from-layer="2399" from-port="1" to-layer="2400" to-port="1"/>
		<edge from-layer="2400" from-port="2" to-layer="2401" to-port="0"/>
		<edge from-layer="2401" from-port="1" to-layer="2406" to-port="0"/>
		<edge from-layer="2402" from-port="1" to-layer="2406" to-port="1"/>
		<edge from-layer="2403" from-port="1" to-layer="2406" to-port="2"/>
		<edge from-layer="2404" from-port="1" to-layer="2406" to-port="3"/>
		<edge from-layer="2405" from-port="1" to-layer="2406" to-port="4"/>
		<edge from-layer="2407" from-port="1" to-layer="2408" to-port="0"/>
		<edge from-layer="2408" from-port="1" to-layer="2413" to-port="0"/>
		<edge from-layer="2409" from-port="1" to-layer="2413" to-port="1"/>
		<edge from-layer="2410" from-port="1" to-layer="2413" to-port="2"/>
		<edge from-layer="2411" from-port="1" to-layer="2413" to-port="3"/>
		<edge from-layer="2412" from-port="1" to-layer="2413" to-port="4"/>
		<edge from-layer="2406" from-port="5" to-layer="2414" to-port="0"/>
		<edge from-layer="2413" from-port="5" to-layer="2414" to-port="1"/>
		<edge from-layer="2414" from-port="2" to-layer="2416" to-port="0"/>
		<edge from-layer="2415" from-port="1" to-layer="2416" to-port="1"/>
		<edge from-layer="2416" from-port="2" to-layer="2419" to-port="0"/>
		<edge from-layer="2417" from-port="1" to-layer="2419" to-port="1"/>
		<edge from-layer="2418" from-port="1" to-layer="2419" to-port="2"/>
		<edge from-layer="2419" from-port="3" to-layer="2421" to-port="0"/>
		<edge from-layer="2420" from-port="1" to-layer="2421" to-port="1"/>
		<edge from-layer="2421" from-port="2" to-layer="2423" to-port="0"/>
		<edge from-layer="2422" from-port="1" to-layer="2423" to-port="1"/>
		<edge from-layer="2423" from-port="2" to-layer="2424" to-port="0"/>
		<edge from-layer="2425" from-port="1" to-layer="2426" to-port="0"/>
		<edge from-layer="2426" from-port="1" to-layer="2431" to-port="0"/>
		<edge from-layer="2427" from-port="1" to-layer="2431" to-port="1"/>
		<edge from-layer="2428" from-port="1" to-layer="2431" to-port="2"/>
		<edge from-layer="2429" from-port="1" to-layer="2431" to-port="3"/>
		<edge from-layer="2430" from-port="1" to-layer="2431" to-port="4"/>
		<edge from-layer="1633" from-port="5" to-layer="2432" to-port="0"/>
		<edge from-layer="2431" from-port="5" to-layer="2432" to-port="1"/>
		<edge from-layer="2432" from-port="2" to-layer="2434" to-port="0"/>
		<edge from-layer="2433" from-port="1" to-layer="2434" to-port="1"/>
		<edge from-layer="2434" from-port="2" to-layer="2439" to-port="0"/>
		<edge from-layer="2435" from-port="1" to-layer="2439" to-port="1"/>
		<edge from-layer="2436" from-port="1" to-layer="2439" to-port="2"/>
		<edge from-layer="2437" from-port="1" to-layer="2439" to-port="3"/>
		<edge from-layer="2438" from-port="1" to-layer="2439" to-port="4"/>
		<edge from-layer="2439" from-port="5" to-layer="2440" to-port="0"/>
		<edge from-layer="2440" from-port="1" to-layer="2442" to-port="0"/>
		<edge from-layer="2441" from-port="1" to-layer="2442" to-port="1"/>
		<edge from-layer="2442" from-port="2" to-layer="2444" to-port="0"/>
		<edge from-layer="2443" from-port="1" to-layer="2444" to-port="1"/>
		<edge from-layer="2444" from-port="2" to-layer="2445" to-port="0"/>
		<edge from-layer="2445" from-port="1" to-layer="2450" to-port="0"/>
		<edge from-layer="2446" from-port="1" to-layer="2450" to-port="1"/>
		<edge from-layer="2447" from-port="1" to-layer="2450" to-port="2"/>
		<edge from-layer="2448" from-port="1" to-layer="2450" to-port="3"/>
		<edge from-layer="2449" from-port="1" to-layer="2450" to-port="4"/>
		<edge from-layer="2451" from-port="1" to-layer="2452" to-port="0"/>
		<edge from-layer="2452" from-port="1" to-layer="2457" to-port="0"/>
		<edge from-layer="2453" from-port="1" to-layer="2457" to-port="1"/>
		<edge from-layer="2454" from-port="1" to-layer="2457" to-port="2"/>
		<edge from-layer="2455" from-port="1" to-layer="2457" to-port="3"/>
		<edge from-layer="2456" from-port="1" to-layer="2457" to-port="4"/>
		<edge from-layer="2450" from-port="5" to-layer="2458" to-port="0"/>
		<edge from-layer="2457" from-port="5" to-layer="2458" to-port="1"/>
		<edge from-layer="2458" from-port="2" to-layer="2460" to-port="0"/>
		<edge from-layer="2459" from-port="1" to-layer="2460" to-port="1"/>
		<edge from-layer="2460" from-port="2" to-layer="2465" to-port="0"/>
		<edge from-layer="2461" from-port="1" to-layer="2465" to-port="1"/>
		<edge from-layer="2462" from-port="1" to-layer="2465" to-port="2"/>
		<edge from-layer="2463" from-port="1" to-layer="2465" to-port="3"/>
		<edge from-layer="2464" from-port="1" to-layer="2465" to-port="4"/>
		<edge from-layer="2465" from-port="5" to-layer="2466" to-port="0"/>
		<edge from-layer="2466" from-port="1" to-layer="2468" to-port="0"/>
		<edge from-layer="2467" from-port="1" to-layer="2468" to-port="1"/>
		<edge from-layer="2468" from-port="2" to-layer="2470" to-port="0"/>
		<edge from-layer="2469" from-port="1" to-layer="2470" to-port="1"/>
		<edge from-layer="2470" from-port="2" to-layer="2471" to-port="0"/>
		<edge from-layer="2471" from-port="1" to-layer="2476" to-port="0"/>
		<edge from-layer="2472" from-port="1" to-layer="2476" to-port="1"/>
		<edge from-layer="2473" from-port="1" to-layer="2476" to-port="2"/>
		<edge from-layer="2474" from-port="1" to-layer="2476" to-port="3"/>
		<edge from-layer="2475" from-port="1" to-layer="2476" to-port="4"/>
		<edge from-layer="2477" from-port="1" to-layer="2478" to-port="0"/>
		<edge from-layer="2478" from-port="1" to-layer="2483" to-port="0"/>
		<edge from-layer="2479" from-port="1" to-layer="2483" to-port="1"/>
		<edge from-layer="2480" from-port="1" to-layer="2483" to-port="2"/>
		<edge from-layer="2481" from-port="1" to-layer="2483" to-port="3"/>
		<edge from-layer="2482" from-port="1" to-layer="2483" to-port="4"/>
		<edge from-layer="2476" from-port="5" to-layer="2484" to-port="0"/>
		<edge from-layer="2483" from-port="5" to-layer="2484" to-port="1"/>
		<edge from-layer="2484" from-port="2" to-layer="2486" to-port="0"/>
		<edge from-layer="2485" from-port="1" to-layer="2486" to-port="1"/>
		<edge from-layer="2486" from-port="2" to-layer="2491" to-port="0"/>
		<edge from-layer="2487" from-port="1" to-layer="2491" to-port="1"/>
		<edge from-layer="2488" from-port="1" to-layer="2491" to-port="2"/>
		<edge from-layer="2489" from-port="1" to-layer="2491" to-port="3"/>
		<edge from-layer="2490" from-port="1" to-layer="2491" to-port="4"/>
		<edge from-layer="2491" from-port="5" to-layer="2492" to-port="0"/>
		<edge from-layer="2492" from-port="1" to-layer="2494" to-port="0"/>
		<edge from-layer="2493" from-port="1" to-layer="2494" to-port="1"/>
		<edge from-layer="2494" from-port="2" to-layer="2496" to-port="0"/>
		<edge from-layer="2495" from-port="1" to-layer="2496" to-port="1"/>
		<edge from-layer="2496" from-port="2" to-layer="2497" to-port="0"/>
		<edge from-layer="2497" from-port="1" to-layer="2502" to-port="0"/>
		<edge from-layer="2498" from-port="1" to-layer="2502" to-port="1"/>
		<edge from-layer="2499" from-port="1" to-layer="2502" to-port="2"/>
		<edge from-layer="2500" from-port="1" to-layer="2502" to-port="3"/>
		<edge from-layer="2501" from-port="1" to-layer="2502" to-port="4"/>
		<edge from-layer="2503" from-port="1" to-layer="2504" to-port="0"/>
		<edge from-layer="2504" from-port="1" to-layer="2509" to-port="0"/>
		<edge from-layer="2505" from-port="1" to-layer="2509" to-port="1"/>
		<edge from-layer="2506" from-port="1" to-layer="2509" to-port="2"/>
		<edge from-layer="2507" from-port="1" to-layer="2509" to-port="3"/>
		<edge from-layer="2508" from-port="1" to-layer="2509" to-port="4"/>
		<edge from-layer="2502" from-port="5" to-layer="2510" to-port="0"/>
		<edge from-layer="2509" from-port="5" to-layer="2510" to-port="1"/>
		<edge from-layer="2510" from-port="2" to-layer="2512" to-port="0"/>
		<edge from-layer="2511" from-port="1" to-layer="2512" to-port="1"/>
		<edge from-layer="2512" from-port="2" to-layer="2517" to-port="0"/>
		<edge from-layer="2513" from-port="1" to-layer="2517" to-port="1"/>
		<edge from-layer="2514" from-port="1" to-layer="2517" to-port="2"/>
		<edge from-layer="2515" from-port="1" to-layer="2517" to-port="3"/>
		<edge from-layer="2516" from-port="1" to-layer="2517" to-port="4"/>
		<edge from-layer="2517" from-port="5" to-layer="2518" to-port="0"/>
		<edge from-layer="2518" from-port="1" to-layer="2520" to-port="0"/>
		<edge from-layer="2519" from-port="1" to-layer="2520" to-port="1"/>
		<edge from-layer="2520" from-port="2" to-layer="2522" to-port="0"/>
		<edge from-layer="2521" from-port="1" to-layer="2522" to-port="1"/>
		<edge from-layer="2522" from-port="2" to-layer="2523" to-port="0"/>
		<edge from-layer="2523" from-port="1" to-layer="2528" to-port="0"/>
		<edge from-layer="2524" from-port="1" to-layer="2528" to-port="1"/>
		<edge from-layer="2525" from-port="1" to-layer="2528" to-port="2"/>
		<edge from-layer="2526" from-port="1" to-layer="2528" to-port="3"/>
		<edge from-layer="2527" from-port="1" to-layer="2528" to-port="4"/>
		<edge from-layer="2529" from-port="1" to-layer="2530" to-port="0"/>
		<edge from-layer="2530" from-port="1" to-layer="2535" to-port="0"/>
		<edge from-layer="2531" from-port="1" to-layer="2535" to-port="1"/>
		<edge from-layer="2532" from-port="1" to-layer="2535" to-port="2"/>
		<edge from-layer="2533" from-port="1" to-layer="2535" to-port="3"/>
		<edge from-layer="2534" from-port="1" to-layer="2535" to-port="4"/>
		<edge from-layer="2528" from-port="5" to-layer="2536" to-port="0"/>
		<edge from-layer="2535" from-port="5" to-layer="2536" to-port="1"/>
		<edge from-layer="2536" from-port="2" to-layer="2538" to-port="0"/>
		<edge from-layer="2537" from-port="1" to-layer="2538" to-port="1"/>
		<edge from-layer="2538" from-port="2" to-layer="2541" to-port="0"/>
		<edge from-layer="2539" from-port="1" to-layer="2541" to-port="1"/>
		<edge from-layer="2540" from-port="1" to-layer="2541" to-port="2"/>
		<edge from-layer="2541" from-port="3" to-layer="2543" to-port="0"/>
		<edge from-layer="2542" from-port="1" to-layer="2543" to-port="1"/>
		<edge from-layer="2543" from-port="2" to-layer="2545" to-port="0"/>
		<edge from-layer="2544" from-port="1" to-layer="2545" to-port="1"/>
		<edge from-layer="2545" from-port="2" to-layer="2546" to-port="0"/>
		<edge from-layer="2547" from-port="1" to-layer="2548" to-port="0"/>
		<edge from-layer="2548" from-port="1" to-layer="2553" to-port="0"/>
		<edge from-layer="2549" from-port="1" to-layer="2553" to-port="1"/>
		<edge from-layer="2550" from-port="1" to-layer="2553" to-port="2"/>
		<edge from-layer="2551" from-port="1" to-layer="2553" to-port="3"/>
		<edge from-layer="2552" from-port="1" to-layer="2553" to-port="4"/>
		<edge from-layer="1853" from-port="5" to-layer="2554" to-port="0"/>
		<edge from-layer="2553" from-port="5" to-layer="2554" to-port="1"/>
		<edge from-layer="2554" from-port="2" to-layer="2556" to-port="0"/>
		<edge from-layer="2555" from-port="1" to-layer="2556" to-port="1"/>
		<edge from-layer="2556" from-port="2" to-layer="2561" to-port="0"/>
		<edge from-layer="2557" from-port="1" to-layer="2561" to-port="1"/>
		<edge from-layer="2558" from-port="1" to-layer="2561" to-port="2"/>
		<edge from-layer="2559" from-port="1" to-layer="2561" to-port="3"/>
		<edge from-layer="2560" from-port="1" to-layer="2561" to-port="4"/>
		<edge from-layer="2561" from-port="5" to-layer="2562" to-port="0"/>
		<edge from-layer="2562" from-port="1" to-layer="2564" to-port="0"/>
		<edge from-layer="2563" from-port="1" to-layer="2564" to-port="1"/>
		<edge from-layer="2564" from-port="2" to-layer="2566" to-port="0"/>
		<edge from-layer="2565" from-port="1" to-layer="2566" to-port="1"/>
		<edge from-layer="2566" from-port="2" to-layer="2567" to-port="0"/>
		<edge from-layer="2567" from-port="1" to-layer="2572" to-port="0"/>
		<edge from-layer="2568" from-port="1" to-layer="2572" to-port="1"/>
		<edge from-layer="2569" from-port="1" to-layer="2572" to-port="2"/>
		<edge from-layer="2570" from-port="1" to-layer="2572" to-port="3"/>
		<edge from-layer="2571" from-port="1" to-layer="2572" to-port="4"/>
		<edge from-layer="2573" from-port="1" to-layer="2574" to-port="0"/>
		<edge from-layer="2574" from-port="1" to-layer="2579" to-port="0"/>
		<edge from-layer="2575" from-port="1" to-layer="2579" to-port="1"/>
		<edge from-layer="2576" from-port="1" to-layer="2579" to-port="2"/>
		<edge from-layer="2577" from-port="1" to-layer="2579" to-port="3"/>
		<edge from-layer="2578" from-port="1" to-layer="2579" to-port="4"/>
		<edge from-layer="2572" from-port="5" to-layer="2580" to-port="0"/>
		<edge from-layer="2579" from-port="5" to-layer="2580" to-port="1"/>
		<edge from-layer="2580" from-port="2" to-layer="2582" to-port="0"/>
		<edge from-layer="2581" from-port="1" to-layer="2582" to-port="1"/>
		<edge from-layer="2582" from-port="2" to-layer="2587" to-port="0"/>
		<edge from-layer="2583" from-port="1" to-layer="2587" to-port="1"/>
		<edge from-layer="2584" from-port="1" to-layer="2587" to-port="2"/>
		<edge from-layer="2585" from-port="1" to-layer="2587" to-port="3"/>
		<edge from-layer="2586" from-port="1" to-layer="2587" to-port="4"/>
		<edge from-layer="2587" from-port="5" to-layer="2588" to-port="0"/>
		<edge from-layer="2588" from-port="1" to-layer="2590" to-port="0"/>
		<edge from-layer="2589" from-port="1" to-layer="2590" to-port="1"/>
		<edge from-layer="2590" from-port="2" to-layer="2592" to-port="0"/>
		<edge from-layer="2591" from-port="1" to-layer="2592" to-port="1"/>
		<edge from-layer="2592" from-port="2" to-layer="2593" to-port="0"/>
		<edge from-layer="2593" from-port="1" to-layer="2598" to-port="0"/>
		<edge from-layer="2594" from-port="1" to-layer="2598" to-port="1"/>
		<edge from-layer="2595" from-port="1" to-layer="2598" to-port="2"/>
		<edge from-layer="2596" from-port="1" to-layer="2598" to-port="3"/>
		<edge from-layer="2597" from-port="1" to-layer="2598" to-port="4"/>
		<edge from-layer="2599" from-port="1" to-layer="2600" to-port="0"/>
		<edge from-layer="2600" from-port="1" to-layer="2605" to-port="0"/>
		<edge from-layer="2601" from-port="1" to-layer="2605" to-port="1"/>
		<edge from-layer="2602" from-port="1" to-layer="2605" to-port="2"/>
		<edge from-layer="2603" from-port="1" to-layer="2605" to-port="3"/>
		<edge from-layer="2604" from-port="1" to-layer="2605" to-port="4"/>
		<edge from-layer="2598" from-port="5" to-layer="2606" to-port="0"/>
		<edge from-layer="2605" from-port="5" to-layer="2606" to-port="1"/>
		<edge from-layer="2606" from-port="2" to-layer="2608" to-port="0"/>
		<edge from-layer="2607" from-port="1" to-layer="2608" to-port="1"/>
		<edge from-layer="2608" from-port="2" to-layer="2613" to-port="0"/>
		<edge from-layer="2609" from-port="1" to-layer="2613" to-port="1"/>
		<edge from-layer="2610" from-port="1" to-layer="2613" to-port="2"/>
		<edge from-layer="2611" from-port="1" to-layer="2613" to-port="3"/>
		<edge from-layer="2612" from-port="1" to-layer="2613" to-port="4"/>
		<edge from-layer="2613" from-port="5" to-layer="2614" to-port="0"/>
		<edge from-layer="2614" from-port="1" to-layer="2616" to-port="0"/>
		<edge from-layer="2615" from-port="1" to-layer="2616" to-port="1"/>
		<edge from-layer="2616" from-port="2" to-layer="2618" to-port="0"/>
		<edge from-layer="2617" from-port="1" to-layer="2618" to-port="1"/>
		<edge from-layer="2618" from-port="2" to-layer="2619" to-port="0"/>
		<edge from-layer="2619" from-port="1" to-layer="2624" to-port="0"/>
		<edge from-layer="2620" from-port="1" to-layer="2624" to-port="1"/>
		<edge from-layer="2621" from-port="1" to-layer="2624" to-port="2"/>
		<edge from-layer="2622" from-port="1" to-layer="2624" to-port="3"/>
		<edge from-layer="2623" from-port="1" to-layer="2624" to-port="4"/>
		<edge from-layer="2625" from-port="1" to-layer="2626" to-port="0"/>
		<edge from-layer="2626" from-port="1" to-layer="2631" to-port="0"/>
		<edge from-layer="2627" from-port="1" to-layer="2631" to-port="1"/>
		<edge from-layer="2628" from-port="1" to-layer="2631" to-port="2"/>
		<edge from-layer="2629" from-port="1" to-layer="2631" to-port="3"/>
		<edge from-layer="2630" from-port="1" to-layer="2631" to-port="4"/>
		<edge from-layer="2624" from-port="5" to-layer="2632" to-port="0"/>
		<edge from-layer="2631" from-port="5" to-layer="2632" to-port="1"/>
		<edge from-layer="2632" from-port="2" to-layer="2634" to-port="0"/>
		<edge from-layer="2633" from-port="1" to-layer="2634" to-port="1"/>
		<edge from-layer="2634" from-port="2" to-layer="2639" to-port="0"/>
		<edge from-layer="2635" from-port="1" to-layer="2639" to-port="1"/>
		<edge from-layer="2636" from-port="1" to-layer="2639" to-port="2"/>
		<edge from-layer="2637" from-port="1" to-layer="2639" to-port="3"/>
		<edge from-layer="2638" from-port="1" to-layer="2639" to-port="4"/>
		<edge from-layer="2639" from-port="5" to-layer="2640" to-port="0"/>
		<edge from-layer="2640" from-port="1" to-layer="2642" to-port="0"/>
		<edge from-layer="2641" from-port="1" to-layer="2642" to-port="1"/>
		<edge from-layer="2642" from-port="2" to-layer="2644" to-port="0"/>
		<edge from-layer="2643" from-port="1" to-layer="2644" to-port="1"/>
		<edge from-layer="2644" from-port="2" to-layer="2645" to-port="0"/>
		<edge from-layer="2645" from-port="1" to-layer="2650" to-port="0"/>
		<edge from-layer="2646" from-port="1" to-layer="2650" to-port="1"/>
		<edge from-layer="2647" from-port="1" to-layer="2650" to-port="2"/>
		<edge from-layer="2648" from-port="1" to-layer="2650" to-port="3"/>
		<edge from-layer="2649" from-port="1" to-layer="2650" to-port="4"/>
		<edge from-layer="2651" from-port="1" to-layer="2652" to-port="0"/>
		<edge from-layer="2652" from-port="1" to-layer="2657" to-port="0"/>
		<edge from-layer="2653" from-port="1" to-layer="2657" to-port="1"/>
		<edge from-layer="2654" from-port="1" to-layer="2657" to-port="2"/>
		<edge from-layer="2655" from-port="1" to-layer="2657" to-port="3"/>
		<edge from-layer="2656" from-port="1" to-layer="2657" to-port="4"/>
		<edge from-layer="2650" from-port="5" to-layer="2658" to-port="0"/>
		<edge from-layer="2657" from-port="5" to-layer="2658" to-port="1"/>
		<edge from-layer="2658" from-port="2" to-layer="2660" to-port="0"/>
		<edge from-layer="2659" from-port="1" to-layer="2660" to-port="1"/>
		<edge from-layer="2660" from-port="2" to-layer="2663" to-port="0"/>
		<edge from-layer="2661" from-port="1" to-layer="2663" to-port="1"/>
		<edge from-layer="2662" from-port="1" to-layer="2663" to-port="2"/>
		<edge from-layer="2663" from-port="3" to-layer="2665" to-port="0"/>
		<edge from-layer="2664" from-port="1" to-layer="2665" to-port="1"/>
		<edge from-layer="2665" from-port="2" to-layer="2667" to-port="0"/>
		<edge from-layer="2666" from-port="1" to-layer="2667" to-port="1"/>
		<edge from-layer="2667" from-port="2" to-layer="2668" to-port="0"/>
		<edge from-layer="2180" from-port="1" to-layer="2669" to-port="0"/>
		<edge from-layer="2302" from-port="1" to-layer="2669" to-port="1"/>
		<edge from-layer="2424" from-port="1" to-layer="2669" to-port="2"/>
		<edge from-layer="2546" from-port="1" to-layer="2669" to-port="3"/>
		<edge from-layer="2668" from-port="1" to-layer="2669" to-port="4"/>
		<edge from-layer="2670" from-port="1" to-layer="2671" to-port="0"/>
		<edge from-layer="2671" from-port="1" to-layer="2676" to-port="0"/>
		<edge from-layer="2672" from-port="1" to-layer="2676" to-port="1"/>
		<edge from-layer="2673" from-port="1" to-layer="2676" to-port="2"/>
		<edge from-layer="2674" from-port="1" to-layer="2676" to-port="3"/>
		<edge from-layer="2675" from-port="1" to-layer="2676" to-port="4"/>
		<edge from-layer="2162" from-port="5" to-layer="2677" to-port="0"/>
		<edge from-layer="2676" from-port="5" to-layer="2677" to-port="1"/>
		<edge from-layer="2677" from-port="2" to-layer="2679" to-port="0"/>
		<edge from-layer="2678" from-port="1" to-layer="2679" to-port="1"/>
		<edge from-layer="2679" from-port="2" to-layer="2682" to-port="0"/>
		<edge from-layer="2680" from-port="1" to-layer="2682" to-port="1"/>
		<edge from-layer="2681" from-port="1" to-layer="2682" to-port="2"/>
		<edge from-layer="2682" from-port="3" to-layer="2684" to-port="0"/>
		<edge from-layer="2683" from-port="1" to-layer="2684" to-port="1"/>
		<edge from-layer="2684" from-port="2" to-layer="2686" to-port="0"/>
		<edge from-layer="2685" from-port="1" to-layer="2686" to-port="1"/>
		<edge from-layer="2686" from-port="2" to-layer="2687" to-port="0"/>
		<edge from-layer="2688" from-port="1" to-layer="2689" to-port="0"/>
		<edge from-layer="2689" from-port="1" to-layer="2694" to-port="0"/>
		<edge from-layer="2690" from-port="1" to-layer="2694" to-port="1"/>
		<edge from-layer="2691" from-port="1" to-layer="2694" to-port="2"/>
		<edge from-layer="2692" from-port="1" to-layer="2694" to-port="3"/>
		<edge from-layer="2693" from-port="1" to-layer="2694" to-port="4"/>
		<edge from-layer="2284" from-port="5" to-layer="2695" to-port="0"/>
		<edge from-layer="2694" from-port="5" to-layer="2695" to-port="1"/>
		<edge from-layer="2695" from-port="2" to-layer="2697" to-port="0"/>
		<edge from-layer="2696" from-port="1" to-layer="2697" to-port="1"/>
		<edge from-layer="2697" from-port="2" to-layer="2700" to-port="0"/>
		<edge from-layer="2698" from-port="1" to-layer="2700" to-port="1"/>
		<edge from-layer="2699" from-port="1" to-layer="2700" to-port="2"/>
		<edge from-layer="2700" from-port="3" to-layer="2702" to-port="0"/>
		<edge from-layer="2701" from-port="1" to-layer="2702" to-port="1"/>
		<edge from-layer="2702" from-port="2" to-layer="2704" to-port="0"/>
		<edge from-layer="2703" from-port="1" to-layer="2704" to-port="1"/>
		<edge from-layer="2704" from-port="2" to-layer="2705" to-port="0"/>
		<edge from-layer="2706" from-port="1" to-layer="2707" to-port="0"/>
		<edge from-layer="2707" from-port="1" to-layer="2712" to-port="0"/>
		<edge from-layer="2708" from-port="1" to-layer="2712" to-port="1"/>
		<edge from-layer="2709" from-port="1" to-layer="2712" to-port="2"/>
		<edge from-layer="2710" from-port="1" to-layer="2712" to-port="3"/>
		<edge from-layer="2711" from-port="1" to-layer="2712" to-port="4"/>
		<edge from-layer="2406" from-port="5" to-layer="2713" to-port="0"/>
		<edge from-layer="2712" from-port="5" to-layer="2713" to-port="1"/>
		<edge from-layer="2713" from-port="2" to-layer="2715" to-port="0"/>
		<edge from-layer="2714" from-port="1" to-layer="2715" to-port="1"/>
		<edge from-layer="2715" from-port="2" to-layer="2718" to-port="0"/>
		<edge from-layer="2716" from-port="1" to-layer="2718" to-port="1"/>
		<edge from-layer="2717" from-port="1" to-layer="2718" to-port="2"/>
		<edge from-layer="2718" from-port="3" to-layer="2720" to-port="0"/>
		<edge from-layer="2719" from-port="1" to-layer="2720" to-port="1"/>
		<edge from-layer="2720" from-port="2" to-layer="2722" to-port="0"/>
		<edge from-layer="2721" from-port="1" to-layer="2722" to-port="1"/>
		<edge from-layer="2722" from-port="2" to-layer="2723" to-port="0"/>
		<edge from-layer="2724" from-port="1" to-layer="2725" to-port="0"/>
		<edge from-layer="2725" from-port="1" to-layer="2730" to-port="0"/>
		<edge from-layer="2726" from-port="1" to-layer="2730" to-port="1"/>
		<edge from-layer="2727" from-port="1" to-layer="2730" to-port="2"/>
		<edge from-layer="2728" from-port="1" to-layer="2730" to-port="3"/>
		<edge from-layer="2729" from-port="1" to-layer="2730" to-port="4"/>
		<edge from-layer="2528" from-port="5" to-layer="2731" to-port="0"/>
		<edge from-layer="2730" from-port="5" to-layer="2731" to-port="1"/>
		<edge from-layer="2731" from-port="2" to-layer="2733" to-port="0"/>
		<edge from-layer="2732" from-port="1" to-layer="2733" to-port="1"/>
		<edge from-layer="2733" from-port="2" to-layer="2736" to-port="0"/>
		<edge from-layer="2734" from-port="1" to-layer="2736" to-port="1"/>
		<edge from-layer="2735" from-port="1" to-layer="2736" to-port="2"/>
		<edge from-layer="2736" from-port="3" to-layer="2738" to-port="0"/>
		<edge from-layer="2737" from-port="1" to-layer="2738" to-port="1"/>
		<edge from-layer="2738" from-port="2" to-layer="2740" to-port="0"/>
		<edge from-layer="2739" from-port="1" to-layer="2740" to-port="1"/>
		<edge from-layer="2740" from-port="2" to-layer="2741" to-port="0"/>
		<edge from-layer="2742" from-port="1" to-layer="2743" to-port="0"/>
		<edge from-layer="2743" from-port="1" to-layer="2748" to-port="0"/>
		<edge from-layer="2744" from-port="1" to-layer="2748" to-port="1"/>
		<edge from-layer="2745" from-port="1" to-layer="2748" to-port="2"/>
		<edge from-layer="2746" from-port="1" to-layer="2748" to-port="3"/>
		<edge from-layer="2747" from-port="1" to-layer="2748" to-port="4"/>
		<edge from-layer="2650" from-port="5" to-layer="2749" to-port="0"/>
		<edge from-layer="2748" from-port="5" to-layer="2749" to-port="1"/>
		<edge from-layer="2749" from-port="2" to-layer="2751" to-port="0"/>
		<edge from-layer="2750" from-port="1" to-layer="2751" to-port="1"/>
		<edge from-layer="2751" from-port="2" to-layer="2754" to-port="0"/>
		<edge from-layer="2752" from-port="1" to-layer="2754" to-port="1"/>
		<edge from-layer="2753" from-port="1" to-layer="2754" to-port="2"/>
		<edge from-layer="2754" from-port="3" to-layer="2756" to-port="0"/>
		<edge from-layer="2755" from-port="1" to-layer="2756" to-port="1"/>
		<edge from-layer="2756" from-port="2" to-layer="2758" to-port="0"/>
		<edge from-layer="2757" from-port="1" to-layer="2758" to-port="1"/>
		<edge from-layer="2758" from-port="2" to-layer="2759" to-port="0"/>
		<edge from-layer="2687" from-port="1" to-layer="2760" to-port="0"/>
		<edge from-layer="2705" from-port="1" to-layer="2760" to-port="1"/>
		<edge from-layer="2723" from-port="1" to-layer="2760" to-port="2"/>
		<edge from-layer="2741" from-port="1" to-layer="2760" to-port="3"/>
		<edge from-layer="2759" from-port="1" to-layer="2760" to-port="4"/>
		<edge from-layer="2760" from-port="5" to-layer="2762" to-port="0"/>
		<edge from-layer="2761" from-port="1" to-layer="2762" to-port="1"/>
		<edge from-layer="2762" from-port="2" to-layer="2764" to-port="0"/>
		<edge from-layer="2763" from-port="1" to-layer="2764" to-port="1"/>
		<edge from-layer="2669" from-port="5" to-layer="2765" to-port="0"/>
		<edge from-layer="2764" from-port="2" to-layer="2765" to-port="1"/>
		<edge from-layer="2765" from-port="2" to-layer="2767" to-port="0"/>
		<edge from-layer="2766" from-port="1" to-layer="2767" to-port="1"/>
		<edge from-layer="2767" from-port="2" to-layer="2769" to-port="0"/>
		<edge from-layer="2768" from-port="1" to-layer="2769" to-port="1"/>
		<edge from-layer="2056" from-port="2" to-layer="2773" to-port="0"/>
		<edge from-layer="2769" from-port="2" to-layer="2773" to-port="1"/>
		<edge from-layer="2770" from-port="1" to-layer="2773" to-port="2"/>
		<edge from-layer="2771" from-port="1" to-layer="2773" to-port="3"/>
		<edge from-layer="2772" from-port="1" to-layer="2773" to-port="4"/>
		<edge from-layer="2773" from-port="5" to-layer="2774" to-port="0"/>
		<edge from-layer="2774" from-port="1" to-layer="2777" to-port="0"/>
		<edge from-layer="2775" from-port="1" to-layer="2777" to-port="1"/>
		<edge from-layer="2776" from-port="1" to-layer="2777" to-port="2"/>
		<edge from-layer="2777" from-port="3" to-layer="2779" to-port="0"/>
		<edge from-layer="2778" from-port="1" to-layer="2779" to-port="1"/>
		<edge from-layer="2779" from-port="2" to-layer="2780" to-port="0"/>
		<edge from-layer="2777" from-port="5" to-layer="2780" to-port="1"/>
		<edge from-layer="2058" from-port="2" to-layer="2782" to-port="0"/>
		<edge from-layer="2780" from-port="2" to-layer="2782" to-port="1"/>
		<edge from-layer="2781" from-port="1" to-layer="2782" to-port="2"/>
		<edge from-layer="2782" from-port="3" to-layer="2784" to-port="0"/>
		<edge from-layer="2783" from-port="1" to-layer="2784" to-port="1"/>
		<edge from-layer="2769" from-port="2" to-layer="2786" to-port="0"/>
		<edge from-layer="2785" from-port="1" to-layer="2786" to-port="1"/>
		<edge from-layer="2777" from-port="3" to-layer="2788" to-port="0"/>
		<edge from-layer="2787" from-port="1" to-layer="2788" to-port="1"/>
		<edge from-layer="2788" from-port="2" to-layer="2789" to-port="0"/>
		<edge from-layer="2777" from-port="4" to-layer="2789" to-port="1"/>
		<edge from-layer="2789" from-port="2" to-layer="2791" to-port="0"/>
		<edge from-layer="2790" from-port="1" to-layer="2791" to-port="1"/>
		<edge from-layer="2791" from-port="2" to-layer="2792" to-port="0"/>
		<edge from-layer="2777" from-port="5" to-layer="2792" to-port="1"/>
		<edge from-layer="2786" from-port="2" to-layer="2794" to-port="0"/>
		<edge from-layer="2792" from-port="2" to-layer="2794" to-port="1"/>
		<edge from-layer="2793" from-port="1" to-layer="2794" to-port="2"/>
		<edge from-layer="2794" from-port="3" to-layer="2796" to-port="0"/>
		<edge from-layer="2795" from-port="1" to-layer="2796" to-port="1"/>
		<edge from-layer="2777" from-port="4" to-layer="2797" to-port="0"/>
		<edge from-layer="2797" from-port="1" to-layer="2799" to-port="0"/>
		<edge from-layer="2798" from-port="1" to-layer="2799" to-port="1"/>
		<edge from-layer="2784" from-port="2" to-layer="2800" to-port="0"/>
		<edge from-layer="2796" from-port="2" to-layer="2800" to-port="1"/>
		<edge from-layer="2799" from-port="2" to-layer="2800" to-port="2"/>
		<edge from-layer="2800" from-port="3" to-layer="2803" to-port="0"/>
		<edge from-layer="2801" from-port="1" to-layer="2803" to-port="1"/>
		<edge from-layer="2802" from-port="1" to-layer="2803" to-port="2"/>
		<edge from-layer="2803" from-port="3" to-layer="2805" to-port="0"/>
		<edge from-layer="2804" from-port="1" to-layer="2805" to-port="1"/>
		<edge from-layer="2805" from-port="2" to-layer="2807" to-port="0"/>
		<edge from-layer="2806" from-port="1" to-layer="2807" to-port="1"/>
		<edge from-layer="2807" from-port="2" to-layer="2808" to-port="0"/>
		<edge from-layer="2800" from-port="3" to-layer="2810" to-port="0"/>
		<edge from-layer="2807" from-port="3" to-layer="2810" to-port="1"/>
		<edge from-layer="2809" from-port="1" to-layer="2810" to-port="2"/>
		<edge from-layer="2810" from-port="3" to-layer="2813" to-port="0"/>
		<edge from-layer="2811" from-port="1" to-layer="2813" to-port="1"/>
		<edge from-layer="2812" from-port="1" to-layer="2813" to-port="2"/>
		<edge from-layer="2813" from-port="4" to-layer="2814" to-port="0"/>
		<edge from-layer="2813" from-port="3" to-layer="2815" to-port="0"/>
		<edge from-layer="2810" from-port="3" to-layer="2818" to-port="0"/>
		<edge from-layer="2816" from-port="1" to-layer="2818" to-port="1"/>
		<edge from-layer="2817" from-port="1" to-layer="2818" to-port="2"/>
		<edge from-layer="2818" from-port="3" to-layer="2819" to-port="0"/>
		<edge from-layer="2819" from-port="1" to-layer="2821" to-port="0"/>
		<edge from-layer="2820" from-port="1" to-layer="2821" to-port="1"/>
		<edge from-layer="2821" from-port="2" to-layer="2822" to-port="0"/>
	</edges>
	<meta_data>
		<MO_version value="unknown version"/>
		<cli_parameters>
			<blobs_as_inputs value="True"/>
			<caffe_parser_path value="DIR"/>
			<data_type value="FP16"/>
			<disable_nhwc_to_nchw value="False"/>
			<disable_omitting_optional value="False"/>
			<disable_resnet_optimization value="False"/>
			<disable_weights_compression value="False"/>
			<enable_concat_optimization value="False"/>
			<enable_flattening_nested_params value="False"/>
			<enable_ssd_gluoncv value="False"/>
			<extensions value="DIR"/>
			<framework value="onnx"/>
			<freeze_placeholder_with_value value="{}"/>
			<generate_deprecated_IR_V2 value="False"/>
			<generate_deprecated_IR_V7 value="False"/>
			<generate_experimental_IR_V10 value="True"/>
			<input value="image"/>
			<input_model value="DIR/model.onnx"/>
			<input_model_is_text value="False"/>
			<input_shape value="[1,3,416,416]"/>
			<k value="DIR/CustomLayersMapping.xml"/>
			<keep_quantize_ops_in_IR value="True"/>
			<keep_shape_ops value="False"/>
			<legacy_mxnet_model value="False"/>
			<log_level value="ERROR"/>
			<mean_scale_values value="{'image': {'mean': None, 'scale': array([255.])}}"/>
			<mean_values value="()"/>
			<model_name value="face-detection-0105"/>
			<move_to_preprocess value="False"/>
			<output value="['boxes', 'labels']"/>
			<output_dir value="DIR"/>
			<placeholder_data_types value="{}"/>
			<placeholder_shapes value="{'image': array([  1,   3, 416, 416])}"/>
			<progress value="False"/>
			<remove_memory value="False"/>
			<remove_output_softmax value="False"/>
			<reverse_input_channels value="True"/>
			<save_params_from_nd value="False"/>
			<scale_values value="image[255.0]"/>
			<silent value="False"/>
			<stream_output value="False"/>
			<unset unset_cli_parameters="batch, counts, disable_fusing, disable_gfusing, finegrain_fusing, input_checkpoint, input_meta_graph, input_proto, input_symbol, mean_file, mean_file_offsets, nd_prefix_name, pretrained_model_name, saved_model_dir, saved_model_tags, scale, tensorboard_logdir, tensorflow_custom_layer_libraries, tensorflow_custom_operations_config_update, tensorflow_object_detection_api_pipeline_config, tensorflow_use_custom_operations_config, transformations_config"/>
		</cli_parameters>
	</meta_data>
	<quantization_parameters>
		<config>{
		'compression': {
			'algorithms': [
				{
					'name': 'DefaultQuantization',
					'params': {
						'preset': 'performance',
						'stat_subset_size': 300
					}
				}
			],
			'target_device': 'CPU'
		},
		'engine': {
			'models': [
				{
					'name': 'face-detection-0105',
					'launchers': [
						{
							'framework': 'dlsdk',
							'tags': [
								'FP32'
							],
							'model': 'PATH',
							'weights': 'PATH',
							'adapter': {
								'type': 'class_agnostic_detection',
								'scale': 0.00240384615
							},
							'device': 'CPU'
						}
					],
					'datasets': [
						{
							'name': 'wider',
							'data_source': 'PATH',
							'annotation_conversion': {
								'converter': 'wider',
								'annotation_file': 'PATH'
							},
							'annotation': 'wider.pickle',
							'dataset_meta': 'wider.json',
							'preprocessing': [
								{
									'type': 'resize',
									'size': 416
								}
							],
							'postprocessing': [
								{
									'type': 'resize_prediction_boxes'
								},
								{
									'type': 'cast_to_int'
								},
								{
									'type': 'clip_boxes',
									'size': 1024,
									'apply_to': 'annotation'
								},
								{
									'type': 'filter',
									'apply_to': 'annotation',
									'height_range': '64, 1024',
									'is_empty': true
								}
							],
							'metrics': [
								{
									'type': 'map',
									'ignore_difficult': true,
									'include_boundaries': false,
									'allow_multiple_matches_per_ignored': true,
									'distinct_conf': false
								}
							]
						}
					]
				},
				{
					'name': 'face-detection-0105',
					'launchers': [
						{
							'framework': 'dlsdk',
							'tags': [
								'FP16'
							],
							'model': 'PATH',
							'weights': 'PATH',
							'adapter': {
								'type': 'class_agnostic_detection',
								'scale': 0.00240384615
							},
							'device': 'CPU'
						}
					],
					'datasets': [
						{
							'name': 'wider',
							'data_source': 'PATH',
							'annotation_conversion': {
								'converter': 'wider',
								'annotation_file': 'PATH'
							},
							'annotation': 'wider.pickle',
							'dataset_meta': 'wider.json',
							'preprocessing': [
								{
									'type': 'resize',
									'size': 416
								}
							],
							'postprocessing': [
								{
									'type': 'resize_prediction_boxes'
								},
								{
									'type': 'cast_to_int'
								},
								{
									'type': 'clip_boxes',
									'size': 1024,
									'apply_to': 'annotation'
								},
								{
									'type': 'filter',
									'apply_to': 'annotation',
									'height_range': '64, 1024',
									'is_empty': true
								}
							],
							'metrics': [
								{
									'type': 'map',
									'ignore_difficult': true,
									'include_boundaries': false,
									'allow_multiple_matches_per_ignored': true,
									'distinct_conf': false
								}
							]
						}
					]
				}
			],
			'global_definitions': '../dataset_definitions.yml',
			'stat_requests_number': null,
			'eval_requests_number': null,
			'type': 'accuracy_checker'
		}
	}</config>
		<version value="1.0"/>
		<cli_params value="{'evaluate': False, 'output_dir': 'PATH', 'direct_dump': True, 'log_level': 'INFO', 'pbar': False, 'keep_uncompressed_weights': False}"/>
	</quantization_parameters>
</net>
