<?xml version="1.0" ?>
<net name="face-detection-0105" version="10">
	<layers>
		<layer id="0" name="10802723/Output_0/Data__const" type="Const" version="opset1">
			<data element_type="f32" offset="0" shape="2704" size="10816"/>
			<output>
				<port id="1" precision="FP32">
					<dim>2704</dim>
				</port>
			</output>
		</layer>
		<layer id="1" name="image" type="Parameter" version="opset1">
			<data element_type="f32" shape="1,3,416,416"/>
			<output>
				<port id="0" precision="FP32">
					<dim>1</dim>
					<dim>3</dim>
					<dim>416</dim>
					<dim>416</dim>
				</port>
			</output>
		</layer>
		<layer id="2" name="image/reverse_input_channels/Concat45471_const" type="Const" version="opset1">
			<data element_type="f32" offset="10816" shape="32,3,3,3" size="3456"/>
			<output>
				<port id="1" precision="FP32">
					<dim>32</dim>
					<dim>3</dim>
					<dim>3</dim>
					<dim>3</dim>
				</port>
			</output>
		</layer>
		<layer id="3" name="377" type="Convolution" version="opset1">
			<data dilations="1,1" output_padding="0,0" pads_begin="1,1" pads_end="1,1" strides="2,2"/>
			<input>
				<port id="0">
					<dim>1</dim>
					<dim>3</dim>
					<dim>416</dim>
					<dim>416</dim>
				</port>
				<port id="1">
					<dim>32</dim>
					<dim>3</dim>
					<dim>3</dim>
					<dim>3</dim>
				</port>
			</input>
			<output>
				<port id="2" precision="FP32">
					<dim>1</dim>
					<dim>32</dim>
					<dim>208</dim>
					<dim>208</dim>
				</port>
			</output>
		</layer>
		<layer id="4" name="data_add_25629/copy_const" type="Const" version="opset1">
			<data element_type="f32" offset="14272" shape="1,32,1,1" size="128"/>
			<output>
				<port id="1" precision="FP32">
					<dim>1</dim>
					<dim>32</dim>
					<dim>1</dim>
					<dim>1</dim>
				</port>
			</output>
		</layer>
		<layer id="5" name="378/variance/Fused_Add_" type="Add" version="opset1">
			<input>
				<port id="0">
					<dim>1</dim>
					<dim>32</dim>
					<dim>208</dim>
					<dim>208</dim>
				</port>
				<port id="1">
					<dim>1</dim>
					<dim>32</dim>
					<dim>1</dim>
					<dim>1</dim>
				</port>
			</input>
			<output>
				<port id="2" precision="FP32">
					<dim>1</dim>
					<dim>32</dim>
					<dim>208</dim>
					<dim>208</dim>
				</port>
			</output>
		</layer>
		<layer id="6" name="379" type="Clamp" version="opset1">
			<data max="6.0" min="0.0"/>
			<input>
				<port id="0">
					<dim>1</dim>
					<dim>32</dim>
					<dim>208</dim>
					<dim>208</dim>
				</port>
			</input>
			<output>
				<port id="1" precision="FP32">
					<dim>1</dim>
					<dim>32</dim>
					<dim>208</dim>
					<dim>208</dim>
				</port>
			</output>
		</layer>
		<layer id="7" name="381/mean/Fused_Mul_2757227574_const" type="Const" version="opset1">
			<data element_type="f32" offset="14400" shape="32,32,1,1" size="4096"/>
			<output>
				<port id="1" precision="FP32">
					<dim>32</dim>
					<dim>32</dim>
					<dim>1</dim>
					<dim>1</dim>
				</port>
			</output>
		</layer>
		<layer id="8" name="380" type="Convolution" version="opset1">
			<data dilations="1,1" output_padding="0,0" pads_begin="0,0" pads_end="0,0" strides="1,1"/>
			<input>
				<port id="0">
					<dim>1</dim>
					<dim>32</dim>
					<dim>208</dim>
					<dim>208</dim>
				</port>
				<port id="1">
					<dim>32</dim>
					<dim>32</dim>
					<dim>1</dim>
					<dim>1</dim>
				</port>
			</input>
			<output>
				<port id="2" precision="FP32">
					<dim>1</dim>
					<dim>32</dim>
					<dim>208</dim>
					<dim>208</dim>
				</port>
			</output>
		</layer>
		<layer id="9" name="data_add_2563225637/copy_const" type="Const" version="opset1">
			<data element_type="f32" offset="18496" shape="1,32,1,1" size="128"/>
			<output>
				<port id="1" precision="FP32">
					<dim>1</dim>
					<dim>32</dim>
					<dim>1</dim>
					<dim>1</dim>
				</port>
			</output>
		</layer>
		<layer id="10" name="381/variance/Fused_Add_" type="Add" version="opset1">
			<input>
				<port id="0">
					<dim>1</dim>
					<dim>32</dim>
					<dim>208</dim>
					<dim>208</dim>
				</port>
				<port id="1">
					<dim>1</dim>
					<dim>32</dim>
					<dim>1</dim>
					<dim>1</dim>
				</port>
			</input>
			<output>
				<port id="2" precision="FP32">
					<dim>1</dim>
					<dim>32</dim>
					<dim>208</dim>
					<dim>208</dim>
				</port>
			</output>
		</layer>
		<layer id="11" name="382" type="Clamp" version="opset1">
			<data max="6.0" min="0.0"/>
			<input>
				<port id="0">
					<dim>1</dim>
					<dim>32</dim>
					<dim>208</dim>
					<dim>208</dim>
				</port>
			</input>
			<output>
				<port id="1" precision="FP32">
					<dim>1</dim>
					<dim>32</dim>
					<dim>208</dim>
					<dim>208</dim>
				</port>
			</output>
		</layer>
		<layer id="12" name="4780247805_const" type="Const" version="opset1">
			<data element_type="f32" offset="18624" shape="32,1,1,3,3" size="1152"/>
			<output>
				<port id="1" precision="FP32">
					<dim>32</dim>
					<dim>1</dim>
					<dim>1</dim>
					<dim>3</dim>
					<dim>3</dim>
				</port>
			</output>
		</layer>
		<layer id="13" name="383" type="GroupConvolution" version="opset1">
			<data dilations="1,1" output_padding="0,0" pads_begin="1,1" pads_end="1,1" strides="1,1"/>
			<input>
				<port id="0">
					<dim>1</dim>
					<dim>32</dim>
					<dim>208</dim>
					<dim>208</dim>
				</port>
				<port id="1">
					<dim>32</dim>
					<dim>1</dim>
					<dim>1</dim>
					<dim>3</dim>
					<dim>3</dim>
				</port>
			</input>
			<output>
				<port id="2" precision="FP32">
					<dim>1</dim>
					<dim>32</dim>
					<dim>208</dim>
					<dim>208</dim>
				</port>
			</output>
		</layer>
		<layer id="14" name="data_add_2564025645/copy_const" type="Const" version="opset1">
			<data element_type="f32" offset="19776" shape="1,32,1,1" size="128"/>
			<output>
				<port id="1" precision="FP32">
					<dim>1</dim>
					<dim>32</dim>
					<dim>1</dim>
					<dim>1</dim>
				</port>
			</output>
		</layer>
		<layer id="15" name="384/variance/Fused_Add_" type="Add" version="opset1">
			<input>
				<port id="0">
					<dim>1</dim>
					<dim>32</dim>
					<dim>208</dim>
					<dim>208</dim>
				</port>
				<port id="1">
					<dim>1</dim>
					<dim>32</dim>
					<dim>1</dim>
					<dim>1</dim>
				</port>
			</input>
			<output>
				<port id="2" precision="FP32">
					<dim>1</dim>
					<dim>32</dim>
					<dim>208</dim>
					<dim>208</dim>
				</port>
			</output>
		</layer>
		<layer id="16" name="385" type="Clamp" version="opset1">
			<data max="6.0" min="0.0"/>
			<input>
				<port id="0">
					<dim>1</dim>
					<dim>32</dim>
					<dim>208</dim>
					<dim>208</dim>
				</port>
			</input>
			<output>
				<port id="1" precision="FP32">
					<dim>1</dim>
					<dim>32</dim>
					<dim>208</dim>
					<dim>208</dim>
				</port>
			</output>
		</layer>
		<layer id="17" name="387/mean/Fused_Mul_2758027582_const" type="Const" version="opset1">
			<data element_type="f32" offset="19904" shape="16,32,1,1" size="2048"/>
			<output>
				<port id="1" precision="FP32">
					<dim>16</dim>
					<dim>32</dim>
					<dim>1</dim>
					<dim>1</dim>
				</port>
			</output>
		</layer>
		<layer id="18" name="386" type="Convolution" version="opset1">
			<data dilations="1,1" output_padding="0,0" pads_begin="0,0" pads_end="0,0" strides="1,1"/>
			<input>
				<port id="0">
					<dim>1</dim>
					<dim>32</dim>
					<dim>208</dim>
					<dim>208</dim>
				</port>
				<port id="1">
					<dim>16</dim>
					<dim>32</dim>
					<dim>1</dim>
					<dim>1</dim>
				</port>
			</input>
			<output>
				<port id="2" precision="FP32">
					<dim>1</dim>
					<dim>16</dim>
					<dim>208</dim>
					<dim>208</dim>
				</port>
			</output>
		</layer>
		<layer id="19" name="data_add_2564825653/copy_const" type="Const" version="opset1">
			<data element_type="f32" offset="21952" shape="1,16,1,1" size="64"/>
			<output>
				<port id="1" precision="FP32">
					<dim>1</dim>
					<dim>16</dim>
					<dim>1</dim>
					<dim>1</dim>
				</port>
			</output>
		</layer>
		<layer id="20" name="387/variance/Fused_Add_" type="Add" version="opset1">
			<input>
				<port id="0">
					<dim>1</dim>
					<dim>16</dim>
					<dim>208</dim>
					<dim>208</dim>
				</port>
				<port id="1">
					<dim>1</dim>
					<dim>16</dim>
					<dim>1</dim>
					<dim>1</dim>
				</port>
			</input>
			<output>
				<port id="2" precision="FP32">
					<dim>1</dim>
					<dim>16</dim>
					<dim>208</dim>
					<dim>208</dim>
				</port>
			</output>
		</layer>
		<layer id="21" name="389/mean/Fused_Mul_2758427586_const" type="Const" version="opset1">
			<data element_type="f32" offset="22016" shape="96,16,1,1" size="6144"/>
			<output>
				<port id="1" precision="FP32">
					<dim>96</dim>
					<dim>16</dim>
					<dim>1</dim>
					<dim>1</dim>
				</port>
			</output>
		</layer>
		<layer id="22" name="388" type="Convolution" version="opset1">
			<data dilations="1,1" output_padding="0,0" pads_begin="0,0" pads_end="0,0" strides="1,1"/>
			<input>
				<port id="0">
					<dim>1</dim>
					<dim>16</dim>
					<dim>208</dim>
					<dim>208</dim>
				</port>
				<port id="1">
					<dim>96</dim>
					<dim>16</dim>
					<dim>1</dim>
					<dim>1</dim>
				</port>
			</input>
			<output>
				<port id="2" precision="FP32">
					<dim>1</dim>
					<dim>96</dim>
					<dim>208</dim>
					<dim>208</dim>
				</port>
			</output>
		</layer>
		<layer id="23" name="data_add_2565625661/copy_const" type="Const" version="opset1">
			<data element_type="f32" offset="28160" shape="1,96,1,1" size="384"/>
			<output>
				<port id="1" precision="FP32">
					<dim>1</dim>
					<dim>96</dim>
					<dim>1</dim>
					<dim>1</dim>
				</port>
			</output>
		</layer>
		<layer id="24" name="389/variance/Fused_Add_" type="Add" version="opset1">
			<input>
				<port id="0">
					<dim>1</dim>
					<dim>96</dim>
					<dim>208</dim>
					<dim>208</dim>
				</port>
				<port id="1">
					<dim>1</dim>
					<dim>96</dim>
					<dim>1</dim>
					<dim>1</dim>
				</port>
			</input>
			<output>
				<port id="2" precision="FP32">
					<dim>1</dim>
					<dim>96</dim>
					<dim>208</dim>
					<dim>208</dim>
				</port>
			</output>
		</layer>
		<layer id="25" name="390" type="Clamp" version="opset1">
			<data max="6.0" min="0.0"/>
			<input>
				<port id="0">
					<dim>1</dim>
					<dim>96</dim>
					<dim>208</dim>
					<dim>208</dim>
				</port>
			</input>
			<output>
				<port id="1" precision="FP32">
					<dim>1</dim>
					<dim>96</dim>
					<dim>208</dim>
					<dim>208</dim>
				</port>
			</output>
		</layer>
		<layer id="26" name="4777847781_const" type="Const" version="opset1">
			<data element_type="f32" offset="28544" shape="96,1,1,3,3" size="3456"/>
			<output>
				<port id="1" precision="FP32">
					<dim>96</dim>
					<dim>1</dim>
					<dim>1</dim>
					<dim>3</dim>
					<dim>3</dim>
				</port>
			</output>
		</layer>
		<layer id="27" name="391" type="GroupConvolution" version="opset1">
			<data dilations="1,1" output_padding="0,0" pads_begin="1,1" pads_end="1,1" strides="2,2"/>
			<input>
				<port id="0">
					<dim>1</dim>
					<dim>96</dim>
					<dim>208</dim>
					<dim>208</dim>
				</port>
				<port id="1">
					<dim>96</dim>
					<dim>1</dim>
					<dim>1</dim>
					<dim>3</dim>
					<dim>3</dim>
				</port>
			</input>
			<output>
				<port id="2" precision="FP32">
					<dim>1</dim>
					<dim>96</dim>
					<dim>104</dim>
					<dim>104</dim>
				</port>
			</output>
		</layer>
		<layer id="28" name="data_add_2566425669/copy_const" type="Const" version="opset1">
			<data element_type="f32" offset="32000" shape="1,96,1,1" size="384"/>
			<output>
				<port id="1" precision="FP32">
					<dim>1</dim>
					<dim>96</dim>
					<dim>1</dim>
					<dim>1</dim>
				</port>
			</output>
		</layer>
		<layer id="29" name="392/variance/Fused_Add_" type="Add" version="opset1">
			<input>
				<port id="0">
					<dim>1</dim>
					<dim>96</dim>
					<dim>104</dim>
					<dim>104</dim>
				</port>
				<port id="1">
					<dim>1</dim>
					<dim>96</dim>
					<dim>1</dim>
					<dim>1</dim>
				</port>
			</input>
			<output>
				<port id="2" precision="FP32">
					<dim>1</dim>
					<dim>96</dim>
					<dim>104</dim>
					<dim>104</dim>
				</port>
			</output>
		</layer>
		<layer id="30" name="393" type="Clamp" version="opset1">
			<data max="6.0" min="0.0"/>
			<input>
				<port id="0">
					<dim>1</dim>
					<dim>96</dim>
					<dim>104</dim>
					<dim>104</dim>
				</port>
			</input>
			<output>
				<port id="1" precision="FP32">
					<dim>1</dim>
					<dim>96</dim>
					<dim>104</dim>
					<dim>104</dim>
				</port>
			</output>
		</layer>
		<layer id="31" name="395/mean/Fused_Mul_2759227594_const" type="Const" version="opset1">
			<data element_type="f32" offset="32384" shape="24,96,1,1" size="9216"/>
			<output>
				<port id="1" precision="FP32">
					<dim>24</dim>
					<dim>96</dim>
					<dim>1</dim>
					<dim>1</dim>
				</port>
			</output>
		</layer>
		<layer id="32" name="394" type="Convolution" version="opset1">
			<data dilations="1,1" output_padding="0,0" pads_begin="0,0" pads_end="0,0" strides="1,1"/>
			<input>
				<port id="0">
					<dim>1</dim>
					<dim>96</dim>
					<dim>104</dim>
					<dim>104</dim>
				</port>
				<port id="1">
					<dim>24</dim>
					<dim>96</dim>
					<dim>1</dim>
					<dim>1</dim>
				</port>
			</input>
			<output>
				<port id="2" precision="FP32">
					<dim>1</dim>
					<dim>24</dim>
					<dim>104</dim>
					<dim>104</dim>
				</port>
			</output>
		</layer>
		<layer id="33" name="data_add_2567225677/copy_const" type="Const" version="opset1">
			<data element_type="f32" offset="41600" shape="1,24,1,1" size="96"/>
			<output>
				<port id="1" precision="FP32">
					<dim>1</dim>
					<dim>24</dim>
					<dim>1</dim>
					<dim>1</dim>
				</port>
			</output>
		</layer>
		<layer id="34" name="395/variance/Fused_Add_" type="Add" version="opset1">
			<input>
				<port id="0">
					<dim>1</dim>
					<dim>24</dim>
					<dim>104</dim>
					<dim>104</dim>
				</port>
				<port id="1">
					<dim>1</dim>
					<dim>24</dim>
					<dim>1</dim>
					<dim>1</dim>
				</port>
			</input>
			<output>
				<port id="2" precision="FP32">
					<dim>1</dim>
					<dim>24</dim>
					<dim>104</dim>
					<dim>104</dim>
				</port>
			</output>
		</layer>
		<layer id="35" name="397/mean/Fused_Mul_2759627598_const" type="Const" version="opset1">
			<data element_type="f32" offset="41696" shape="144,24,1,1" size="13824"/>
			<output>
				<port id="1" precision="FP32">
					<dim>144</dim>
					<dim>24</dim>
					<dim>1</dim>
					<dim>1</dim>
				</port>
			</output>
		</layer>
		<layer id="36" name="396" type="Convolution" version="opset1">
			<data dilations="1,1" output_padding="0,0" pads_begin="0,0" pads_end="0,0" strides="1,1"/>
			<input>
				<port id="0">
					<dim>1</dim>
					<dim>24</dim>
					<dim>104</dim>
					<dim>104</dim>
				</port>
				<port id="1">
					<dim>144</dim>
					<dim>24</dim>
					<dim>1</dim>
					<dim>1</dim>
				</port>
			</input>
			<output>
				<port id="2" precision="FP32">
					<dim>1</dim>
					<dim>144</dim>
					<dim>104</dim>
					<dim>104</dim>
				</port>
			</output>
		</layer>
		<layer id="37" name="data_add_2568025685/copy_const" type="Const" version="opset1">
			<data element_type="f32" offset="55520" shape="1,144,1,1" size="576"/>
			<output>
				<port id="1" precision="FP32">
					<dim>1</dim>
					<dim>144</dim>
					<dim>1</dim>
					<dim>1</dim>
				</port>
			</output>
		</layer>
		<layer id="38" name="397/variance/Fused_Add_" type="Add" version="opset1">
			<input>
				<port id="0">
					<dim>1</dim>
					<dim>144</dim>
					<dim>104</dim>
					<dim>104</dim>
				</port>
				<port id="1">
					<dim>1</dim>
					<dim>144</dim>
					<dim>1</dim>
					<dim>1</dim>
				</port>
			</input>
			<output>
				<port id="2" precision="FP32">
					<dim>1</dim>
					<dim>144</dim>
					<dim>104</dim>
					<dim>104</dim>
				</port>
			</output>
		</layer>
		<layer id="39" name="398" type="Clamp" version="opset1">
			<data max="6.0" min="0.0"/>
			<input>
				<port id="0">
					<dim>1</dim>
					<dim>144</dim>
					<dim>104</dim>
					<dim>104</dim>
				</port>
			</input>
			<output>
				<port id="1" precision="FP32">
					<dim>1</dim>
					<dim>144</dim>
					<dim>104</dim>
					<dim>104</dim>
				</port>
			</output>
		</layer>
		<layer id="40" name="4778247785_const" type="Const" version="opset1">
			<data element_type="f32" offset="56096" shape="144,1,1,3,3" size="5184"/>
			<output>
				<port id="1" precision="FP32">
					<dim>144</dim>
					<dim>1</dim>
					<dim>1</dim>
					<dim>3</dim>
					<dim>3</dim>
				</port>
			</output>
		</layer>
		<layer id="41" name="399" type="GroupConvolution" version="opset1">
			<data dilations="1,1" output_padding="0,0" pads_begin="1,1" pads_end="1,1" strides="1,1"/>
			<input>
				<port id="0">
					<dim>1</dim>
					<dim>144</dim>
					<dim>104</dim>
					<dim>104</dim>
				</port>
				<port id="1">
					<dim>144</dim>
					<dim>1</dim>
					<dim>1</dim>
					<dim>3</dim>
					<dim>3</dim>
				</port>
			</input>
			<output>
				<port id="2" precision="FP32">
					<dim>1</dim>
					<dim>144</dim>
					<dim>104</dim>
					<dim>104</dim>
				</port>
			</output>
		</layer>
		<layer id="42" name="data_add_2568825693/copy_const" type="Const" version="opset1">
			<data element_type="f32" offset="61280" shape="1,144,1,1" size="576"/>
			<output>
				<port id="1" precision="FP32">
					<dim>1</dim>
					<dim>144</dim>
					<dim>1</dim>
					<dim>1</dim>
				</port>
			</output>
		</layer>
		<layer id="43" name="400/variance/Fused_Add_" type="Add" version="opset1">
			<input>
				<port id="0">
					<dim>1</dim>
					<dim>144</dim>
					<dim>104</dim>
					<dim>104</dim>
				</port>
				<port id="1">
					<dim>1</dim>
					<dim>144</dim>
					<dim>1</dim>
					<dim>1</dim>
				</port>
			</input>
			<output>
				<port id="2" precision="FP32">
					<dim>1</dim>
					<dim>144</dim>
					<dim>104</dim>
					<dim>104</dim>
				</port>
			</output>
		</layer>
		<layer id="44" name="401" type="Clamp" version="opset1">
			<data max="6.0" min="0.0"/>
			<input>
				<port id="0">
					<dim>1</dim>
					<dim>144</dim>
					<dim>104</dim>
					<dim>104</dim>
				</port>
			</input>
			<output>
				<port id="1" precision="FP32">
					<dim>1</dim>
					<dim>144</dim>
					<dim>104</dim>
					<dim>104</dim>
				</port>
			</output>
		</layer>
		<layer id="45" name="403/mean/Fused_Mul_2760427606_const" type="Const" version="opset1">
			<data element_type="f32" offset="61856" shape="24,144,1,1" size="13824"/>
			<output>
				<port id="1" precision="FP32">
					<dim>24</dim>
					<dim>144</dim>
					<dim>1</dim>
					<dim>1</dim>
				</port>
			</output>
		</layer>
		<layer id="46" name="402" type="Convolution" version="opset1">
			<data dilations="1,1" output_padding="0,0" pads_begin="0,0" pads_end="0,0" strides="1,1"/>
			<input>
				<port id="0">
					<dim>1</dim>
					<dim>144</dim>
					<dim>104</dim>
					<dim>104</dim>
				</port>
				<port id="1">
					<dim>24</dim>
					<dim>144</dim>
					<dim>1</dim>
					<dim>1</dim>
				</port>
			</input>
			<output>
				<port id="2" precision="FP32">
					<dim>1</dim>
					<dim>24</dim>
					<dim>104</dim>
					<dim>104</dim>
				</port>
			</output>
		</layer>
		<layer id="47" name="data_add_2569625701/copy_const" type="Const" version="opset1">
			<data element_type="f32" offset="75680" shape="1,24,1,1" size="96"/>
			<output>
				<port id="1" precision="FP32">
					<dim>1</dim>
					<dim>24</dim>
					<dim>1</dim>
					<dim>1</dim>
				</port>
			</output>
		</layer>
		<layer id="48" name="403/variance/Fused_Add_" type="Add" version="opset1">
			<input>
				<port id="0">
					<dim>1</dim>
					<dim>24</dim>
					<dim>104</dim>
					<dim>104</dim>
				</port>
				<port id="1">
					<dim>1</dim>
					<dim>24</dim>
					<dim>1</dim>
					<dim>1</dim>
				</port>
			</input>
			<output>
				<port id="2" precision="FP32">
					<dim>1</dim>
					<dim>24</dim>
					<dim>104</dim>
					<dim>104</dim>
				</port>
			</output>
		</layer>
		<layer id="49" name="404" type="Add" version="opset1">
			<input>
				<port id="0">
					<dim>1</dim>
					<dim>24</dim>
					<dim>104</dim>
					<dim>104</dim>
				</port>
				<port id="1">
					<dim>1</dim>
					<dim>24</dim>
					<dim>104</dim>
					<dim>104</dim>
				</port>
			</input>
			<output>
				<port id="2" precision="FP32">
					<dim>1</dim>
					<dim>24</dim>
					<dim>104</dim>
					<dim>104</dim>
				</port>
			</output>
		</layer>
		<layer id="50" name="406/mean/Fused_Mul_2760827610_const" type="Const" version="opset1">
			<data element_type="f32" offset="75776" shape="144,24,1,1" size="13824"/>
			<output>
				<port id="1" precision="FP32">
					<dim>144</dim>
					<dim>24</dim>
					<dim>1</dim>
					<dim>1</dim>
				</port>
			</output>
		</layer>
		<layer id="51" name="405" type="Convolution" version="opset1">
			<data dilations="1,1" output_padding="0,0" pads_begin="0,0" pads_end="0,0" strides="1,1"/>
			<input>
				<port id="0">
					<dim>1</dim>
					<dim>24</dim>
					<dim>104</dim>
					<dim>104</dim>
				</port>
				<port id="1">
					<dim>144</dim>
					<dim>24</dim>
					<dim>1</dim>
					<dim>1</dim>
				</port>
			</input>
			<output>
				<port id="2" precision="FP32">
					<dim>1</dim>
					<dim>144</dim>
					<dim>104</dim>
					<dim>104</dim>
				</port>
			</output>
		</layer>
		<layer id="52" name="data_add_2570425709/copy_const" type="Const" version="opset1">
			<data element_type="f32" offset="89600" shape="1,144,1,1" size="576"/>
			<output>
				<port id="1" precision="FP32">
					<dim>1</dim>
					<dim>144</dim>
					<dim>1</dim>
					<dim>1</dim>
				</port>
			</output>
		</layer>
		<layer id="53" name="406/variance/Fused_Add_" type="Add" version="opset1">
			<input>
				<port id="0">
					<dim>1</dim>
					<dim>144</dim>
					<dim>104</dim>
					<dim>104</dim>
				</port>
				<port id="1">
					<dim>1</dim>
					<dim>144</dim>
					<dim>1</dim>
					<dim>1</dim>
				</port>
			</input>
			<output>
				<port id="2" precision="FP32">
					<dim>1</dim>
					<dim>144</dim>
					<dim>104</dim>
					<dim>104</dim>
				</port>
			</output>
		</layer>
		<layer id="54" name="407" type="Clamp" version="opset1">
			<data max="6.0" min="0.0"/>
			<input>
				<port id="0">
					<dim>1</dim>
					<dim>144</dim>
					<dim>104</dim>
					<dim>104</dim>
				</port>
			</input>
			<output>
				<port id="1" precision="FP32">
					<dim>1</dim>
					<dim>144</dim>
					<dim>104</dim>
					<dim>104</dim>
				</port>
			</output>
		</layer>
		<layer id="55" name="4781847821_const" type="Const" version="opset1">
			<data element_type="f32" offset="90176" shape="144,1,1,3,3" size="5184"/>
			<output>
				<port id="1" precision="FP32">
					<dim>144</dim>
					<dim>1</dim>
					<dim>1</dim>
					<dim>3</dim>
					<dim>3</dim>
				</port>
			</output>
		</layer>
		<layer id="56" name="408" type="GroupConvolution" version="opset1">
			<data dilations="1,1" output_padding="0,0" pads_begin="1,1" pads_end="1,1" strides="2,2"/>
			<input>
				<port id="0">
					<dim>1</dim>
					<dim>144</dim>
					<dim>104</dim>
					<dim>104</dim>
				</port>
				<port id="1">
					<dim>144</dim>
					<dim>1</dim>
					<dim>1</dim>
					<dim>3</dim>
					<dim>3</dim>
				</port>
			</input>
			<output>
				<port id="2" precision="FP32">
					<dim>1</dim>
					<dim>144</dim>
					<dim>52</dim>
					<dim>52</dim>
				</port>
			</output>
		</layer>
		<layer id="57" name="data_add_2571225717/copy_const" type="Const" version="opset1">
			<data element_type="f32" offset="95360" shape="1,144,1,1" size="576"/>
			<output>
				<port id="1" precision="FP32">
					<dim>1</dim>
					<dim>144</dim>
					<dim>1</dim>
					<dim>1</dim>
				</port>
			</output>
		</layer>
		<layer id="58" name="409/variance/Fused_Add_" type="Add" version="opset1">
			<input>
				<port id="0">
					<dim>1</dim>
					<dim>144</dim>
					<dim>52</dim>
					<dim>52</dim>
				</port>
				<port id="1">
					<dim>1</dim>
					<dim>144</dim>
					<dim>1</dim>
					<dim>1</dim>
				</port>
			</input>
			<output>
				<port id="2" precision="FP32">
					<dim>1</dim>
					<dim>144</dim>
					<dim>52</dim>
					<dim>52</dim>
				</port>
			</output>
		</layer>
		<layer id="59" name="410" type="Clamp" version="opset1">
			<data max="6.0" min="0.0"/>
			<input>
				<port id="0">
					<dim>1</dim>
					<dim>144</dim>
					<dim>52</dim>
					<dim>52</dim>
				</port>
			</input>
			<output>
				<port id="1" precision="FP32">
					<dim>1</dim>
					<dim>144</dim>
					<dim>52</dim>
					<dim>52</dim>
				</port>
			</output>
		</layer>
		<layer id="60" name="412/mean/Fused_Mul_2761627618_const" type="Const" version="opset1">
			<data element_type="f32" offset="95936" shape="32,144,1,1" size="18432"/>
			<output>
				<port id="1" precision="FP32">
					<dim>32</dim>
					<dim>144</dim>
					<dim>1</dim>
					<dim>1</dim>
				</port>
			</output>
		</layer>
		<layer id="61" name="411" type="Convolution" version="opset1">
			<data dilations="1,1" output_padding="0,0" pads_begin="0,0" pads_end="0,0" strides="1,1"/>
			<input>
				<port id="0">
					<dim>1</dim>
					<dim>144</dim>
					<dim>52</dim>
					<dim>52</dim>
				</port>
				<port id="1">
					<dim>32</dim>
					<dim>144</dim>
					<dim>1</dim>
					<dim>1</dim>
				</port>
			</input>
			<output>
				<port id="2" precision="FP32">
					<dim>1</dim>
					<dim>32</dim>
					<dim>52</dim>
					<dim>52</dim>
				</port>
			</output>
		</layer>
		<layer id="62" name="data_add_2572025725/copy_const" type="Const" version="opset1">
			<data element_type="f32" offset="114368" shape="1,32,1,1" size="128"/>
			<output>
				<port id="1" precision="FP32">
					<dim>1</dim>
					<dim>32</dim>
					<dim>1</dim>
					<dim>1</dim>
				</port>
			</output>
		</layer>
		<layer id="63" name="412/variance/Fused_Add_" type="Add" version="opset1">
			<input>
				<port id="0">
					<dim>1</dim>
					<dim>32</dim>
					<dim>52</dim>
					<dim>52</dim>
				</port>
				<port id="1">
					<dim>1</dim>
					<dim>32</dim>
					<dim>1</dim>
					<dim>1</dim>
				</port>
			</input>
			<output>
				<port id="2" precision="FP32">
					<dim>1</dim>
					<dim>32</dim>
					<dim>52</dim>
					<dim>52</dim>
				</port>
			</output>
		</layer>
		<layer id="64" name="414/mean/Fused_Mul_2762027622_const" type="Const" version="opset1">
			<data element_type="f32" offset="114496" shape="192,32,1,1" size="24576"/>
			<output>
				<port id="1" precision="FP32">
					<dim>192</dim>
					<dim>32</dim>
					<dim>1</dim>
					<dim>1</dim>
				</port>
			</output>
		</layer>
		<layer id="65" name="413" type="Convolution" version="opset1">
			<data dilations="1,1" output_padding="0,0" pads_begin="0,0" pads_end="0,0" strides="1,1"/>
			<input>
				<port id="0">
					<dim>1</dim>
					<dim>32</dim>
					<dim>52</dim>
					<dim>52</dim>
				</port>
				<port id="1">
					<dim>192</dim>
					<dim>32</dim>
					<dim>1</dim>
					<dim>1</dim>
				</port>
			</input>
			<output>
				<port id="2" precision="FP32">
					<dim>1</dim>
					<dim>192</dim>
					<dim>52</dim>
					<dim>52</dim>
				</port>
			</output>
		</layer>
		<layer id="66" name="data_add_2572825733/copy_const" type="Const" version="opset1">
			<data element_type="f32" offset="139072" shape="1,192,1,1" size="768"/>
			<output>
				<port id="1" precision="FP32">
					<dim>1</dim>
					<dim>192</dim>
					<dim>1</dim>
					<dim>1</dim>
				</port>
			</output>
		</layer>
		<layer id="67" name="414/variance/Fused_Add_" type="Add" version="opset1">
			<input>
				<port id="0">
					<dim>1</dim>
					<dim>192</dim>
					<dim>52</dim>
					<dim>52</dim>
				</port>
				<port id="1">
					<dim>1</dim>
					<dim>192</dim>
					<dim>1</dim>
					<dim>1</dim>
				</port>
			</input>
			<output>
				<port id="2" precision="FP32">
					<dim>1</dim>
					<dim>192</dim>
					<dim>52</dim>
					<dim>52</dim>
				</port>
			</output>
		</layer>
		<layer id="68" name="415" type="Clamp" version="opset1">
			<data max="6.0" min="0.0"/>
			<input>
				<port id="0">
					<dim>1</dim>
					<dim>192</dim>
					<dim>52</dim>
					<dim>52</dim>
				</port>
			</input>
			<output>
				<port id="1" precision="FP32">
					<dim>1</dim>
					<dim>192</dim>
					<dim>52</dim>
					<dim>52</dim>
				</port>
			</output>
		</layer>
		<layer id="69" name="4779847801_const" type="Const" version="opset1">
			<data element_type="f32" offset="139840" shape="192,1,1,3,3" size="6912"/>
			<output>
				<port id="1" precision="FP32">
					<dim>192</dim>
					<dim>1</dim>
					<dim>1</dim>
					<dim>3</dim>
					<dim>3</dim>
				</port>
			</output>
		</layer>
		<layer id="70" name="416" type="GroupConvolution" version="opset1">
			<data dilations="1,1" output_padding="0,0" pads_begin="1,1" pads_end="1,1" strides="1,1"/>
			<input>
				<port id="0">
					<dim>1</dim>
					<dim>192</dim>
					<dim>52</dim>
					<dim>52</dim>
				</port>
				<port id="1">
					<dim>192</dim>
					<dim>1</dim>
					<dim>1</dim>
					<dim>3</dim>
					<dim>3</dim>
				</port>
			</input>
			<output>
				<port id="2" precision="FP32">
					<dim>1</dim>
					<dim>192</dim>
					<dim>52</dim>
					<dim>52</dim>
				</port>
			</output>
		</layer>
		<layer id="71" name="data_add_2573625741/copy_const" type="Const" version="opset1">
			<data element_type="f32" offset="146752" shape="1,192,1,1" size="768"/>
			<output>
				<port id="1" precision="FP32">
					<dim>1</dim>
					<dim>192</dim>
					<dim>1</dim>
					<dim>1</dim>
				</port>
			</output>
		</layer>
		<layer id="72" name="417/variance/Fused_Add_" type="Add" version="opset1">
			<input>
				<port id="0">
					<dim>1</dim>
					<dim>192</dim>
					<dim>52</dim>
					<dim>52</dim>
				</port>
				<port id="1">
					<dim>1</dim>
					<dim>192</dim>
					<dim>1</dim>
					<dim>1</dim>
				</port>
			</input>
			<output>
				<port id="2" precision="FP32">
					<dim>1</dim>
					<dim>192</dim>
					<dim>52</dim>
					<dim>52</dim>
				</port>
			</output>
		</layer>
		<layer id="73" name="418" type="Clamp" version="opset1">
			<data max="6.0" min="0.0"/>
			<input>
				<port id="0">
					<dim>1</dim>
					<dim>192</dim>
					<dim>52</dim>
					<dim>52</dim>
				</port>
			</input>
			<output>
				<port id="1" precision="FP32">
					<dim>1</dim>
					<dim>192</dim>
					<dim>52</dim>
					<dim>52</dim>
				</port>
			</output>
		</layer>
		<layer id="74" name="420/mean/Fused_Mul_2762827630_const" type="Const" version="opset1">
			<data element_type="f32" offset="147520" shape="32,192,1,1" size="24576"/>
			<output>
				<port id="1" precision="FP32">
					<dim>32</dim>
					<dim>192</dim>
					<dim>1</dim>
					<dim>1</dim>
				</port>
			</output>
		</layer>
		<layer id="75" name="419" type="Convolution" version="opset1">
			<data dilations="1,1" output_padding="0,0" pads_begin="0,0" pads_end="0,0" strides="1,1"/>
			<input>
				<port id="0">
					<dim>1</dim>
					<dim>192</dim>
					<dim>52</dim>
					<dim>52</dim>
				</port>
				<port id="1">
					<dim>32</dim>
					<dim>192</dim>
					<dim>1</dim>
					<dim>1</dim>
				</port>
			</input>
			<output>
				<port id="2" precision="FP32">
					<dim>1</dim>
					<dim>32</dim>
					<dim>52</dim>
					<dim>52</dim>
				</port>
			</output>
		</layer>
		<layer id="76" name="data_add_2574425749/copy_const" type="Const" version="opset1">
			<data element_type="f32" offset="172096" shape="1,32,1,1" size="128"/>
			<output>
				<port id="1" precision="FP32">
					<dim>1</dim>
					<dim>32</dim>
					<dim>1</dim>
					<dim>1</dim>
				</port>
			</output>
		</layer>
		<layer id="77" name="420/variance/Fused_Add_" type="Add" version="opset1">
			<input>
				<port id="0">
					<dim>1</dim>
					<dim>32</dim>
					<dim>52</dim>
					<dim>52</dim>
				</port>
				<port id="1">
					<dim>1</dim>
					<dim>32</dim>
					<dim>1</dim>
					<dim>1</dim>
				</port>
			</input>
			<output>
				<port id="2" precision="FP32">
					<dim>1</dim>
					<dim>32</dim>
					<dim>52</dim>
					<dim>52</dim>
				</port>
			</output>
		</layer>
		<layer id="78" name="421" type="Add" version="opset1">
			<input>
				<port id="0">
					<dim>1</dim>
					<dim>32</dim>
					<dim>52</dim>
					<dim>52</dim>
				</port>
				<port id="1">
					<dim>1</dim>
					<dim>32</dim>
					<dim>52</dim>
					<dim>52</dim>
				</port>
			</input>
			<output>
				<port id="2" precision="FP32">
					<dim>1</dim>
					<dim>32</dim>
					<dim>52</dim>
					<dim>52</dim>
				</port>
			</output>
		</layer>
		<layer id="79" name="423/mean/Fused_Mul_2763227634_const" type="Const" version="opset1">
			<data element_type="f32" offset="172224" shape="192,32,1,1" size="24576"/>
			<output>
				<port id="1" precision="FP32">
					<dim>192</dim>
					<dim>32</dim>
					<dim>1</dim>
					<dim>1</dim>
				</port>
			</output>
		</layer>
		<layer id="80" name="422" type="Convolution" version="opset1">
			<data dilations="1,1" output_padding="0,0" pads_begin="0,0" pads_end="0,0" strides="1,1"/>
			<input>
				<port id="0">
					<dim>1</dim>
					<dim>32</dim>
					<dim>52</dim>
					<dim>52</dim>
				</port>
				<port id="1">
					<dim>192</dim>
					<dim>32</dim>
					<dim>1</dim>
					<dim>1</dim>
				</port>
			</input>
			<output>
				<port id="2" precision="FP32">
					<dim>1</dim>
					<dim>192</dim>
					<dim>52</dim>
					<dim>52</dim>
				</port>
			</output>
		</layer>
		<layer id="81" name="data_add_2575225757/copy_const" type="Const" version="opset1">
			<data element_type="f32" offset="196800" shape="1,192,1,1" size="768"/>
			<output>
				<port id="1" precision="FP32">
					<dim>1</dim>
					<dim>192</dim>
					<dim>1</dim>
					<dim>1</dim>
				</port>
			</output>
		</layer>
		<layer id="82" name="423/variance/Fused_Add_" type="Add" version="opset1">
			<input>
				<port id="0">
					<dim>1</dim>
					<dim>192</dim>
					<dim>52</dim>
					<dim>52</dim>
				</port>
				<port id="1">
					<dim>1</dim>
					<dim>192</dim>
					<dim>1</dim>
					<dim>1</dim>
				</port>
			</input>
			<output>
				<port id="2" precision="FP32">
					<dim>1</dim>
					<dim>192</dim>
					<dim>52</dim>
					<dim>52</dim>
				</port>
			</output>
		</layer>
		<layer id="83" name="424" type="Clamp" version="opset1">
			<data max="6.0" min="0.0"/>
			<input>
				<port id="0">
					<dim>1</dim>
					<dim>192</dim>
					<dim>52</dim>
					<dim>52</dim>
				</port>
			</input>
			<output>
				<port id="1" precision="FP32">
					<dim>1</dim>
					<dim>192</dim>
					<dim>52</dim>
					<dim>52</dim>
				</port>
			</output>
		</layer>
		<layer id="84" name="4776647769_const" type="Const" version="opset1">
			<data element_type="f32" offset="197568" shape="192,1,1,3,3" size="6912"/>
			<output>
				<port id="1" precision="FP32">
					<dim>192</dim>
					<dim>1</dim>
					<dim>1</dim>
					<dim>3</dim>
					<dim>3</dim>
				</port>
			</output>
		</layer>
		<layer id="85" name="425" type="GroupConvolution" version="opset1">
			<data dilations="1,1" output_padding="0,0" pads_begin="1,1" pads_end="1,1" strides="1,1"/>
			<input>
				<port id="0">
					<dim>1</dim>
					<dim>192</dim>
					<dim>52</dim>
					<dim>52</dim>
				</port>
				<port id="1">
					<dim>192</dim>
					<dim>1</dim>
					<dim>1</dim>
					<dim>3</dim>
					<dim>3</dim>
				</port>
			</input>
			<output>
				<port id="2" precision="FP32">
					<dim>1</dim>
					<dim>192</dim>
					<dim>52</dim>
					<dim>52</dim>
				</port>
			</output>
		</layer>
		<layer id="86" name="data_add_2576025765/copy_const" type="Const" version="opset1">
			<data element_type="f32" offset="204480" shape="1,192,1,1" size="768"/>
			<output>
				<port id="1" precision="FP32">
					<dim>1</dim>
					<dim>192</dim>
					<dim>1</dim>
					<dim>1</dim>
				</port>
			</output>
		</layer>
		<layer id="87" name="426/variance/Fused_Add_" type="Add" version="opset1">
			<input>
				<port id="0">
					<dim>1</dim>
					<dim>192</dim>
					<dim>52</dim>
					<dim>52</dim>
				</port>
				<port id="1">
					<dim>1</dim>
					<dim>192</dim>
					<dim>1</dim>
					<dim>1</dim>
				</port>
			</input>
			<output>
				<port id="2" precision="FP32">
					<dim>1</dim>
					<dim>192</dim>
					<dim>52</dim>
					<dim>52</dim>
				</port>
			</output>
		</layer>
		<layer id="88" name="427" type="Clamp" version="opset1">
			<data max="6.0" min="0.0"/>
			<input>
				<port id="0">
					<dim>1</dim>
					<dim>192</dim>
					<dim>52</dim>
					<dim>52</dim>
				</port>
			</input>
			<output>
				<port id="1" precision="FP32">
					<dim>1</dim>
					<dim>192</dim>
					<dim>52</dim>
					<dim>52</dim>
				</port>
			</output>
		</layer>
		<layer id="89" name="429/mean/Fused_Mul_2764027642_const" type="Const" version="opset1">
			<data element_type="f32" offset="205248" shape="32,192,1,1" size="24576"/>
			<output>
				<port id="1" precision="FP32">
					<dim>32</dim>
					<dim>192</dim>
					<dim>1</dim>
					<dim>1</dim>
				</port>
			</output>
		</layer>
		<layer id="90" name="428" type="Convolution" version="opset1">
			<data dilations="1,1" output_padding="0,0" pads_begin="0,0" pads_end="0,0" strides="1,1"/>
			<input>
				<port id="0">
					<dim>1</dim>
					<dim>192</dim>
					<dim>52</dim>
					<dim>52</dim>
				</port>
				<port id="1">
					<dim>32</dim>
					<dim>192</dim>
					<dim>1</dim>
					<dim>1</dim>
				</port>
			</input>
			<output>
				<port id="2" precision="FP32">
					<dim>1</dim>
					<dim>32</dim>
					<dim>52</dim>
					<dim>52</dim>
				</port>
			</output>
		</layer>
		<layer id="91" name="data_add_2576825773/copy_const" type="Const" version="opset1">
			<data element_type="f32" offset="229824" shape="1,32,1,1" size="128"/>
			<output>
				<port id="1" precision="FP32">
					<dim>1</dim>
					<dim>32</dim>
					<dim>1</dim>
					<dim>1</dim>
				</port>
			</output>
		</layer>
		<layer id="92" name="429/variance/Fused_Add_" type="Add" version="opset1">
			<input>
				<port id="0">
					<dim>1</dim>
					<dim>32</dim>
					<dim>52</dim>
					<dim>52</dim>
				</port>
				<port id="1">
					<dim>1</dim>
					<dim>32</dim>
					<dim>1</dim>
					<dim>1</dim>
				</port>
			</input>
			<output>
				<port id="2" precision="FP32">
					<dim>1</dim>
					<dim>32</dim>
					<dim>52</dim>
					<dim>52</dim>
				</port>
			</output>
		</layer>
		<layer id="93" name="430" type="Add" version="opset1">
			<input>
				<port id="0">
					<dim>1</dim>
					<dim>32</dim>
					<dim>52</dim>
					<dim>52</dim>
				</port>
				<port id="1">
					<dim>1</dim>
					<dim>32</dim>
					<dim>52</dim>
					<dim>52</dim>
				</port>
			</input>
			<output>
				<port id="2" precision="FP32">
					<dim>1</dim>
					<dim>32</dim>
					<dim>52</dim>
					<dim>52</dim>
				</port>
			</output>
		</layer>
		<layer id="94" name="onnx_initializer_node_neck.lateral_convs.0.conv.weight/Output_0/Data__const" type="Const" version="opset1">
			<data element_type="f32" offset="229952" shape="48,32,1,1" size="6144"/>
			<output>
				<port id="1" precision="FP32">
					<dim>48</dim>
					<dim>32</dim>
					<dim>1</dim>
					<dim>1</dim>
				</port>
			</output>
		</layer>
		<layer id="95" name="526/WithoutBiases" type="Convolution" version="opset1">
			<data dilations="1,1" output_padding="0,0" pads_begin="0,0" pads_end="0,0" strides="1,1"/>
			<input>
				<port id="0">
					<dim>1</dim>
					<dim>32</dim>
					<dim>52</dim>
					<dim>52</dim>
				</port>
				<port id="1">
					<dim>48</dim>
					<dim>32</dim>
					<dim>1</dim>
					<dim>1</dim>
				</port>
			</input>
			<output>
				<port id="2" precision="FP32">
					<dim>1</dim>
					<dim>48</dim>
					<dim>52</dim>
					<dim>52</dim>
				</port>
			</output>
		</layer>
		<layer id="96" name="526/Dims16870/copy_const" type="Const" version="opset1">
			<data element_type="f32" offset="236096" shape="1,48,1,1" size="192"/>
			<output>
				<port id="1" precision="FP32">
					<dim>1</dim>
					<dim>48</dim>
					<dim>1</dim>
					<dim>1</dim>
				</port>
			</output>
		</layer>
		<layer id="97" name="526" type="Add" version="opset1">
			<input>
				<port id="0">
					<dim>1</dim>
					<dim>48</dim>
					<dim>52</dim>
					<dim>52</dim>
				</port>
				<port id="1">
					<dim>1</dim>
					<dim>48</dim>
					<dim>1</dim>
					<dim>1</dim>
				</port>
			</input>
			<output>
				<port id="2" precision="FP32">
					<dim>1</dim>
					<dim>48</dim>
					<dim>52</dim>
					<dim>52</dim>
				</port>
			</output>
		</layer>
		<layer id="98" name="432/mean/Fused_Mul_2764427646_const" type="Const" version="opset1">
			<data element_type="f32" offset="236288" shape="192,32,1,1" size="24576"/>
			<output>
				<port id="1" precision="FP32">
					<dim>192</dim>
					<dim>32</dim>
					<dim>1</dim>
					<dim>1</dim>
				</port>
			</output>
		</layer>
		<layer id="99" name="431" type="Convolution" version="opset1">
			<data dilations="1,1" output_padding="0,0" pads_begin="0,0" pads_end="0,0" strides="1,1"/>
			<input>
				<port id="0">
					<dim>1</dim>
					<dim>32</dim>
					<dim>52</dim>
					<dim>52</dim>
				</port>
				<port id="1">
					<dim>192</dim>
					<dim>32</dim>
					<dim>1</dim>
					<dim>1</dim>
				</port>
			</input>
			<output>
				<port id="2" precision="FP32">
					<dim>1</dim>
					<dim>192</dim>
					<dim>52</dim>
					<dim>52</dim>
				</port>
			</output>
		</layer>
		<layer id="100" name="data_add_2577625781/copy_const" type="Const" version="opset1">
			<data element_type="f32" offset="260864" shape="1,192,1,1" size="768"/>
			<output>
				<port id="1" precision="FP32">
					<dim>1</dim>
					<dim>192</dim>
					<dim>1</dim>
					<dim>1</dim>
				</port>
			</output>
		</layer>
		<layer id="101" name="432/variance/Fused_Add_" type="Add" version="opset1">
			<input>
				<port id="0">
					<dim>1</dim>
					<dim>192</dim>
					<dim>52</dim>
					<dim>52</dim>
				</port>
				<port id="1">
					<dim>1</dim>
					<dim>192</dim>
					<dim>1</dim>
					<dim>1</dim>
				</port>
			</input>
			<output>
				<port id="2" precision="FP32">
					<dim>1</dim>
					<dim>192</dim>
					<dim>52</dim>
					<dim>52</dim>
				</port>
			</output>
		</layer>
		<layer id="102" name="433" type="Clamp" version="opset1">
			<data max="6.0" min="0.0"/>
			<input>
				<port id="0">
					<dim>1</dim>
					<dim>192</dim>
					<dim>52</dim>
					<dim>52</dim>
				</port>
			</input>
			<output>
				<port id="1" precision="FP32">
					<dim>1</dim>
					<dim>192</dim>
					<dim>52</dim>
					<dim>52</dim>
				</port>
			</output>
		</layer>
		<layer id="103" name="4781047813_const" type="Const" version="opset1">
			<data element_type="f32" offset="261632" shape="192,1,1,3,3" size="6912"/>
			<output>
				<port id="1" precision="FP32">
					<dim>192</dim>
					<dim>1</dim>
					<dim>1</dim>
					<dim>3</dim>
					<dim>3</dim>
				</port>
			</output>
		</layer>
		<layer id="104" name="434" type="GroupConvolution" version="opset1">
			<data dilations="1,1" output_padding="0,0" pads_begin="1,1" pads_end="1,1" strides="2,2"/>
			<input>
				<port id="0">
					<dim>1</dim>
					<dim>192</dim>
					<dim>52</dim>
					<dim>52</dim>
				</port>
				<port id="1">
					<dim>192</dim>
					<dim>1</dim>
					<dim>1</dim>
					<dim>3</dim>
					<dim>3</dim>
				</port>
			</input>
			<output>
				<port id="2" precision="FP32">
					<dim>1</dim>
					<dim>192</dim>
					<dim>26</dim>
					<dim>26</dim>
				</port>
			</output>
		</layer>
		<layer id="105" name="data_add_2578425789/copy_const" type="Const" version="opset1">
			<data element_type="f32" offset="268544" shape="1,192,1,1" size="768"/>
			<output>
				<port id="1" precision="FP32">
					<dim>1</dim>
					<dim>192</dim>
					<dim>1</dim>
					<dim>1</dim>
				</port>
			</output>
		</layer>
		<layer id="106" name="435/variance/Fused_Add_" type="Add" version="opset1">
			<input>
				<port id="0">
					<dim>1</dim>
					<dim>192</dim>
					<dim>26</dim>
					<dim>26</dim>
				</port>
				<port id="1">
					<dim>1</dim>
					<dim>192</dim>
					<dim>1</dim>
					<dim>1</dim>
				</port>
			</input>
			<output>
				<port id="2" precision="FP32">
					<dim>1</dim>
					<dim>192</dim>
					<dim>26</dim>
					<dim>26</dim>
				</port>
			</output>
		</layer>
		<layer id="107" name="436" type="Clamp" version="opset1">
			<data max="6.0" min="0.0"/>
			<input>
				<port id="0">
					<dim>1</dim>
					<dim>192</dim>
					<dim>26</dim>
					<dim>26</dim>
				</port>
			</input>
			<output>
				<port id="1" precision="FP32">
					<dim>1</dim>
					<dim>192</dim>
					<dim>26</dim>
					<dim>26</dim>
				</port>
			</output>
		</layer>
		<layer id="108" name="438/mean/Fused_Mul_2765227654_const" type="Const" version="opset1">
			<data element_type="f32" offset="269312" shape="64,192,1,1" size="49152"/>
			<output>
				<port id="1" precision="FP32">
					<dim>64</dim>
					<dim>192</dim>
					<dim>1</dim>
					<dim>1</dim>
				</port>
			</output>
		</layer>
		<layer id="109" name="437" type="Convolution" version="opset1">
			<data dilations="1,1" output_padding="0,0" pads_begin="0,0" pads_end="0,0" strides="1,1"/>
			<input>
				<port id="0">
					<dim>1</dim>
					<dim>192</dim>
					<dim>26</dim>
					<dim>26</dim>
				</port>
				<port id="1">
					<dim>64</dim>
					<dim>192</dim>
					<dim>1</dim>
					<dim>1</dim>
				</port>
			</input>
			<output>
				<port id="2" precision="FP32">
					<dim>1</dim>
					<dim>64</dim>
					<dim>26</dim>
					<dim>26</dim>
				</port>
			</output>
		</layer>
		<layer id="110" name="data_add_2579225797/copy_const" type="Const" version="opset1">
			<data element_type="f32" offset="318464" shape="1,64,1,1" size="256"/>
			<output>
				<port id="1" precision="FP32">
					<dim>1</dim>
					<dim>64</dim>
					<dim>1</dim>
					<dim>1</dim>
				</port>
			</output>
		</layer>
		<layer id="111" name="438/variance/Fused_Add_" type="Add" version="opset1">
			<input>
				<port id="0">
					<dim>1</dim>
					<dim>64</dim>
					<dim>26</dim>
					<dim>26</dim>
				</port>
				<port id="1">
					<dim>1</dim>
					<dim>64</dim>
					<dim>1</dim>
					<dim>1</dim>
				</port>
			</input>
			<output>
				<port id="2" precision="FP32">
					<dim>1</dim>
					<dim>64</dim>
					<dim>26</dim>
					<dim>26</dim>
				</port>
			</output>
		</layer>
		<layer id="112" name="440/mean/Fused_Mul_2765627658_const" type="Const" version="opset1">
			<data element_type="f32" offset="318720" shape="384,64,1,1" size="98304"/>
			<output>
				<port id="1" precision="FP32">
					<dim>384</dim>
					<dim>64</dim>
					<dim>1</dim>
					<dim>1</dim>
				</port>
			</output>
		</layer>
		<layer id="113" name="439" type="Convolution" version="opset1">
			<data dilations="1,1" output_padding="0,0" pads_begin="0,0" pads_end="0,0" strides="1,1"/>
			<input>
				<port id="0">
					<dim>1</dim>
					<dim>64</dim>
					<dim>26</dim>
					<dim>26</dim>
				</port>
				<port id="1">
					<dim>384</dim>
					<dim>64</dim>
					<dim>1</dim>
					<dim>1</dim>
				</port>
			</input>
			<output>
				<port id="2" precision="FP32">
					<dim>1</dim>
					<dim>384</dim>
					<dim>26</dim>
					<dim>26</dim>
				</port>
			</output>
		</layer>
		<layer id="114" name="data_add_2580025805/copy_const" type="Const" version="opset1">
			<data element_type="f32" offset="417024" shape="1,384,1,1" size="1536"/>
			<output>
				<port id="1" precision="FP32">
					<dim>1</dim>
					<dim>384</dim>
					<dim>1</dim>
					<dim>1</dim>
				</port>
			</output>
		</layer>
		<layer id="115" name="440/variance/Fused_Add_" type="Add" version="opset1">
			<input>
				<port id="0">
					<dim>1</dim>
					<dim>384</dim>
					<dim>26</dim>
					<dim>26</dim>
				</port>
				<port id="1">
					<dim>1</dim>
					<dim>384</dim>
					<dim>1</dim>
					<dim>1</dim>
				</port>
			</input>
			<output>
				<port id="2" precision="FP32">
					<dim>1</dim>
					<dim>384</dim>
					<dim>26</dim>
					<dim>26</dim>
				</port>
			</output>
		</layer>
		<layer id="116" name="441" type="Clamp" version="opset1">
			<data max="6.0" min="0.0"/>
			<input>
				<port id="0">
					<dim>1</dim>
					<dim>384</dim>
					<dim>26</dim>
					<dim>26</dim>
				</port>
			</input>
			<output>
				<port id="1" precision="FP32">
					<dim>1</dim>
					<dim>384</dim>
					<dim>26</dim>
					<dim>26</dim>
				</port>
			</output>
		</layer>
		<layer id="117" name="4782247825_const" type="Const" version="opset1">
			<data element_type="f32" offset="418560" shape="384,1,1,3,3" size="13824"/>
			<output>
				<port id="1" precision="FP32">
					<dim>384</dim>
					<dim>1</dim>
					<dim>1</dim>
					<dim>3</dim>
					<dim>3</dim>
				</port>
			</output>
		</layer>
		<layer id="118" name="442" type="GroupConvolution" version="opset1">
			<data dilations="1,1" output_padding="0,0" pads_begin="1,1" pads_end="1,1" strides="1,1"/>
			<input>
				<port id="0">
					<dim>1</dim>
					<dim>384</dim>
					<dim>26</dim>
					<dim>26</dim>
				</port>
				<port id="1">
					<dim>384</dim>
					<dim>1</dim>
					<dim>1</dim>
					<dim>3</dim>
					<dim>3</dim>
				</port>
			</input>
			<output>
				<port id="2" precision="FP32">
					<dim>1</dim>
					<dim>384</dim>
					<dim>26</dim>
					<dim>26</dim>
				</port>
			</output>
		</layer>
		<layer id="119" name="data_add_2580825813/copy_const" type="Const" version="opset1">
			<data element_type="f32" offset="432384" shape="1,384,1,1" size="1536"/>
			<output>
				<port id="1" precision="FP32">
					<dim>1</dim>
					<dim>384</dim>
					<dim>1</dim>
					<dim>1</dim>
				</port>
			</output>
		</layer>
		<layer id="120" name="443/variance/Fused_Add_" type="Add" version="opset1">
			<input>
				<port id="0">
					<dim>1</dim>
					<dim>384</dim>
					<dim>26</dim>
					<dim>26</dim>
				</port>
				<port id="1">
					<dim>1</dim>
					<dim>384</dim>
					<dim>1</dim>
					<dim>1</dim>
				</port>
			</input>
			<output>
				<port id="2" precision="FP32">
					<dim>1</dim>
					<dim>384</dim>
					<dim>26</dim>
					<dim>26</dim>
				</port>
			</output>
		</layer>
		<layer id="121" name="444" type="Clamp" version="opset1">
			<data max="6.0" min="0.0"/>
			<input>
				<port id="0">
					<dim>1</dim>
					<dim>384</dim>
					<dim>26</dim>
					<dim>26</dim>
				</port>
			</input>
			<output>
				<port id="1" precision="FP32">
					<dim>1</dim>
					<dim>384</dim>
					<dim>26</dim>
					<dim>26</dim>
				</port>
			</output>
		</layer>
		<layer id="122" name="446/mean/Fused_Mul_2766427666_const" type="Const" version="opset1">
			<data element_type="f32" offset="433920" shape="64,384,1,1" size="98304"/>
			<output>
				<port id="1" precision="FP32">
					<dim>64</dim>
					<dim>384</dim>
					<dim>1</dim>
					<dim>1</dim>
				</port>
			</output>
		</layer>
		<layer id="123" name="445" type="Convolution" version="opset1">
			<data dilations="1,1" output_padding="0,0" pads_begin="0,0" pads_end="0,0" strides="1,1"/>
			<input>
				<port id="0">
					<dim>1</dim>
					<dim>384</dim>
					<dim>26</dim>
					<dim>26</dim>
				</port>
				<port id="1">
					<dim>64</dim>
					<dim>384</dim>
					<dim>1</dim>
					<dim>1</dim>
				</port>
			</input>
			<output>
				<port id="2" precision="FP32">
					<dim>1</dim>
					<dim>64</dim>
					<dim>26</dim>
					<dim>26</dim>
				</port>
			</output>
		</layer>
		<layer id="124" name="data_add_2581625821/copy_const" type="Const" version="opset1">
			<data element_type="f32" offset="532224" shape="1,64,1,1" size="256"/>
			<output>
				<port id="1" precision="FP32">
					<dim>1</dim>
					<dim>64</dim>
					<dim>1</dim>
					<dim>1</dim>
				</port>
			</output>
		</layer>
		<layer id="125" name="446/variance/Fused_Add_" type="Add" version="opset1">
			<input>
				<port id="0">
					<dim>1</dim>
					<dim>64</dim>
					<dim>26</dim>
					<dim>26</dim>
				</port>
				<port id="1">
					<dim>1</dim>
					<dim>64</dim>
					<dim>1</dim>
					<dim>1</dim>
				</port>
			</input>
			<output>
				<port id="2" precision="FP32">
					<dim>1</dim>
					<dim>64</dim>
					<dim>26</dim>
					<dim>26</dim>
				</port>
			</output>
		</layer>
		<layer id="126" name="447" type="Add" version="opset1">
			<input>
				<port id="0">
					<dim>1</dim>
					<dim>64</dim>
					<dim>26</dim>
					<dim>26</dim>
				</port>
				<port id="1">
					<dim>1</dim>
					<dim>64</dim>
					<dim>26</dim>
					<dim>26</dim>
				</port>
			</input>
			<output>
				<port id="2" precision="FP32">
					<dim>1</dim>
					<dim>64</dim>
					<dim>26</dim>
					<dim>26</dim>
				</port>
			</output>
		</layer>
		<layer id="127" name="449/mean/Fused_Mul_2766827670_const" type="Const" version="opset1">
			<data element_type="f32" offset="532480" shape="384,64,1,1" size="98304"/>
			<output>
				<port id="1" precision="FP32">
					<dim>384</dim>
					<dim>64</dim>
					<dim>1</dim>
					<dim>1</dim>
				</port>
			</output>
		</layer>
		<layer id="128" name="448" type="Convolution" version="opset1">
			<data dilations="1,1" output_padding="0,0" pads_begin="0,0" pads_end="0,0" strides="1,1"/>
			<input>
				<port id="0">
					<dim>1</dim>
					<dim>64</dim>
					<dim>26</dim>
					<dim>26</dim>
				</port>
				<port id="1">
					<dim>384</dim>
					<dim>64</dim>
					<dim>1</dim>
					<dim>1</dim>
				</port>
			</input>
			<output>
				<port id="2" precision="FP32">
					<dim>1</dim>
					<dim>384</dim>
					<dim>26</dim>
					<dim>26</dim>
				</port>
			</output>
		</layer>
		<layer id="129" name="data_add_2582425829/copy_const" type="Const" version="opset1">
			<data element_type="f32" offset="630784" shape="1,384,1,1" size="1536"/>
			<output>
				<port id="1" precision="FP32">
					<dim>1</dim>
					<dim>384</dim>
					<dim>1</dim>
					<dim>1</dim>
				</port>
			</output>
		</layer>
		<layer id="130" name="449/variance/Fused_Add_" type="Add" version="opset1">
			<input>
				<port id="0">
					<dim>1</dim>
					<dim>384</dim>
					<dim>26</dim>
					<dim>26</dim>
				</port>
				<port id="1">
					<dim>1</dim>
					<dim>384</dim>
					<dim>1</dim>
					<dim>1</dim>
				</port>
			</input>
			<output>
				<port id="2" precision="FP32">
					<dim>1</dim>
					<dim>384</dim>
					<dim>26</dim>
					<dim>26</dim>
				</port>
			</output>
		</layer>
		<layer id="131" name="450" type="Clamp" version="opset1">
			<data max="6.0" min="0.0"/>
			<input>
				<port id="0">
					<dim>1</dim>
					<dim>384</dim>
					<dim>26</dim>
					<dim>26</dim>
				</port>
			</input>
			<output>
				<port id="1" precision="FP32">
					<dim>1</dim>
					<dim>384</dim>
					<dim>26</dim>
					<dim>26</dim>
				</port>
			</output>
		</layer>
		<layer id="132" name="4779447797_const" type="Const" version="opset1">
			<data element_type="f32" offset="632320" shape="384,1,1,3,3" size="13824"/>
			<output>
				<port id="1" precision="FP32">
					<dim>384</dim>
					<dim>1</dim>
					<dim>1</dim>
					<dim>3</dim>
					<dim>3</dim>
				</port>
			</output>
		</layer>
		<layer id="133" name="451" type="GroupConvolution" version="opset1">
			<data dilations="1,1" output_padding="0,0" pads_begin="1,1" pads_end="1,1" strides="1,1"/>
			<input>
				<port id="0">
					<dim>1</dim>
					<dim>384</dim>
					<dim>26</dim>
					<dim>26</dim>
				</port>
				<port id="1">
					<dim>384</dim>
					<dim>1</dim>
					<dim>1</dim>
					<dim>3</dim>
					<dim>3</dim>
				</port>
			</input>
			<output>
				<port id="2" precision="FP32">
					<dim>1</dim>
					<dim>384</dim>
					<dim>26</dim>
					<dim>26</dim>
				</port>
			</output>
		</layer>
		<layer id="134" name="data_add_2583225837/copy_const" type="Const" version="opset1">
			<data element_type="f32" offset="646144" shape="1,384,1,1" size="1536"/>
			<output>
				<port id="1" precision="FP32">
					<dim>1</dim>
					<dim>384</dim>
					<dim>1</dim>
					<dim>1</dim>
				</port>
			</output>
		</layer>
		<layer id="135" name="452/variance/Fused_Add_" type="Add" version="opset1">
			<input>
				<port id="0">
					<dim>1</dim>
					<dim>384</dim>
					<dim>26</dim>
					<dim>26</dim>
				</port>
				<port id="1">
					<dim>1</dim>
					<dim>384</dim>
					<dim>1</dim>
					<dim>1</dim>
				</port>
			</input>
			<output>
				<port id="2" precision="FP32">
					<dim>1</dim>
					<dim>384</dim>
					<dim>26</dim>
					<dim>26</dim>
				</port>
			</output>
		</layer>
		<layer id="136" name="453" type="Clamp" version="opset1">
			<data max="6.0" min="0.0"/>
			<input>
				<port id="0">
					<dim>1</dim>
					<dim>384</dim>
					<dim>26</dim>
					<dim>26</dim>
				</port>
			</input>
			<output>
				<port id="1" precision="FP32">
					<dim>1</dim>
					<dim>384</dim>
					<dim>26</dim>
					<dim>26</dim>
				</port>
			</output>
		</layer>
		<layer id="137" name="455/mean/Fused_Mul_2767627678_const" type="Const" version="opset1">
			<data element_type="f32" offset="647680" shape="64,384,1,1" size="98304"/>
			<output>
				<port id="1" precision="FP32">
					<dim>64</dim>
					<dim>384</dim>
					<dim>1</dim>
					<dim>1</dim>
				</port>
			</output>
		</layer>
		<layer id="138" name="454" type="Convolution" version="opset1">
			<data dilations="1,1" output_padding="0,0" pads_begin="0,0" pads_end="0,0" strides="1,1"/>
			<input>
				<port id="0">
					<dim>1</dim>
					<dim>384</dim>
					<dim>26</dim>
					<dim>26</dim>
				</port>
				<port id="1">
					<dim>64</dim>
					<dim>384</dim>
					<dim>1</dim>
					<dim>1</dim>
				</port>
			</input>
			<output>
				<port id="2" precision="FP32">
					<dim>1</dim>
					<dim>64</dim>
					<dim>26</dim>
					<dim>26</dim>
				</port>
			</output>
		</layer>
		<layer id="139" name="data_add_2584025845/copy_const" type="Const" version="opset1">
			<data element_type="f32" offset="745984" shape="1,64,1,1" size="256"/>
			<output>
				<port id="1" precision="FP32">
					<dim>1</dim>
					<dim>64</dim>
					<dim>1</dim>
					<dim>1</dim>
				</port>
			</output>
		</layer>
		<layer id="140" name="455/variance/Fused_Add_" type="Add" version="opset1">
			<input>
				<port id="0">
					<dim>1</dim>
					<dim>64</dim>
					<dim>26</dim>
					<dim>26</dim>
				</port>
				<port id="1">
					<dim>1</dim>
					<dim>64</dim>
					<dim>1</dim>
					<dim>1</dim>
				</port>
			</input>
			<output>
				<port id="2" precision="FP32">
					<dim>1</dim>
					<dim>64</dim>
					<dim>26</dim>
					<dim>26</dim>
				</port>
			</output>
		</layer>
		<layer id="141" name="456" type="Add" version="opset1">
			<input>
				<port id="0">
					<dim>1</dim>
					<dim>64</dim>
					<dim>26</dim>
					<dim>26</dim>
				</port>
				<port id="1">
					<dim>1</dim>
					<dim>64</dim>
					<dim>26</dim>
					<dim>26</dim>
				</port>
			</input>
			<output>
				<port id="2" precision="FP32">
					<dim>1</dim>
					<dim>64</dim>
					<dim>26</dim>
					<dim>26</dim>
				</port>
			</output>
		</layer>
		<layer id="142" name="458/mean/Fused_Mul_2768027682_const" type="Const" version="opset1">
			<data element_type="f32" offset="746240" shape="384,64,1,1" size="98304"/>
			<output>
				<port id="1" precision="FP32">
					<dim>384</dim>
					<dim>64</dim>
					<dim>1</dim>
					<dim>1</dim>
				</port>
			</output>
		</layer>
		<layer id="143" name="457" type="Convolution" version="opset1">
			<data dilations="1,1" output_padding="0,0" pads_begin="0,0" pads_end="0,0" strides="1,1"/>
			<input>
				<port id="0">
					<dim>1</dim>
					<dim>64</dim>
					<dim>26</dim>
					<dim>26</dim>
				</port>
				<port id="1">
					<dim>384</dim>
					<dim>64</dim>
					<dim>1</dim>
					<dim>1</dim>
				</port>
			</input>
			<output>
				<port id="2" precision="FP32">
					<dim>1</dim>
					<dim>384</dim>
					<dim>26</dim>
					<dim>26</dim>
				</port>
			</output>
		</layer>
		<layer id="144" name="data_add_2584825853/copy_const" type="Const" version="opset1">
			<data element_type="f32" offset="844544" shape="1,384,1,1" size="1536"/>
			<output>
				<port id="1" precision="FP32">
					<dim>1</dim>
					<dim>384</dim>
					<dim>1</dim>
					<dim>1</dim>
				</port>
			</output>
		</layer>
		<layer id="145" name="458/variance/Fused_Add_" type="Add" version="opset1">
			<input>
				<port id="0">
					<dim>1</dim>
					<dim>384</dim>
					<dim>26</dim>
					<dim>26</dim>
				</port>
				<port id="1">
					<dim>1</dim>
					<dim>384</dim>
					<dim>1</dim>
					<dim>1</dim>
				</port>
			</input>
			<output>
				<port id="2" precision="FP32">
					<dim>1</dim>
					<dim>384</dim>
					<dim>26</dim>
					<dim>26</dim>
				</port>
			</output>
		</layer>
		<layer id="146" name="459" type="Clamp" version="opset1">
			<data max="6.0" min="0.0"/>
			<input>
				<port id="0">
					<dim>1</dim>
					<dim>384</dim>
					<dim>26</dim>
					<dim>26</dim>
				</port>
			</input>
			<output>
				<port id="1" precision="FP32">
					<dim>1</dim>
					<dim>384</dim>
					<dim>26</dim>
					<dim>26</dim>
				</port>
			</output>
		</layer>
		<layer id="147" name="4775847761_const" type="Const" version="opset1">
			<data element_type="f32" offset="846080" shape="384,1,1,3,3" size="13824"/>
			<output>
				<port id="1" precision="FP32">
					<dim>384</dim>
					<dim>1</dim>
					<dim>1</dim>
					<dim>3</dim>
					<dim>3</dim>
				</port>
			</output>
		</layer>
		<layer id="148" name="460" type="GroupConvolution" version="opset1">
			<data dilations="1,1" output_padding="0,0" pads_begin="1,1" pads_end="1,1" strides="1,1"/>
			<input>
				<port id="0">
					<dim>1</dim>
					<dim>384</dim>
					<dim>26</dim>
					<dim>26</dim>
				</port>
				<port id="1">
					<dim>384</dim>
					<dim>1</dim>
					<dim>1</dim>
					<dim>3</dim>
					<dim>3</dim>
				</port>
			</input>
			<output>
				<port id="2" precision="FP32">
					<dim>1</dim>
					<dim>384</dim>
					<dim>26</dim>
					<dim>26</dim>
				</port>
			</output>
		</layer>
		<layer id="149" name="data_add_2585625861/copy_const" type="Const" version="opset1">
			<data element_type="f32" offset="859904" shape="1,384,1,1" size="1536"/>
			<output>
				<port id="1" precision="FP32">
					<dim>1</dim>
					<dim>384</dim>
					<dim>1</dim>
					<dim>1</dim>
				</port>
			</output>
		</layer>
		<layer id="150" name="461/variance/Fused_Add_" type="Add" version="opset1">
			<input>
				<port id="0">
					<dim>1</dim>
					<dim>384</dim>
					<dim>26</dim>
					<dim>26</dim>
				</port>
				<port id="1">
					<dim>1</dim>
					<dim>384</dim>
					<dim>1</dim>
					<dim>1</dim>
				</port>
			</input>
			<output>
				<port id="2" precision="FP32">
					<dim>1</dim>
					<dim>384</dim>
					<dim>26</dim>
					<dim>26</dim>
				</port>
			</output>
		</layer>
		<layer id="151" name="462" type="Clamp" version="opset1">
			<data max="6.0" min="0.0"/>
			<input>
				<port id="0">
					<dim>1</dim>
					<dim>384</dim>
					<dim>26</dim>
					<dim>26</dim>
				</port>
			</input>
			<output>
				<port id="1" precision="FP32">
					<dim>1</dim>
					<dim>384</dim>
					<dim>26</dim>
					<dim>26</dim>
				</port>
			</output>
		</layer>
		<layer id="152" name="464/mean/Fused_Mul_2768827690_const" type="Const" version="opset1">
			<data element_type="f32" offset="861440" shape="64,384,1,1" size="98304"/>
			<output>
				<port id="1" precision="FP32">
					<dim>64</dim>
					<dim>384</dim>
					<dim>1</dim>
					<dim>1</dim>
				</port>
			</output>
		</layer>
		<layer id="153" name="463" type="Convolution" version="opset1">
			<data dilations="1,1" output_padding="0,0" pads_begin="0,0" pads_end="0,0" strides="1,1"/>
			<input>
				<port id="0">
					<dim>1</dim>
					<dim>384</dim>
					<dim>26</dim>
					<dim>26</dim>
				</port>
				<port id="1">
					<dim>64</dim>
					<dim>384</dim>
					<dim>1</dim>
					<dim>1</dim>
				</port>
			</input>
			<output>
				<port id="2" precision="FP32">
					<dim>1</dim>
					<dim>64</dim>
					<dim>26</dim>
					<dim>26</dim>
				</port>
			</output>
		</layer>
		<layer id="154" name="data_add_2586425869/copy_const" type="Const" version="opset1">
			<data element_type="f32" offset="959744" shape="1,64,1,1" size="256"/>
			<output>
				<port id="1" precision="FP32">
					<dim>1</dim>
					<dim>64</dim>
					<dim>1</dim>
					<dim>1</dim>
				</port>
			</output>
		</layer>
		<layer id="155" name="464/variance/Fused_Add_" type="Add" version="opset1">
			<input>
				<port id="0">
					<dim>1</dim>
					<dim>64</dim>
					<dim>26</dim>
					<dim>26</dim>
				</port>
				<port id="1">
					<dim>1</dim>
					<dim>64</dim>
					<dim>1</dim>
					<dim>1</dim>
				</port>
			</input>
			<output>
				<port id="2" precision="FP32">
					<dim>1</dim>
					<dim>64</dim>
					<dim>26</dim>
					<dim>26</dim>
				</port>
			</output>
		</layer>
		<layer id="156" name="465" type="Add" version="opset1">
			<input>
				<port id="0">
					<dim>1</dim>
					<dim>64</dim>
					<dim>26</dim>
					<dim>26</dim>
				</port>
				<port id="1">
					<dim>1</dim>
					<dim>64</dim>
					<dim>26</dim>
					<dim>26</dim>
				</port>
			</input>
			<output>
				<port id="2" precision="FP32">
					<dim>1</dim>
					<dim>64</dim>
					<dim>26</dim>
					<dim>26</dim>
				</port>
			</output>
		</layer>
		<layer id="157" name="467/mean/Fused_Mul_2769227694_const" type="Const" version="opset1">
			<data element_type="f32" offset="960000" shape="384,64,1,1" size="98304"/>
			<output>
				<port id="1" precision="FP32">
					<dim>384</dim>
					<dim>64</dim>
					<dim>1</dim>
					<dim>1</dim>
				</port>
			</output>
		</layer>
		<layer id="158" name="466" type="Convolution" version="opset1">
			<data dilations="1,1" output_padding="0,0" pads_begin="0,0" pads_end="0,0" strides="1,1"/>
			<input>
				<port id="0">
					<dim>1</dim>
					<dim>64</dim>
					<dim>26</dim>
					<dim>26</dim>
				</port>
				<port id="1">
					<dim>384</dim>
					<dim>64</dim>
					<dim>1</dim>
					<dim>1</dim>
				</port>
			</input>
			<output>
				<port id="2" precision="FP32">
					<dim>1</dim>
					<dim>384</dim>
					<dim>26</dim>
					<dim>26</dim>
				</port>
			</output>
		</layer>
		<layer id="159" name="data_add_2587225877/copy_const" type="Const" version="opset1">
			<data element_type="f32" offset="1058304" shape="1,384,1,1" size="1536"/>
			<output>
				<port id="1" precision="FP32">
					<dim>1</dim>
					<dim>384</dim>
					<dim>1</dim>
					<dim>1</dim>
				</port>
			</output>
		</layer>
		<layer id="160" name="467/variance/Fused_Add_" type="Add" version="opset1">
			<input>
				<port id="0">
					<dim>1</dim>
					<dim>384</dim>
					<dim>26</dim>
					<dim>26</dim>
				</port>
				<port id="1">
					<dim>1</dim>
					<dim>384</dim>
					<dim>1</dim>
					<dim>1</dim>
				</port>
			</input>
			<output>
				<port id="2" precision="FP32">
					<dim>1</dim>
					<dim>384</dim>
					<dim>26</dim>
					<dim>26</dim>
				</port>
			</output>
		</layer>
		<layer id="161" name="468" type="Clamp" version="opset1">
			<data max="6.0" min="0.0"/>
			<input>
				<port id="0">
					<dim>1</dim>
					<dim>384</dim>
					<dim>26</dim>
					<dim>26</dim>
				</port>
			</input>
			<output>
				<port id="1" precision="FP32">
					<dim>1</dim>
					<dim>384</dim>
					<dim>26</dim>
					<dim>26</dim>
				</port>
			</output>
		</layer>
		<layer id="162" name="4778647789_const" type="Const" version="opset1">
			<data element_type="f32" offset="1059840" shape="384,1,1,3,3" size="13824"/>
			<output>
				<port id="1" precision="FP32">
					<dim>384</dim>
					<dim>1</dim>
					<dim>1</dim>
					<dim>3</dim>
					<dim>3</dim>
				</port>
			</output>
		</layer>
		<layer id="163" name="469" type="GroupConvolution" version="opset1">
			<data dilations="1,1" output_padding="0,0" pads_begin="1,1" pads_end="1,1" strides="1,1"/>
			<input>
				<port id="0">
					<dim>1</dim>
					<dim>384</dim>
					<dim>26</dim>
					<dim>26</dim>
				</port>
				<port id="1">
					<dim>384</dim>
					<dim>1</dim>
					<dim>1</dim>
					<dim>3</dim>
					<dim>3</dim>
				</port>
			</input>
			<output>
				<port id="2" precision="FP32">
					<dim>1</dim>
					<dim>384</dim>
					<dim>26</dim>
					<dim>26</dim>
				</port>
			</output>
		</layer>
		<layer id="164" name="data_add_2588025885/copy_const" type="Const" version="opset1">
			<data element_type="f32" offset="1073664" shape="1,384,1,1" size="1536"/>
			<output>
				<port id="1" precision="FP32">
					<dim>1</dim>
					<dim>384</dim>
					<dim>1</dim>
					<dim>1</dim>
				</port>
			</output>
		</layer>
		<layer id="165" name="470/variance/Fused_Add_" type="Add" version="opset1">
			<input>
				<port id="0">
					<dim>1</dim>
					<dim>384</dim>
					<dim>26</dim>
					<dim>26</dim>
				</port>
				<port id="1">
					<dim>1</dim>
					<dim>384</dim>
					<dim>1</dim>
					<dim>1</dim>
				</port>
			</input>
			<output>
				<port id="2" precision="FP32">
					<dim>1</dim>
					<dim>384</dim>
					<dim>26</dim>
					<dim>26</dim>
				</port>
			</output>
		</layer>
		<layer id="166" name="471" type="Clamp" version="opset1">
			<data max="6.0" min="0.0"/>
			<input>
				<port id="0">
					<dim>1</dim>
					<dim>384</dim>
					<dim>26</dim>
					<dim>26</dim>
				</port>
			</input>
			<output>
				<port id="1" precision="FP32">
					<dim>1</dim>
					<dim>384</dim>
					<dim>26</dim>
					<dim>26</dim>
				</port>
			</output>
		</layer>
		<layer id="167" name="473/mean/Fused_Mul_2770027702_const" type="Const" version="opset1">
			<data element_type="f32" offset="1075200" shape="96,384,1,1" size="147456"/>
			<output>
				<port id="1" precision="FP32">
					<dim>96</dim>
					<dim>384</dim>
					<dim>1</dim>
					<dim>1</dim>
				</port>
			</output>
		</layer>
		<layer id="168" name="472" type="Convolution" version="opset1">
			<data dilations="1,1" output_padding="0,0" pads_begin="0,0" pads_end="0,0" strides="1,1"/>
			<input>
				<port id="0">
					<dim>1</dim>
					<dim>384</dim>
					<dim>26</dim>
					<dim>26</dim>
				</port>
				<port id="1">
					<dim>96</dim>
					<dim>384</dim>
					<dim>1</dim>
					<dim>1</dim>
				</port>
			</input>
			<output>
				<port id="2" precision="FP32">
					<dim>1</dim>
					<dim>96</dim>
					<dim>26</dim>
					<dim>26</dim>
				</port>
			</output>
		</layer>
		<layer id="169" name="data_add_2588825893/copy_const" type="Const" version="opset1">
			<data element_type="f32" offset="1222656" shape="1,96,1,1" size="384"/>
			<output>
				<port id="1" precision="FP32">
					<dim>1</dim>
					<dim>96</dim>
					<dim>1</dim>
					<dim>1</dim>
				</port>
			</output>
		</layer>
		<layer id="170" name="473/variance/Fused_Add_" type="Add" version="opset1">
			<input>
				<port id="0">
					<dim>1</dim>
					<dim>96</dim>
					<dim>26</dim>
					<dim>26</dim>
				</port>
				<port id="1">
					<dim>1</dim>
					<dim>96</dim>
					<dim>1</dim>
					<dim>1</dim>
				</port>
			</input>
			<output>
				<port id="2" precision="FP32">
					<dim>1</dim>
					<dim>96</dim>
					<dim>26</dim>
					<dim>26</dim>
				</port>
			</output>
		</layer>
		<layer id="171" name="475/mean/Fused_Mul_2770427706_const" type="Const" version="opset1">
			<data element_type="f32" offset="1223040" shape="576,96,1,1" size="221184"/>
			<output>
				<port id="1" precision="FP32">
					<dim>576</dim>
					<dim>96</dim>
					<dim>1</dim>
					<dim>1</dim>
				</port>
			</output>
		</layer>
		<layer id="172" name="474" type="Convolution" version="opset1">
			<data dilations="1,1" output_padding="0,0" pads_begin="0,0" pads_end="0,0" strides="1,1"/>
			<input>
				<port id="0">
					<dim>1</dim>
					<dim>96</dim>
					<dim>26</dim>
					<dim>26</dim>
				</port>
				<port id="1">
					<dim>576</dim>
					<dim>96</dim>
					<dim>1</dim>
					<dim>1</dim>
				</port>
			</input>
			<output>
				<port id="2" precision="FP32">
					<dim>1</dim>
					<dim>576</dim>
					<dim>26</dim>
					<dim>26</dim>
				</port>
			</output>
		</layer>
		<layer id="173" name="data_add_2589625901/copy_const" type="Const" version="opset1">
			<data element_type="f32" offset="1444224" shape="1,576,1,1" size="2304"/>
			<output>
				<port id="1" precision="FP32">
					<dim>1</dim>
					<dim>576</dim>
					<dim>1</dim>
					<dim>1</dim>
				</port>
			</output>
		</layer>
		<layer id="174" name="475/variance/Fused_Add_" type="Add" version="opset1">
			<input>
				<port id="0">
					<dim>1</dim>
					<dim>576</dim>
					<dim>26</dim>
					<dim>26</dim>
				</port>
				<port id="1">
					<dim>1</dim>
					<dim>576</dim>
					<dim>1</dim>
					<dim>1</dim>
				</port>
			</input>
			<output>
				<port id="2" precision="FP32">
					<dim>1</dim>
					<dim>576</dim>
					<dim>26</dim>
					<dim>26</dim>
				</port>
			</output>
		</layer>
		<layer id="175" name="476" type="Clamp" version="opset1">
			<data max="6.0" min="0.0"/>
			<input>
				<port id="0">
					<dim>1</dim>
					<dim>576</dim>
					<dim>26</dim>
					<dim>26</dim>
				</port>
			</input>
			<output>
				<port id="1" precision="FP32">
					<dim>1</dim>
					<dim>576</dim>
					<dim>26</dim>
					<dim>26</dim>
				</port>
			</output>
		</layer>
		<layer id="176" name="4779047793_const" type="Const" version="opset1">
			<data element_type="f32" offset="1446528" shape="576,1,1,3,3" size="20736"/>
			<output>
				<port id="1" precision="FP32">
					<dim>576</dim>
					<dim>1</dim>
					<dim>1</dim>
					<dim>3</dim>
					<dim>3</dim>
				</port>
			</output>
		</layer>
		<layer id="177" name="477" type="GroupConvolution" version="opset1">
			<data dilations="1,1" output_padding="0,0" pads_begin="1,1" pads_end="1,1" strides="1,1"/>
			<input>
				<port id="0">
					<dim>1</dim>
					<dim>576</dim>
					<dim>26</dim>
					<dim>26</dim>
				</port>
				<port id="1">
					<dim>576</dim>
					<dim>1</dim>
					<dim>1</dim>
					<dim>3</dim>
					<dim>3</dim>
				</port>
			</input>
			<output>
				<port id="2" precision="FP32">
					<dim>1</dim>
					<dim>576</dim>
					<dim>26</dim>
					<dim>26</dim>
				</port>
			</output>
		</layer>
		<layer id="178" name="data_add_2590425909/copy_const" type="Const" version="opset1">
			<data element_type="f32" offset="1467264" shape="1,576,1,1" size="2304"/>
			<output>
				<port id="1" precision="FP32">
					<dim>1</dim>
					<dim>576</dim>
					<dim>1</dim>
					<dim>1</dim>
				</port>
			</output>
		</layer>
		<layer id="179" name="478/variance/Fused_Add_" type="Add" version="opset1">
			<input>
				<port id="0">
					<dim>1</dim>
					<dim>576</dim>
					<dim>26</dim>
					<dim>26</dim>
				</port>
				<port id="1">
					<dim>1</dim>
					<dim>576</dim>
					<dim>1</dim>
					<dim>1</dim>
				</port>
			</input>
			<output>
				<port id="2" precision="FP32">
					<dim>1</dim>
					<dim>576</dim>
					<dim>26</dim>
					<dim>26</dim>
				</port>
			</output>
		</layer>
		<layer id="180" name="479" type="Clamp" version="opset1">
			<data max="6.0" min="0.0"/>
			<input>
				<port id="0">
					<dim>1</dim>
					<dim>576</dim>
					<dim>26</dim>
					<dim>26</dim>
				</port>
			</input>
			<output>
				<port id="1" precision="FP32">
					<dim>1</dim>
					<dim>576</dim>
					<dim>26</dim>
					<dim>26</dim>
				</port>
			</output>
		</layer>
		<layer id="181" name="481/mean/Fused_Mul_2771227714_const" type="Const" version="opset1">
			<data element_type="f32" offset="1469568" shape="96,576,1,1" size="221184"/>
			<output>
				<port id="1" precision="FP32">
					<dim>96</dim>
					<dim>576</dim>
					<dim>1</dim>
					<dim>1</dim>
				</port>
			</output>
		</layer>
		<layer id="182" name="480" type="Convolution" version="opset1">
			<data dilations="1,1" output_padding="0,0" pads_begin="0,0" pads_end="0,0" strides="1,1"/>
			<input>
				<port id="0">
					<dim>1</dim>
					<dim>576</dim>
					<dim>26</dim>
					<dim>26</dim>
				</port>
				<port id="1">
					<dim>96</dim>
					<dim>576</dim>
					<dim>1</dim>
					<dim>1</dim>
				</port>
			</input>
			<output>
				<port id="2" precision="FP32">
					<dim>1</dim>
					<dim>96</dim>
					<dim>26</dim>
					<dim>26</dim>
				</port>
			</output>
		</layer>
		<layer id="183" name="data_add_2591225917/copy_const" type="Const" version="opset1">
			<data element_type="f32" offset="1690752" shape="1,96,1,1" size="384"/>
			<output>
				<port id="1" precision="FP32">
					<dim>1</dim>
					<dim>96</dim>
					<dim>1</dim>
					<dim>1</dim>
				</port>
			</output>
		</layer>
		<layer id="184" name="481/variance/Fused_Add_" type="Add" version="opset1">
			<input>
				<port id="0">
					<dim>1</dim>
					<dim>96</dim>
					<dim>26</dim>
					<dim>26</dim>
				</port>
				<port id="1">
					<dim>1</dim>
					<dim>96</dim>
					<dim>1</dim>
					<dim>1</dim>
				</port>
			</input>
			<output>
				<port id="2" precision="FP32">
					<dim>1</dim>
					<dim>96</dim>
					<dim>26</dim>
					<dim>26</dim>
				</port>
			</output>
		</layer>
		<layer id="185" name="482" type="Add" version="opset1">
			<input>
				<port id="0">
					<dim>1</dim>
					<dim>96</dim>
					<dim>26</dim>
					<dim>26</dim>
				</port>
				<port id="1">
					<dim>1</dim>
					<dim>96</dim>
					<dim>26</dim>
					<dim>26</dim>
				</port>
			</input>
			<output>
				<port id="2" precision="FP32">
					<dim>1</dim>
					<dim>96</dim>
					<dim>26</dim>
					<dim>26</dim>
				</port>
			</output>
		</layer>
		<layer id="186" name="484/mean/Fused_Mul_2771627718_const" type="Const" version="opset1">
			<data element_type="f32" offset="1691136" shape="576,96,1,1" size="221184"/>
			<output>
				<port id="1" precision="FP32">
					<dim>576</dim>
					<dim>96</dim>
					<dim>1</dim>
					<dim>1</dim>
				</port>
			</output>
		</layer>
		<layer id="187" name="483" type="Convolution" version="opset1">
			<data dilations="1,1" output_padding="0,0" pads_begin="0,0" pads_end="0,0" strides="1,1"/>
			<input>
				<port id="0">
					<dim>1</dim>
					<dim>96</dim>
					<dim>26</dim>
					<dim>26</dim>
				</port>
				<port id="1">
					<dim>576</dim>
					<dim>96</dim>
					<dim>1</dim>
					<dim>1</dim>
				</port>
			</input>
			<output>
				<port id="2" precision="FP32">
					<dim>1</dim>
					<dim>576</dim>
					<dim>26</dim>
					<dim>26</dim>
				</port>
			</output>
		</layer>
		<layer id="188" name="data_add_2592025925/copy_const" type="Const" version="opset1">
			<data element_type="f32" offset="1912320" shape="1,576,1,1" size="2304"/>
			<output>
				<port id="1" precision="FP32">
					<dim>1</dim>
					<dim>576</dim>
					<dim>1</dim>
					<dim>1</dim>
				</port>
			</output>
		</layer>
		<layer id="189" name="484/variance/Fused_Add_" type="Add" version="opset1">
			<input>
				<port id="0">
					<dim>1</dim>
					<dim>576</dim>
					<dim>26</dim>
					<dim>26</dim>
				</port>
				<port id="1">
					<dim>1</dim>
					<dim>576</dim>
					<dim>1</dim>
					<dim>1</dim>
				</port>
			</input>
			<output>
				<port id="2" precision="FP32">
					<dim>1</dim>
					<dim>576</dim>
					<dim>26</dim>
					<dim>26</dim>
				</port>
			</output>
		</layer>
		<layer id="190" name="485" type="Clamp" version="opset1">
			<data max="6.0" min="0.0"/>
			<input>
				<port id="0">
					<dim>1</dim>
					<dim>576</dim>
					<dim>26</dim>
					<dim>26</dim>
				</port>
			</input>
			<output>
				<port id="1" precision="FP32">
					<dim>1</dim>
					<dim>576</dim>
					<dim>26</dim>
					<dim>26</dim>
				</port>
			</output>
		</layer>
		<layer id="191" name="4777047773_const" type="Const" version="opset1">
			<data element_type="f32" offset="1914624" shape="576,1,1,3,3" size="20736"/>
			<output>
				<port id="1" precision="FP32">
					<dim>576</dim>
					<dim>1</dim>
					<dim>1</dim>
					<dim>3</dim>
					<dim>3</dim>
				</port>
			</output>
		</layer>
		<layer id="192" name="486" type="GroupConvolution" version="opset1">
			<data dilations="1,1" output_padding="0,0" pads_begin="1,1" pads_end="1,1" strides="1,1"/>
			<input>
				<port id="0">
					<dim>1</dim>
					<dim>576</dim>
					<dim>26</dim>
					<dim>26</dim>
				</port>
				<port id="1">
					<dim>576</dim>
					<dim>1</dim>
					<dim>1</dim>
					<dim>3</dim>
					<dim>3</dim>
				</port>
			</input>
			<output>
				<port id="2" precision="FP32">
					<dim>1</dim>
					<dim>576</dim>
					<dim>26</dim>
					<dim>26</dim>
				</port>
			</output>
		</layer>
		<layer id="193" name="data_add_2592825933/copy_const" type="Const" version="opset1">
			<data element_type="f32" offset="1935360" shape="1,576,1,1" size="2304"/>
			<output>
				<port id="1" precision="FP32">
					<dim>1</dim>
					<dim>576</dim>
					<dim>1</dim>
					<dim>1</dim>
				</port>
			</output>
		</layer>
		<layer id="194" name="487/variance/Fused_Add_" type="Add" version="opset1">
			<input>
				<port id="0">
					<dim>1</dim>
					<dim>576</dim>
					<dim>26</dim>
					<dim>26</dim>
				</port>
				<port id="1">
					<dim>1</dim>
					<dim>576</dim>
					<dim>1</dim>
					<dim>1</dim>
				</port>
			</input>
			<output>
				<port id="2" precision="FP32">
					<dim>1</dim>
					<dim>576</dim>
					<dim>26</dim>
					<dim>26</dim>
				</port>
			</output>
		</layer>
		<layer id="195" name="488" type="Clamp" version="opset1">
			<data max="6.0" min="0.0"/>
			<input>
				<port id="0">
					<dim>1</dim>
					<dim>576</dim>
					<dim>26</dim>
					<dim>26</dim>
				</port>
			</input>
			<output>
				<port id="1" precision="FP32">
					<dim>1</dim>
					<dim>576</dim>
					<dim>26</dim>
					<dim>26</dim>
				</port>
			</output>
		</layer>
		<layer id="196" name="490/mean/Fused_Mul_2772427726_const" type="Const" version="opset1">
			<data element_type="f32" offset="1937664" shape="96,576,1,1" size="221184"/>
			<output>
				<port id="1" precision="FP32">
					<dim>96</dim>
					<dim>576</dim>
					<dim>1</dim>
					<dim>1</dim>
				</port>
			</output>
		</layer>
		<layer id="197" name="489" type="Convolution" version="opset1">
			<data dilations="1,1" output_padding="0,0" pads_begin="0,0" pads_end="0,0" strides="1,1"/>
			<input>
				<port id="0">
					<dim>1</dim>
					<dim>576</dim>
					<dim>26</dim>
					<dim>26</dim>
				</port>
				<port id="1">
					<dim>96</dim>
					<dim>576</dim>
					<dim>1</dim>
					<dim>1</dim>
				</port>
			</input>
			<output>
				<port id="2" precision="FP32">
					<dim>1</dim>
					<dim>96</dim>
					<dim>26</dim>
					<dim>26</dim>
				</port>
			</output>
		</layer>
		<layer id="198" name="data_add_2593625941/copy_const" type="Const" version="opset1">
			<data element_type="f32" offset="2158848" shape="1,96,1,1" size="384"/>
			<output>
				<port id="1" precision="FP32">
					<dim>1</dim>
					<dim>96</dim>
					<dim>1</dim>
					<dim>1</dim>
				</port>
			</output>
		</layer>
		<layer id="199" name="490/variance/Fused_Add_" type="Add" version="opset1">
			<input>
				<port id="0">
					<dim>1</dim>
					<dim>96</dim>
					<dim>26</dim>
					<dim>26</dim>
				</port>
				<port id="1">
					<dim>1</dim>
					<dim>96</dim>
					<dim>1</dim>
					<dim>1</dim>
				</port>
			</input>
			<output>
				<port id="2" precision="FP32">
					<dim>1</dim>
					<dim>96</dim>
					<dim>26</dim>
					<dim>26</dim>
				</port>
			</output>
		</layer>
		<layer id="200" name="491" type="Add" version="opset1">
			<input>
				<port id="0">
					<dim>1</dim>
					<dim>96</dim>
					<dim>26</dim>
					<dim>26</dim>
				</port>
				<port id="1">
					<dim>1</dim>
					<dim>96</dim>
					<dim>26</dim>
					<dim>26</dim>
				</port>
			</input>
			<output>
				<port id="2" precision="FP32">
					<dim>1</dim>
					<dim>96</dim>
					<dim>26</dim>
					<dim>26</dim>
				</port>
			</output>
		</layer>
		<layer id="201" name="onnx_initializer_node_neck.lateral_convs.1.conv.weight/Output_0/Data__const" type="Const" version="opset1">
			<data element_type="f32" offset="2159232" shape="48,96,1,1" size="18432"/>
			<output>
				<port id="1" precision="FP32">
					<dim>48</dim>
					<dim>96</dim>
					<dim>1</dim>
					<dim>1</dim>
				</port>
			</output>
		</layer>
		<layer id="202" name="527/WithoutBiases" type="Convolution" version="opset1">
			<data dilations="1,1" output_padding="0,0" pads_begin="0,0" pads_end="0,0" strides="1,1"/>
			<input>
				<port id="0">
					<dim>1</dim>
					<dim>96</dim>
					<dim>26</dim>
					<dim>26</dim>
				</port>
				<port id="1">
					<dim>48</dim>
					<dim>96</dim>
					<dim>1</dim>
					<dim>1</dim>
				</port>
			</input>
			<output>
				<port id="2" precision="FP32">
					<dim>1</dim>
					<dim>48</dim>
					<dim>26</dim>
					<dim>26</dim>
				</port>
			</output>
		</layer>
		<layer id="203" name="527/Dims16840/copy_const" type="Const" version="opset1">
			<data element_type="f32" offset="2177664" shape="1,48,1,1" size="192"/>
			<output>
				<port id="1" precision="FP32">
					<dim>1</dim>
					<dim>48</dim>
					<dim>1</dim>
					<dim>1</dim>
				</port>
			</output>
		</layer>
		<layer id="204" name="527" type="Add" version="opset1">
			<input>
				<port id="0">
					<dim>1</dim>
					<dim>48</dim>
					<dim>26</dim>
					<dim>26</dim>
				</port>
				<port id="1">
					<dim>1</dim>
					<dim>48</dim>
					<dim>1</dim>
					<dim>1</dim>
				</port>
			</input>
			<output>
				<port id="2" precision="FP32">
					<dim>1</dim>
					<dim>48</dim>
					<dim>26</dim>
					<dim>26</dim>
				</port>
			</output>
		</layer>
		<layer id="205" name="493/mean/Fused_Mul_2772827730_const" type="Const" version="opset1">
			<data element_type="f32" offset="2177856" shape="576,96,1,1" size="221184"/>
			<output>
				<port id="1" precision="FP32">
					<dim>576</dim>
					<dim>96</dim>
					<dim>1</dim>
					<dim>1</dim>
				</port>
			</output>
		</layer>
		<layer id="206" name="492" type="Convolution" version="opset1">
			<data dilations="1,1" output_padding="0,0" pads_begin="0,0" pads_end="0,0" strides="1,1"/>
			<input>
				<port id="0">
					<dim>1</dim>
					<dim>96</dim>
					<dim>26</dim>
					<dim>26</dim>
				</port>
				<port id="1">
					<dim>576</dim>
					<dim>96</dim>
					<dim>1</dim>
					<dim>1</dim>
				</port>
			</input>
			<output>
				<port id="2" precision="FP32">
					<dim>1</dim>
					<dim>576</dim>
					<dim>26</dim>
					<dim>26</dim>
				</port>
			</output>
		</layer>
		<layer id="207" name="data_add_2594425949/copy_const" type="Const" version="opset1">
			<data element_type="f32" offset="2399040" shape="1,576,1,1" size="2304"/>
			<output>
				<port id="1" precision="FP32">
					<dim>1</dim>
					<dim>576</dim>
					<dim>1</dim>
					<dim>1</dim>
				</port>
			</output>
		</layer>
		<layer id="208" name="493/variance/Fused_Add_" type="Add" version="opset1">
			<input>
				<port id="0">
					<dim>1</dim>
					<dim>576</dim>
					<dim>26</dim>
					<dim>26</dim>
				</port>
				<port id="1">
					<dim>1</dim>
					<dim>576</dim>
					<dim>1</dim>
					<dim>1</dim>
				</port>
			</input>
			<output>
				<port id="2" precision="FP32">
					<dim>1</dim>
					<dim>576</dim>
					<dim>26</dim>
					<dim>26</dim>
				</port>
			</output>
		</layer>
		<layer id="209" name="494" type="Clamp" version="opset1">
			<data max="6.0" min="0.0"/>
			<input>
				<port id="0">
					<dim>1</dim>
					<dim>576</dim>
					<dim>26</dim>
					<dim>26</dim>
				</port>
			</input>
			<output>
				<port id="1" precision="FP32">
					<dim>1</dim>
					<dim>576</dim>
					<dim>26</dim>
					<dim>26</dim>
				</port>
			</output>
		</layer>
		<layer id="210" name="4777447777_const" type="Const" version="opset1">
			<data element_type="f32" offset="2401344" shape="576,1,1,3,3" size="20736"/>
			<output>
				<port id="1" precision="FP32">
					<dim>576</dim>
					<dim>1</dim>
					<dim>1</dim>
					<dim>3</dim>
					<dim>3</dim>
				</port>
			</output>
		</layer>
		<layer id="211" name="495" type="GroupConvolution" version="opset1">
			<data dilations="1,1" output_padding="0,0" pads_begin="1,1" pads_end="1,1" strides="2,2"/>
			<input>
				<port id="0">
					<dim>1</dim>
					<dim>576</dim>
					<dim>26</dim>
					<dim>26</dim>
				</port>
				<port id="1">
					<dim>576</dim>
					<dim>1</dim>
					<dim>1</dim>
					<dim>3</dim>
					<dim>3</dim>
				</port>
			</input>
			<output>
				<port id="2" precision="FP32">
					<dim>1</dim>
					<dim>576</dim>
					<dim>13</dim>
					<dim>13</dim>
				</port>
			</output>
		</layer>
		<layer id="212" name="data_add_2595225957/copy_const" type="Const" version="opset1">
			<data element_type="f32" offset="2422080" shape="1,576,1,1" size="2304"/>
			<output>
				<port id="1" precision="FP32">
					<dim>1</dim>
					<dim>576</dim>
					<dim>1</dim>
					<dim>1</dim>
				</port>
			</output>
		</layer>
		<layer id="213" name="496/variance/Fused_Add_" type="Add" version="opset1">
			<input>
				<port id="0">
					<dim>1</dim>
					<dim>576</dim>
					<dim>13</dim>
					<dim>13</dim>
				</port>
				<port id="1">
					<dim>1</dim>
					<dim>576</dim>
					<dim>1</dim>
					<dim>1</dim>
				</port>
			</input>
			<output>
				<port id="2" precision="FP32">
					<dim>1</dim>
					<dim>576</dim>
					<dim>13</dim>
					<dim>13</dim>
				</port>
			</output>
		</layer>
		<layer id="214" name="497" type="Clamp" version="opset1">
			<data max="6.0" min="0.0"/>
			<input>
				<port id="0">
					<dim>1</dim>
					<dim>576</dim>
					<dim>13</dim>
					<dim>13</dim>
				</port>
			</input>
			<output>
				<port id="1" precision="FP32">
					<dim>1</dim>
					<dim>576</dim>
					<dim>13</dim>
					<dim>13</dim>
				</port>
			</output>
		</layer>
		<layer id="215" name="499/mean/Fused_Mul_2773627738_const" type="Const" version="opset1">
			<data element_type="f32" offset="2424384" shape="160,576,1,1" size="368640"/>
			<output>
				<port id="1" precision="FP32">
					<dim>160</dim>
					<dim>576</dim>
					<dim>1</dim>
					<dim>1</dim>
				</port>
			</output>
		</layer>
		<layer id="216" name="498" type="Convolution" version="opset1">
			<data dilations="1,1" output_padding="0,0" pads_begin="0,0" pads_end="0,0" strides="1,1"/>
			<input>
				<port id="0">
					<dim>1</dim>
					<dim>576</dim>
					<dim>13</dim>
					<dim>13</dim>
				</port>
				<port id="1">
					<dim>160</dim>
					<dim>576</dim>
					<dim>1</dim>
					<dim>1</dim>
				</port>
			</input>
			<output>
				<port id="2" precision="FP32">
					<dim>1</dim>
					<dim>160</dim>
					<dim>13</dim>
					<dim>13</dim>
				</port>
			</output>
		</layer>
		<layer id="217" name="data_add_2596025965/copy_const" type="Const" version="opset1">
			<data element_type="f32" offset="2793024" shape="1,160,1,1" size="640"/>
			<output>
				<port id="1" precision="FP32">
					<dim>1</dim>
					<dim>160</dim>
					<dim>1</dim>
					<dim>1</dim>
				</port>
			</output>
		</layer>
		<layer id="218" name="499/variance/Fused_Add_" type="Add" version="opset1">
			<input>
				<port id="0">
					<dim>1</dim>
					<dim>160</dim>
					<dim>13</dim>
					<dim>13</dim>
				</port>
				<port id="1">
					<dim>1</dim>
					<dim>160</dim>
					<dim>1</dim>
					<dim>1</dim>
				</port>
			</input>
			<output>
				<port id="2" precision="FP32">
					<dim>1</dim>
					<dim>160</dim>
					<dim>13</dim>
					<dim>13</dim>
				</port>
			</output>
		</layer>
		<layer id="219" name="501/mean/Fused_Mul_2774027742_const" type="Const" version="opset1">
			<data element_type="f32" offset="2793664" shape="960,160,1,1" size="614400"/>
			<output>
				<port id="1" precision="FP32">
					<dim>960</dim>
					<dim>160</dim>
					<dim>1</dim>
					<dim>1</dim>
				</port>
			</output>
		</layer>
		<layer id="220" name="500" type="Convolution" version="opset1">
			<data dilations="1,1" output_padding="0,0" pads_begin="0,0" pads_end="0,0" strides="1,1"/>
			<input>
				<port id="0">
					<dim>1</dim>
					<dim>160</dim>
					<dim>13</dim>
					<dim>13</dim>
				</port>
				<port id="1">
					<dim>960</dim>
					<dim>160</dim>
					<dim>1</dim>
					<dim>1</dim>
				</port>
			</input>
			<output>
				<port id="2" precision="FP32">
					<dim>1</dim>
					<dim>960</dim>
					<dim>13</dim>
					<dim>13</dim>
				</port>
			</output>
		</layer>
		<layer id="221" name="data_add_2596825973/copy_const" type="Const" version="opset1">
			<data element_type="f32" offset="3408064" shape="1,960,1,1" size="3840"/>
			<output>
				<port id="1" precision="FP32">
					<dim>1</dim>
					<dim>960</dim>
					<dim>1</dim>
					<dim>1</dim>
				</port>
			</output>
		</layer>
		<layer id="222" name="501/variance/Fused_Add_" type="Add" version="opset1">
			<input>
				<port id="0">
					<dim>1</dim>
					<dim>960</dim>
					<dim>13</dim>
					<dim>13</dim>
				</port>
				<port id="1">
					<dim>1</dim>
					<dim>960</dim>
					<dim>1</dim>
					<dim>1</dim>
				</port>
			</input>
			<output>
				<port id="2" precision="FP32">
					<dim>1</dim>
					<dim>960</dim>
					<dim>13</dim>
					<dim>13</dim>
				</port>
			</output>
		</layer>
		<layer id="223" name="502" type="Clamp" version="opset1">
			<data max="6.0" min="0.0"/>
			<input>
				<port id="0">
					<dim>1</dim>
					<dim>960</dim>
					<dim>13</dim>
					<dim>13</dim>
				</port>
			</input>
			<output>
				<port id="1" precision="FP32">
					<dim>1</dim>
					<dim>960</dim>
					<dim>13</dim>
					<dim>13</dim>
				</port>
			</output>
		</layer>
		<layer id="224" name="4776247765_const" type="Const" version="opset1">
			<data element_type="f32" offset="3411904" shape="960,1,1,3,3" size="34560"/>
			<output>
				<port id="1" precision="FP32">
					<dim>960</dim>
					<dim>1</dim>
					<dim>1</dim>
					<dim>3</dim>
					<dim>3</dim>
				</port>
			</output>
		</layer>
		<layer id="225" name="503" type="GroupConvolution" version="opset1">
			<data dilations="1,1" output_padding="0,0" pads_begin="1,1" pads_end="1,1" strides="1,1"/>
			<input>
				<port id="0">
					<dim>1</dim>
					<dim>960</dim>
					<dim>13</dim>
					<dim>13</dim>
				</port>
				<port id="1">
					<dim>960</dim>
					<dim>1</dim>
					<dim>1</dim>
					<dim>3</dim>
					<dim>3</dim>
				</port>
			</input>
			<output>
				<port id="2" precision="FP32">
					<dim>1</dim>
					<dim>960</dim>
					<dim>13</dim>
					<dim>13</dim>
				</port>
			</output>
		</layer>
		<layer id="226" name="data_add_2597625981/copy_const" type="Const" version="opset1">
			<data element_type="f32" offset="3446464" shape="1,960,1,1" size="3840"/>
			<output>
				<port id="1" precision="FP32">
					<dim>1</dim>
					<dim>960</dim>
					<dim>1</dim>
					<dim>1</dim>
				</port>
			</output>
		</layer>
		<layer id="227" name="504/variance/Fused_Add_" type="Add" version="opset1">
			<input>
				<port id="0">
					<dim>1</dim>
					<dim>960</dim>
					<dim>13</dim>
					<dim>13</dim>
				</port>
				<port id="1">
					<dim>1</dim>
					<dim>960</dim>
					<dim>1</dim>
					<dim>1</dim>
				</port>
			</input>
			<output>
				<port id="2" precision="FP32">
					<dim>1</dim>
					<dim>960</dim>
					<dim>13</dim>
					<dim>13</dim>
				</port>
			</output>
		</layer>
		<layer id="228" name="505" type="Clamp" version="opset1">
			<data max="6.0" min="0.0"/>
			<input>
				<port id="0">
					<dim>1</dim>
					<dim>960</dim>
					<dim>13</dim>
					<dim>13</dim>
				</port>
			</input>
			<output>
				<port id="1" precision="FP32">
					<dim>1</dim>
					<dim>960</dim>
					<dim>13</dim>
					<dim>13</dim>
				</port>
			</output>
		</layer>
		<layer id="229" name="507/mean/Fused_Mul_2774827750_const" type="Const" version="opset1">
			<data element_type="f32" offset="3450304" shape="160,960,1,1" size="614400"/>
			<output>
				<port id="1" precision="FP32">
					<dim>160</dim>
					<dim>960</dim>
					<dim>1</dim>
					<dim>1</dim>
				</port>
			</output>
		</layer>
		<layer id="230" name="506" type="Convolution" version="opset1">
			<data dilations="1,1" output_padding="0,0" pads_begin="0,0" pads_end="0,0" strides="1,1"/>
			<input>
				<port id="0">
					<dim>1</dim>
					<dim>960</dim>
					<dim>13</dim>
					<dim>13</dim>
				</port>
				<port id="1">
					<dim>160</dim>
					<dim>960</dim>
					<dim>1</dim>
					<dim>1</dim>
				</port>
			</input>
			<output>
				<port id="2" precision="FP32">
					<dim>1</dim>
					<dim>160</dim>
					<dim>13</dim>
					<dim>13</dim>
				</port>
			</output>
		</layer>
		<layer id="231" name="data_add_2598425989/copy_const" type="Const" version="opset1">
			<data element_type="f32" offset="4064704" shape="1,160,1,1" size="640"/>
			<output>
				<port id="1" precision="FP32">
					<dim>1</dim>
					<dim>160</dim>
					<dim>1</dim>
					<dim>1</dim>
				</port>
			</output>
		</layer>
		<layer id="232" name="507/variance/Fused_Add_" type="Add" version="opset1">
			<input>
				<port id="0">
					<dim>1</dim>
					<dim>160</dim>
					<dim>13</dim>
					<dim>13</dim>
				</port>
				<port id="1">
					<dim>1</dim>
					<dim>160</dim>
					<dim>1</dim>
					<dim>1</dim>
				</port>
			</input>
			<output>
				<port id="2" precision="FP32">
					<dim>1</dim>
					<dim>160</dim>
					<dim>13</dim>
					<dim>13</dim>
				</port>
			</output>
		</layer>
		<layer id="233" name="508" type="Add" version="opset1">
			<input>
				<port id="0">
					<dim>1</dim>
					<dim>160</dim>
					<dim>13</dim>
					<dim>13</dim>
				</port>
				<port id="1">
					<dim>1</dim>
					<dim>160</dim>
					<dim>13</dim>
					<dim>13</dim>
				</port>
			</input>
			<output>
				<port id="2" precision="FP32">
					<dim>1</dim>
					<dim>160</dim>
					<dim>13</dim>
					<dim>13</dim>
				</port>
			</output>
		</layer>
		<layer id="234" name="510/mean/Fused_Mul_2775227754_const" type="Const" version="opset1">
			<data element_type="f32" offset="4065344" shape="960,160,1,1" size="614400"/>
			<output>
				<port id="1" precision="FP32">
					<dim>960</dim>
					<dim>160</dim>
					<dim>1</dim>
					<dim>1</dim>
				</port>
			</output>
		</layer>
		<layer id="235" name="509" type="Convolution" version="opset1">
			<data dilations="1,1" output_padding="0,0" pads_begin="0,0" pads_end="0,0" strides="1,1"/>
			<input>
				<port id="0">
					<dim>1</dim>
					<dim>160</dim>
					<dim>13</dim>
					<dim>13</dim>
				</port>
				<port id="1">
					<dim>960</dim>
					<dim>160</dim>
					<dim>1</dim>
					<dim>1</dim>
				</port>
			</input>
			<output>
				<port id="2" precision="FP32">
					<dim>1</dim>
					<dim>960</dim>
					<dim>13</dim>
					<dim>13</dim>
				</port>
			</output>
		</layer>
		<layer id="236" name="data_add_2599225997/copy_const" type="Const" version="opset1">
			<data element_type="f32" offset="4679744" shape="1,960,1,1" size="3840"/>
			<output>
				<port id="1" precision="FP32">
					<dim>1</dim>
					<dim>960</dim>
					<dim>1</dim>
					<dim>1</dim>
				</port>
			</output>
		</layer>
		<layer id="237" name="510/variance/Fused_Add_" type="Add" version="opset1">
			<input>
				<port id="0">
					<dim>1</dim>
					<dim>960</dim>
					<dim>13</dim>
					<dim>13</dim>
				</port>
				<port id="1">
					<dim>1</dim>
					<dim>960</dim>
					<dim>1</dim>
					<dim>1</dim>
				</port>
			</input>
			<output>
				<port id="2" precision="FP32">
					<dim>1</dim>
					<dim>960</dim>
					<dim>13</dim>
					<dim>13</dim>
				</port>
			</output>
		</layer>
		<layer id="238" name="511" type="Clamp" version="opset1">
			<data max="6.0" min="0.0"/>
			<input>
				<port id="0">
					<dim>1</dim>
					<dim>960</dim>
					<dim>13</dim>
					<dim>13</dim>
				</port>
			</input>
			<output>
				<port id="1" precision="FP32">
					<dim>1</dim>
					<dim>960</dim>
					<dim>13</dim>
					<dim>13</dim>
				</port>
			</output>
		</layer>
		<layer id="239" name="4780647809_const" type="Const" version="opset1">
			<data element_type="f32" offset="4683584" shape="960,1,1,3,3" size="34560"/>
			<output>
				<port id="1" precision="FP32">
					<dim>960</dim>
					<dim>1</dim>
					<dim>1</dim>
					<dim>3</dim>
					<dim>3</dim>
				</port>
			</output>
		</layer>
		<layer id="240" name="512" type="GroupConvolution" version="opset1">
			<data dilations="1,1" output_padding="0,0" pads_begin="1,1" pads_end="1,1" strides="1,1"/>
			<input>
				<port id="0">
					<dim>1</dim>
					<dim>960</dim>
					<dim>13</dim>
					<dim>13</dim>
				</port>
				<port id="1">
					<dim>960</dim>
					<dim>1</dim>
					<dim>1</dim>
					<dim>3</dim>
					<dim>3</dim>
				</port>
			</input>
			<output>
				<port id="2" precision="FP32">
					<dim>1</dim>
					<dim>960</dim>
					<dim>13</dim>
					<dim>13</dim>
				</port>
			</output>
		</layer>
		<layer id="241" name="data_add_2600026005/copy_const" type="Const" version="opset1">
			<data element_type="f32" offset="4718144" shape="1,960,1,1" size="3840"/>
			<output>
				<port id="1" precision="FP32">
					<dim>1</dim>
					<dim>960</dim>
					<dim>1</dim>
					<dim>1</dim>
				</port>
			</output>
		</layer>
		<layer id="242" name="513/variance/Fused_Add_" type="Add" version="opset1">
			<input>
				<port id="0">
					<dim>1</dim>
					<dim>960</dim>
					<dim>13</dim>
					<dim>13</dim>
				</port>
				<port id="1">
					<dim>1</dim>
					<dim>960</dim>
					<dim>1</dim>
					<dim>1</dim>
				</port>
			</input>
			<output>
				<port id="2" precision="FP32">
					<dim>1</dim>
					<dim>960</dim>
					<dim>13</dim>
					<dim>13</dim>
				</port>
			</output>
		</layer>
		<layer id="243" name="514" type="Clamp" version="opset1">
			<data max="6.0" min="0.0"/>
			<input>
				<port id="0">
					<dim>1</dim>
					<dim>960</dim>
					<dim>13</dim>
					<dim>13</dim>
				</port>
			</input>
			<output>
				<port id="1" precision="FP32">
					<dim>1</dim>
					<dim>960</dim>
					<dim>13</dim>
					<dim>13</dim>
				</port>
			</output>
		</layer>
		<layer id="244" name="516/mean/Fused_Mul_2776027762_const" type="Const" version="opset1">
			<data element_type="f32" offset="4721984" shape="160,960,1,1" size="614400"/>
			<output>
				<port id="1" precision="FP32">
					<dim>160</dim>
					<dim>960</dim>
					<dim>1</dim>
					<dim>1</dim>
				</port>
			</output>
		</layer>
		<layer id="245" name="515" type="Convolution" version="opset1">
			<data dilations="1,1" output_padding="0,0" pads_begin="0,0" pads_end="0,0" strides="1,1"/>
			<input>
				<port id="0">
					<dim>1</dim>
					<dim>960</dim>
					<dim>13</dim>
					<dim>13</dim>
				</port>
				<port id="1">
					<dim>160</dim>
					<dim>960</dim>
					<dim>1</dim>
					<dim>1</dim>
				</port>
			</input>
			<output>
				<port id="2" precision="FP32">
					<dim>1</dim>
					<dim>160</dim>
					<dim>13</dim>
					<dim>13</dim>
				</port>
			</output>
		</layer>
		<layer id="246" name="data_add_2600826013/copy_const" type="Const" version="opset1">
			<data element_type="f32" offset="5336384" shape="1,160,1,1" size="640"/>
			<output>
				<port id="1" precision="FP32">
					<dim>1</dim>
					<dim>160</dim>
					<dim>1</dim>
					<dim>1</dim>
				</port>
			</output>
		</layer>
		<layer id="247" name="516/variance/Fused_Add_" type="Add" version="opset1">
			<input>
				<port id="0">
					<dim>1</dim>
					<dim>160</dim>
					<dim>13</dim>
					<dim>13</dim>
				</port>
				<port id="1">
					<dim>1</dim>
					<dim>160</dim>
					<dim>1</dim>
					<dim>1</dim>
				</port>
			</input>
			<output>
				<port id="2" precision="FP32">
					<dim>1</dim>
					<dim>160</dim>
					<dim>13</dim>
					<dim>13</dim>
				</port>
			</output>
		</layer>
		<layer id="248" name="517" type="Add" version="opset1">
			<input>
				<port id="0">
					<dim>1</dim>
					<dim>160</dim>
					<dim>13</dim>
					<dim>13</dim>
				</port>
				<port id="1">
					<dim>1</dim>
					<dim>160</dim>
					<dim>13</dim>
					<dim>13</dim>
				</port>
			</input>
			<output>
				<port id="2" precision="FP32">
					<dim>1</dim>
					<dim>160</dim>
					<dim>13</dim>
					<dim>13</dim>
				</port>
			</output>
		</layer>
		<layer id="249" name="519/mean/Fused_Mul_2776427766_const" type="Const" version="opset1">
			<data element_type="f32" offset="5337024" shape="960,160,1,1" size="614400"/>
			<output>
				<port id="1" precision="FP32">
					<dim>960</dim>
					<dim>160</dim>
					<dim>1</dim>
					<dim>1</dim>
				</port>
			</output>
		</layer>
		<layer id="250" name="518" type="Convolution" version="opset1">
			<data dilations="1,1" output_padding="0,0" pads_begin="0,0" pads_end="0,0" strides="1,1"/>
			<input>
				<port id="0">
					<dim>1</dim>
					<dim>160</dim>
					<dim>13</dim>
					<dim>13</dim>
				</port>
				<port id="1">
					<dim>960</dim>
					<dim>160</dim>
					<dim>1</dim>
					<dim>1</dim>
				</port>
			</input>
			<output>
				<port id="2" precision="FP32">
					<dim>1</dim>
					<dim>960</dim>
					<dim>13</dim>
					<dim>13</dim>
				</port>
			</output>
		</layer>
		<layer id="251" name="data_add_2601626021/copy_const" type="Const" version="opset1">
			<data element_type="f32" offset="5951424" shape="1,960,1,1" size="3840"/>
			<output>
				<port id="1" precision="FP32">
					<dim>1</dim>
					<dim>960</dim>
					<dim>1</dim>
					<dim>1</dim>
				</port>
			</output>
		</layer>
		<layer id="252" name="519/variance/Fused_Add_" type="Add" version="opset1">
			<input>
				<port id="0">
					<dim>1</dim>
					<dim>960</dim>
					<dim>13</dim>
					<dim>13</dim>
				</port>
				<port id="1">
					<dim>1</dim>
					<dim>960</dim>
					<dim>1</dim>
					<dim>1</dim>
				</port>
			</input>
			<output>
				<port id="2" precision="FP32">
					<dim>1</dim>
					<dim>960</dim>
					<dim>13</dim>
					<dim>13</dim>
				</port>
			</output>
		</layer>
		<layer id="253" name="520" type="Clamp" version="opset1">
			<data max="6.0" min="0.0"/>
			<input>
				<port id="0">
					<dim>1</dim>
					<dim>960</dim>
					<dim>13</dim>
					<dim>13</dim>
				</port>
			</input>
			<output>
				<port id="1" precision="FP32">
					<dim>1</dim>
					<dim>960</dim>
					<dim>13</dim>
					<dim>13</dim>
				</port>
			</output>
		</layer>
		<layer id="254" name="4781447817_const" type="Const" version="opset1">
			<data element_type="f32" offset="5955264" shape="960,1,1,3,3" size="34560"/>
			<output>
				<port id="1" precision="FP32">
					<dim>960</dim>
					<dim>1</dim>
					<dim>1</dim>
					<dim>3</dim>
					<dim>3</dim>
				</port>
			</output>
		</layer>
		<layer id="255" name="521" type="GroupConvolution" version="opset1">
			<data dilations="1,1" output_padding="0,0" pads_begin="1,1" pads_end="1,1" strides="1,1"/>
			<input>
				<port id="0">
					<dim>1</dim>
					<dim>960</dim>
					<dim>13</dim>
					<dim>13</dim>
				</port>
				<port id="1">
					<dim>960</dim>
					<dim>1</dim>
					<dim>1</dim>
					<dim>3</dim>
					<dim>3</dim>
				</port>
			</input>
			<output>
				<port id="2" precision="FP32">
					<dim>1</dim>
					<dim>960</dim>
					<dim>13</dim>
					<dim>13</dim>
				</port>
			</output>
		</layer>
		<layer id="256" name="data_add_2602426029/copy_const" type="Const" version="opset1">
			<data element_type="f32" offset="5989824" shape="1,960,1,1" size="3840"/>
			<output>
				<port id="1" precision="FP32">
					<dim>1</dim>
					<dim>960</dim>
					<dim>1</dim>
					<dim>1</dim>
				</port>
			</output>
		</layer>
		<layer id="257" name="522/variance/Fused_Add_" type="Add" version="opset1">
			<input>
				<port id="0">
					<dim>1</dim>
					<dim>960</dim>
					<dim>13</dim>
					<dim>13</dim>
				</port>
				<port id="1">
					<dim>1</dim>
					<dim>960</dim>
					<dim>1</dim>
					<dim>1</dim>
				</port>
			</input>
			<output>
				<port id="2" precision="FP32">
					<dim>1</dim>
					<dim>960</dim>
					<dim>13</dim>
					<dim>13</dim>
				</port>
			</output>
		</layer>
		<layer id="258" name="523" type="Clamp" version="opset1">
			<data max="6.0" min="0.0"/>
			<input>
				<port id="0">
					<dim>1</dim>
					<dim>960</dim>
					<dim>13</dim>
					<dim>13</dim>
				</port>
			</input>
			<output>
				<port id="1" precision="FP32">
					<dim>1</dim>
					<dim>960</dim>
					<dim>13</dim>
					<dim>13</dim>
				</port>
			</output>
		</layer>
		<layer id="259" name="525/mean/Fused_Mul_2777227774_const" type="Const" version="opset1">
			<data element_type="f32" offset="5993664" shape="320,960,1,1" size="1228800"/>
			<output>
				<port id="1" precision="FP32">
					<dim>320</dim>
					<dim>960</dim>
					<dim>1</dim>
					<dim>1</dim>
				</port>
			</output>
		</layer>
		<layer id="260" name="524" type="Convolution" version="opset1">
			<data dilations="1,1" output_padding="0,0" pads_begin="0,0" pads_end="0,0" strides="1,1"/>
			<input>
				<port id="0">
					<dim>1</dim>
					<dim>960</dim>
					<dim>13</dim>
					<dim>13</dim>
				</port>
				<port id="1">
					<dim>320</dim>
					<dim>960</dim>
					<dim>1</dim>
					<dim>1</dim>
				</port>
			</input>
			<output>
				<port id="2" precision="FP32">
					<dim>1</dim>
					<dim>320</dim>
					<dim>13</dim>
					<dim>13</dim>
				</port>
			</output>
		</layer>
		<layer id="261" name="data_add_2603226037/copy_const" type="Const" version="opset1">
			<data element_type="f32" offset="7222464" shape="1,320,1,1" size="1280"/>
			<output>
				<port id="1" precision="FP32">
					<dim>1</dim>
					<dim>320</dim>
					<dim>1</dim>
					<dim>1</dim>
				</port>
			</output>
		</layer>
		<layer id="262" name="525/variance/Fused_Add_" type="Add" version="opset1">
			<input>
				<port id="0">
					<dim>1</dim>
					<dim>320</dim>
					<dim>13</dim>
					<dim>13</dim>
				</port>
				<port id="1">
					<dim>1</dim>
					<dim>320</dim>
					<dim>1</dim>
					<dim>1</dim>
				</port>
			</input>
			<output>
				<port id="2" precision="FP32">
					<dim>1</dim>
					<dim>320</dim>
					<dim>13</dim>
					<dim>13</dim>
				</port>
			</output>
		</layer>
		<layer id="263" name="onnx_initializer_node_neck.lateral_convs.2.conv.weight/Output_0/Data__const" type="Const" version="opset1">
			<data element_type="f32" offset="7223744" shape="48,320,1,1" size="61440"/>
			<output>
				<port id="1" precision="FP32">
					<dim>48</dim>
					<dim>320</dim>
					<dim>1</dim>
					<dim>1</dim>
				</port>
			</output>
		</layer>
		<layer id="264" name="528/WithoutBiases" type="Convolution" version="opset1">
			<data dilations="1,1" output_padding="0,0" pads_begin="0,0" pads_end="0,0" strides="1,1"/>
			<input>
				<port id="0">
					<dim>1</dim>
					<dim>320</dim>
					<dim>13</dim>
					<dim>13</dim>
				</port>
				<port id="1">
					<dim>48</dim>
					<dim>320</dim>
					<dim>1</dim>
					<dim>1</dim>
				</port>
			</input>
			<output>
				<port id="2" precision="FP32">
					<dim>1</dim>
					<dim>48</dim>
					<dim>13</dim>
					<dim>13</dim>
				</port>
			</output>
		</layer>
		<layer id="265" name="528/Dims16750/copy_const" type="Const" version="opset1">
			<data element_type="f32" offset="7285184" shape="1,48,1,1" size="192"/>
			<output>
				<port id="1" precision="FP32">
					<dim>1</dim>
					<dim>48</dim>
					<dim>1</dim>
					<dim>1</dim>
				</port>
			</output>
		</layer>
		<layer id="266" name="528" type="Add" version="opset1">
			<input>
				<port id="0">
					<dim>1</dim>
					<dim>48</dim>
					<dim>13</dim>
					<dim>13</dim>
				</port>
				<port id="1">
					<dim>1</dim>
					<dim>48</dim>
					<dim>1</dim>
					<dim>1</dim>
				</port>
			</input>
			<output>
				<port id="2" precision="FP32">
					<dim>1</dim>
					<dim>48</dim>
					<dim>13</dim>
					<dim>13</dim>
				</port>
			</output>
		</layer>
		<layer id="267" name="Interpolate/556/Cast_149005_const" type="Const" version="opset1">
			<data element_type="i64" offset="7285376" shape="2" size="16"/>
			<output>
				<port id="1" precision="I64">
					<dim>2</dim>
				</port>
			</output>
		</layer>
		<layer id="268" name="Interpolate/556" type="Interpolate" version="opset1">
			<data align_corners="0" antialias="0" axes="2,3" mode="nearest" pads_begin="0" pads_end="0"/>
			<input>
				<port id="0">
					<dim>1</dim>
					<dim>48</dim>
					<dim>13</dim>
					<dim>13</dim>
				</port>
				<port id="1">
					<dim>2</dim>
				</port>
			</input>
			<output>
				<port id="2" precision="FP32">
					<dim>1</dim>
					<dim>48</dim>
					<dim>26</dim>
					<dim>26</dim>
				</port>
			</output>
		</layer>
		<layer id="269" name="557" type="Add" version="opset1">
			<input>
				<port id="0">
					<dim>1</dim>
					<dim>48</dim>
					<dim>26</dim>
					<dim>26</dim>
				</port>
				<port id="1">
					<dim>1</dim>
					<dim>48</dim>
					<dim>26</dim>
					<dim>26</dim>
				</port>
			</input>
			<output>
				<port id="2" precision="FP32">
					<dim>1</dim>
					<dim>48</dim>
					<dim>26</dim>
					<dim>26</dim>
				</port>
			</output>
		</layer>
		<layer id="270" name="Interpolate/585/Cast_149117_const" type="Const" version="opset1">
			<data element_type="i64" offset="7285392" shape="2" size="16"/>
			<output>
				<port id="1" precision="I64">
					<dim>2</dim>
				</port>
			</output>
		</layer>
		<layer id="271" name="Interpolate/585" type="Interpolate" version="opset1">
			<data align_corners="0" antialias="0" axes="2,3" mode="nearest" pads_begin="0" pads_end="0"/>
			<input>
				<port id="0">
					<dim>1</dim>
					<dim>48</dim>
					<dim>26</dim>
					<dim>26</dim>
				</port>
				<port id="1">
					<dim>2</dim>
				</port>
			</input>
			<output>
				<port id="2" precision="FP32">
					<dim>1</dim>
					<dim>48</dim>
					<dim>52</dim>
					<dim>52</dim>
				</port>
			</output>
		</layer>
		<layer id="272" name="586" type="Add" version="opset1">
			<input>
				<port id="0">
					<dim>1</dim>
					<dim>48</dim>
					<dim>52</dim>
					<dim>52</dim>
				</port>
				<port id="1">
					<dim>1</dim>
					<dim>48</dim>
					<dim>52</dim>
					<dim>52</dim>
				</port>
			</input>
			<output>
				<port id="2" precision="FP32">
					<dim>1</dim>
					<dim>48</dim>
					<dim>52</dim>
					<dim>52</dim>
				</port>
			</output>
		</layer>
		<layer id="273" name="onnx_initializer_node_neck.fpn_convs.0.conv.weight/Output_0/Data__const" type="Const" version="opset1">
			<data element_type="f32" offset="7285408" shape="48,48,3,3" size="82944"/>
			<output>
				<port id="1" precision="FP32">
					<dim>48</dim>
					<dim>48</dim>
					<dim>3</dim>
					<dim>3</dim>
				</port>
			</output>
		</layer>
		<layer id="274" name="587/WithoutBiases" type="Convolution" version="opset1">
			<data dilations="1,1" output_padding="0,0" pads_begin="1,1" pads_end="1,1" strides="1,1"/>
			<input>
				<port id="0">
					<dim>1</dim>
					<dim>48</dim>
					<dim>52</dim>
					<dim>52</dim>
				</port>
				<port id="1">
					<dim>48</dim>
					<dim>48</dim>
					<dim>3</dim>
					<dim>3</dim>
				</port>
			</input>
			<output>
				<port id="2" precision="FP32">
					<dim>1</dim>
					<dim>48</dim>
					<dim>52</dim>
					<dim>52</dim>
				</port>
			</output>
		</layer>
		<layer id="275" name="587/Dims16774/copy_const" type="Const" version="opset1">
			<data element_type="f32" offset="7368352" shape="1,48,1,1" size="192"/>
			<output>
				<port id="1" precision="FP32">
					<dim>1</dim>
					<dim>48</dim>
					<dim>1</dim>
					<dim>1</dim>
				</port>
			</output>
		</layer>
		<layer id="276" name="587" type="Add" version="opset1">
			<input>
				<port id="0">
					<dim>1</dim>
					<dim>48</dim>
					<dim>52</dim>
					<dim>52</dim>
				</port>
				<port id="1">
					<dim>1</dim>
					<dim>48</dim>
					<dim>1</dim>
					<dim>1</dim>
				</port>
			</input>
			<output>
				<port id="2" precision="FP32">
					<dim>1</dim>
					<dim>48</dim>
					<dim>52</dim>
					<dim>52</dim>
				</port>
			</output>
		</layer>
		<layer id="277" name="Copy_onnx_initializer_node_bbox_head.reg_convs.0.conv.weight/Output_0/Data__const" type="Const" version="opset1">
			<data element_type="f32" offset="7368544" shape="32,48,3,3" size="55296"/>
			<output>
				<port id="1" precision="FP32">
					<dim>32</dim>
					<dim>48</dim>
					<dim>3</dim>
					<dim>3</dim>
				</port>
			</output>
		</layer>
		<layer id="278" name="607" type="Convolution" version="opset1">
			<data dilations="1,1" output_padding="0,0" pads_begin="1,1" pads_end="1,1" strides="1,1"/>
			<input>
				<port id="0">
					<dim>1</dim>
					<dim>48</dim>
					<dim>52</dim>
					<dim>52</dim>
				</port>
				<port id="1">
					<dim>32</dim>
					<dim>48</dim>
					<dim>3</dim>
					<dim>3</dim>
				</port>
			</input>
			<output>
				<port id="2" precision="FP32">
					<dim>1</dim>
					<dim>32</dim>
					<dim>52</dim>
					<dim>52</dim>
				</port>
			</output>
		</layer>
		<layer id="279" name="608/Ins_Norm/MVN_" type="MVN" version="opset1">
			<data across_channels="0" eps="9.999999747378752e-06" normalize_variance="1"/>
			<input>
				<port id="0">
					<dim>1</dim>
					<dim>32</dim>
					<dim>52</dim>
					<dim>52</dim>
				</port>
			</input>
			<output>
				<port id="1" precision="FP32">
					<dim>1</dim>
					<dim>32</dim>
					<dim>52</dim>
					<dim>52</dim>
				</port>
			</output>
		</layer>
		<layer id="280" name="Copy_onnx_initializer_node_bbox_head.reg_convs.0.gn.weight/Output_0/Data_6297/copy/copy_const" type="Const" version="opset1">
			<data element_type="f32" offset="7423840" shape="1,32,1,1" size="128"/>
			<output>
				<port id="1" precision="FP32">
					<dim>1</dim>
					<dim>32</dim>
					<dim>1</dim>
					<dim>1</dim>
				</port>
			</output>
		</layer>
		<layer id="281" name="608/Ins_Norm/mul_" type="Multiply" version="opset1">
			<input>
				<port id="0">
					<dim>1</dim>
					<dim>32</dim>
					<dim>52</dim>
					<dim>52</dim>
				</port>
				<port id="1">
					<dim>1</dim>
					<dim>32</dim>
					<dim>1</dim>
					<dim>1</dim>
				</port>
			</input>
			<output>
				<port id="2" precision="FP32">
					<dim>1</dim>
					<dim>32</dim>
					<dim>52</dim>
					<dim>52</dim>
				</port>
			</output>
		</layer>
		<layer id="282" name="Copy_onnx_initializer_node_bbox_head.reg_convs.0.gn.bias/Output_0/Data_6292/copy/copy_const" type="Const" version="opset1">
			<data element_type="f32" offset="7423968" shape="1,32,1,1" size="128"/>
			<output>
				<port id="1" precision="FP32">
					<dim>1</dim>
					<dim>32</dim>
					<dim>1</dim>
					<dim>1</dim>
				</port>
			</output>
		</layer>
		<layer id="283" name="608/Ins_Norm/add_" type="Add" version="opset1">
			<input>
				<port id="0">
					<dim>1</dim>
					<dim>32</dim>
					<dim>52</dim>
					<dim>52</dim>
				</port>
				<port id="1">
					<dim>1</dim>
					<dim>32</dim>
					<dim>1</dim>
					<dim>1</dim>
				</port>
			</input>
			<output>
				<port id="2" precision="FP32">
					<dim>1</dim>
					<dim>32</dim>
					<dim>52</dim>
					<dim>52</dim>
				</port>
			</output>
		</layer>
		<layer id="284" name="609" type="ReLU" version="opset1">
			<input>
				<port id="0">
					<dim>1</dim>
					<dim>32</dim>
					<dim>52</dim>
					<dim>52</dim>
				</port>
			</input>
			<output>
				<port id="1" precision="FP32">
					<dim>1</dim>
					<dim>32</dim>
					<dim>52</dim>
					<dim>52</dim>
				</port>
			</output>
		</layer>
		<layer id="285" name="Copy_onnx_initializer_node_bbox_head.reg_convs.1.conv.weight/Output_0/Data__const" type="Const" version="opset1">
			<data element_type="f32" offset="7424096" shape="32,32,3,3" size="36864"/>
			<output>
				<port id="1" precision="FP32">
					<dim>32</dim>
					<dim>32</dim>
					<dim>3</dim>
					<dim>3</dim>
				</port>
			</output>
		</layer>
		<layer id="286" name="610" type="Convolution" version="opset1">
			<data dilations="1,1" output_padding="0,0" pads_begin="1,1" pads_end="1,1" strides="1,1"/>
			<input>
				<port id="0">
					<dim>1</dim>
					<dim>32</dim>
					<dim>52</dim>
					<dim>52</dim>
				</port>
				<port id="1">
					<dim>32</dim>
					<dim>32</dim>
					<dim>3</dim>
					<dim>3</dim>
				</port>
			</input>
			<output>
				<port id="2" precision="FP32">
					<dim>1</dim>
					<dim>32</dim>
					<dim>52</dim>
					<dim>52</dim>
				</port>
			</output>
		</layer>
		<layer id="287" name="611/Ins_Norm/MVN_" type="MVN" version="opset1">
			<data across_channels="0" eps="9.999999747378752e-06" normalize_variance="1"/>
			<input>
				<port id="0">
					<dim>1</dim>
					<dim>32</dim>
					<dim>52</dim>
					<dim>52</dim>
				</port>
			</input>
			<output>
				<port id="1" precision="FP32">
					<dim>1</dim>
					<dim>32</dim>
					<dim>52</dim>
					<dim>52</dim>
				</port>
			</output>
		</layer>
		<layer id="288" name="Copy_onnx_initializer_node_bbox_head.reg_convs.1.gn.weight/Output_0/Data_6314/copy/copy_const" type="Const" version="opset1">
			<data element_type="f32" offset="7460960" shape="1,32,1,1" size="128"/>
			<output>
				<port id="1" precision="FP32">
					<dim>1</dim>
					<dim>32</dim>
					<dim>1</dim>
					<dim>1</dim>
				</port>
			</output>
		</layer>
		<layer id="289" name="611/Ins_Norm/mul_" type="Multiply" version="opset1">
			<input>
				<port id="0">
					<dim>1</dim>
					<dim>32</dim>
					<dim>52</dim>
					<dim>52</dim>
				</port>
				<port id="1">
					<dim>1</dim>
					<dim>32</dim>
					<dim>1</dim>
					<dim>1</dim>
				</port>
			</input>
			<output>
				<port id="2" precision="FP32">
					<dim>1</dim>
					<dim>32</dim>
					<dim>52</dim>
					<dim>52</dim>
				</port>
			</output>
		</layer>
		<layer id="290" name="Copy_onnx_initializer_node_bbox_head.reg_convs.1.gn.bias/Output_0/Data_6309/copy/copy_const" type="Const" version="opset1">
			<data element_type="f32" offset="7461088" shape="1,32,1,1" size="128"/>
			<output>
				<port id="1" precision="FP32">
					<dim>1</dim>
					<dim>32</dim>
					<dim>1</dim>
					<dim>1</dim>
				</port>
			</output>
		</layer>
		<layer id="291" name="611/Ins_Norm/add_" type="Add" version="opset1">
			<input>
				<port id="0">
					<dim>1</dim>
					<dim>32</dim>
					<dim>52</dim>
					<dim>52</dim>
				</port>
				<port id="1">
					<dim>1</dim>
					<dim>32</dim>
					<dim>1</dim>
					<dim>1</dim>
				</port>
			</input>
			<output>
				<port id="2" precision="FP32">
					<dim>1</dim>
					<dim>32</dim>
					<dim>52</dim>
					<dim>52</dim>
				</port>
			</output>
		</layer>
		<layer id="292" name="612" type="ReLU" version="opset1">
			<input>
				<port id="0">
					<dim>1</dim>
					<dim>32</dim>
					<dim>52</dim>
					<dim>52</dim>
				</port>
			</input>
			<output>
				<port id="1" precision="FP32">
					<dim>1</dim>
					<dim>32</dim>
					<dim>52</dim>
					<dim>52</dim>
				</port>
			</output>
		</layer>
		<layer id="293" name="Copy_onnx_initializer_node_bbox_head.reg_convs.2.conv.weight/Output_0/Data__const" type="Const" version="opset1">
			<data element_type="f32" offset="7461216" shape="32,32,3,3" size="36864"/>
			<output>
				<port id="1" precision="FP32">
					<dim>32</dim>
					<dim>32</dim>
					<dim>3</dim>
					<dim>3</dim>
				</port>
			</output>
		</layer>
		<layer id="294" name="613" type="Convolution" version="opset1">
			<data dilations="1,1" output_padding="0,0" pads_begin="1,1" pads_end="1,1" strides="1,1"/>
			<input>
				<port id="0">
					<dim>1</dim>
					<dim>32</dim>
					<dim>52</dim>
					<dim>52</dim>
				</port>
				<port id="1">
					<dim>32</dim>
					<dim>32</dim>
					<dim>3</dim>
					<dim>3</dim>
				</port>
			</input>
			<output>
				<port id="2" precision="FP32">
					<dim>1</dim>
					<dim>32</dim>
					<dim>52</dim>
					<dim>52</dim>
				</port>
			</output>
		</layer>
		<layer id="295" name="614/Ins_Norm/MVN_" type="MVN" version="opset1">
			<data across_channels="0" eps="9.999999747378752e-06" normalize_variance="1"/>
			<input>
				<port id="0">
					<dim>1</dim>
					<dim>32</dim>
					<dim>52</dim>
					<dim>52</dim>
				</port>
			</input>
			<output>
				<port id="1" precision="FP32">
					<dim>1</dim>
					<dim>32</dim>
					<dim>52</dim>
					<dim>52</dim>
				</port>
			</output>
		</layer>
		<layer id="296" name="Copy_onnx_initializer_node_bbox_head.reg_convs.2.gn.weight/Output_0/Data_6328/copy/copy_const" type="Const" version="opset1">
			<data element_type="f32" offset="7498080" shape="1,32,1,1" size="128"/>
			<output>
				<port id="1" precision="FP32">
					<dim>1</dim>
					<dim>32</dim>
					<dim>1</dim>
					<dim>1</dim>
				</port>
			</output>
		</layer>
		<layer id="297" name="614/Ins_Norm/mul_" type="Multiply" version="opset1">
			<input>
				<port id="0">
					<dim>1</dim>
					<dim>32</dim>
					<dim>52</dim>
					<dim>52</dim>
				</port>
				<port id="1">
					<dim>1</dim>
					<dim>32</dim>
					<dim>1</dim>
					<dim>1</dim>
				</port>
			</input>
			<output>
				<port id="2" precision="FP32">
					<dim>1</dim>
					<dim>32</dim>
					<dim>52</dim>
					<dim>52</dim>
				</port>
			</output>
		</layer>
		<layer id="298" name="Copy_onnx_initializer_node_bbox_head.reg_convs.2.gn.bias/Output_0/Data_6323/copy/copy_const" type="Const" version="opset1">
			<data element_type="f32" offset="7498208" shape="1,32,1,1" size="128"/>
			<output>
				<port id="1" precision="FP32">
					<dim>1</dim>
					<dim>32</dim>
					<dim>1</dim>
					<dim>1</dim>
				</port>
			</output>
		</layer>
		<layer id="299" name="614/Ins_Norm/add_" type="Add" version="opset1">
			<input>
				<port id="0">
					<dim>1</dim>
					<dim>32</dim>
					<dim>52</dim>
					<dim>52</dim>
				</port>
				<port id="1">
					<dim>1</dim>
					<dim>32</dim>
					<dim>1</dim>
					<dim>1</dim>
				</port>
			</input>
			<output>
				<port id="2" precision="FP32">
					<dim>1</dim>
					<dim>32</dim>
					<dim>52</dim>
					<dim>52</dim>
				</port>
			</output>
		</layer>
		<layer id="300" name="615" type="ReLU" version="opset1">
			<input>
				<port id="0">
					<dim>1</dim>
					<dim>32</dim>
					<dim>52</dim>
					<dim>52</dim>
				</port>
			</input>
			<output>
				<port id="1" precision="FP32">
					<dim>1</dim>
					<dim>32</dim>
					<dim>52</dim>
					<dim>52</dim>
				</port>
			</output>
		</layer>
		<layer id="301" name="Copy_onnx_initializer_node_bbox_head.reg_convs.3.conv.weight/Output_0/Data__const" type="Const" version="opset1">
			<data element_type="f32" offset="7498336" shape="32,32,3,3" size="36864"/>
			<output>
				<port id="1" precision="FP32">
					<dim>32</dim>
					<dim>32</dim>
					<dim>3</dim>
					<dim>3</dim>
				</port>
			</output>
		</layer>
		<layer id="302" name="616" type="Convolution" version="opset1">
			<data dilations="1,1" output_padding="0,0" pads_begin="1,1" pads_end="1,1" strides="1,1"/>
			<input>
				<port id="0">
					<dim>1</dim>
					<dim>32</dim>
					<dim>52</dim>
					<dim>52</dim>
				</port>
				<port id="1">
					<dim>32</dim>
					<dim>32</dim>
					<dim>3</dim>
					<dim>3</dim>
				</port>
			</input>
			<output>
				<port id="2" precision="FP32">
					<dim>1</dim>
					<dim>32</dim>
					<dim>52</dim>
					<dim>52</dim>
				</port>
			</output>
		</layer>
		<layer id="303" name="617/Ins_Norm/MVN_" type="MVN" version="opset1">
			<data across_channels="0" eps="9.999999747378752e-06" normalize_variance="1"/>
			<input>
				<port id="0">
					<dim>1</dim>
					<dim>32</dim>
					<dim>52</dim>
					<dim>52</dim>
				</port>
			</input>
			<output>
				<port id="1" precision="FP32">
					<dim>1</dim>
					<dim>32</dim>
					<dim>52</dim>
					<dim>52</dim>
				</port>
			</output>
		</layer>
		<layer id="304" name="Copy_onnx_initializer_node_bbox_head.reg_convs.3.gn.weight/Output_0/Data_6345/copy/copy_const" type="Const" version="opset1">
			<data element_type="f32" offset="7535200" shape="1,32,1,1" size="128"/>
			<output>
				<port id="1" precision="FP32">
					<dim>1</dim>
					<dim>32</dim>
					<dim>1</dim>
					<dim>1</dim>
				</port>
			</output>
		</layer>
		<layer id="305" name="617/Ins_Norm/mul_" type="Multiply" version="opset1">
			<input>
				<port id="0">
					<dim>1</dim>
					<dim>32</dim>
					<dim>52</dim>
					<dim>52</dim>
				</port>
				<port id="1">
					<dim>1</dim>
					<dim>32</dim>
					<dim>1</dim>
					<dim>1</dim>
				</port>
			</input>
			<output>
				<port id="2" precision="FP32">
					<dim>1</dim>
					<dim>32</dim>
					<dim>52</dim>
					<dim>52</dim>
				</port>
			</output>
		</layer>
		<layer id="306" name="Copy_onnx_initializer_node_bbox_head.reg_convs.3.gn.bias/Output_0/Data_6340/copy/copy_const" type="Const" version="opset1">
			<data element_type="f32" offset="7535328" shape="1,32,1,1" size="128"/>
			<output>
				<port id="1" precision="FP32">
					<dim>1</dim>
					<dim>32</dim>
					<dim>1</dim>
					<dim>1</dim>
				</port>
			</output>
		</layer>
		<layer id="307" name="617/Ins_Norm/add_" type="Add" version="opset1">
			<input>
				<port id="0">
					<dim>1</dim>
					<dim>32</dim>
					<dim>52</dim>
					<dim>52</dim>
				</port>
				<port id="1">
					<dim>1</dim>
					<dim>32</dim>
					<dim>1</dim>
					<dim>1</dim>
				</port>
			</input>
			<output>
				<port id="2" precision="FP32">
					<dim>1</dim>
					<dim>32</dim>
					<dim>52</dim>
					<dim>52</dim>
				</port>
			</output>
		</layer>
		<layer id="308" name="618" type="ReLU" version="opset1">
			<input>
				<port id="0">
					<dim>1</dim>
					<dim>32</dim>
					<dim>52</dim>
					<dim>52</dim>
				</port>
			</input>
			<output>
				<port id="1" precision="FP32">
					<dim>1</dim>
					<dim>32</dim>
					<dim>52</dim>
					<dim>52</dim>
				</port>
			</output>
		</layer>
		<layer id="309" name="620/Fused_Mul_2777627778_const" type="Const" version="opset1">
			<data element_type="f32" offset="7535456" shape="4,32,3,3" size="4608"/>
			<output>
				<port id="1" precision="FP32">
					<dim>4</dim>
					<dim>32</dim>
					<dim>3</dim>
					<dim>3</dim>
				</port>
			</output>
		</layer>
		<layer id="310" name="619/WithoutBiases" type="Convolution" version="opset1">
			<data dilations="1,1" output_padding="0,0" pads_begin="1,1" pads_end="1,1" strides="1,1"/>
			<input>
				<port id="0">
					<dim>1</dim>
					<dim>32</dim>
					<dim>52</dim>
					<dim>52</dim>
				</port>
				<port id="1">
					<dim>4</dim>
					<dim>32</dim>
					<dim>3</dim>
					<dim>3</dim>
				</port>
			</input>
			<output>
				<port id="2" precision="FP32">
					<dim>1</dim>
					<dim>4</dim>
					<dim>52</dim>
					<dim>52</dim>
				</port>
			</output>
		</layer>
		<layer id="311" name="data_add_2604026045/copy_const" type="Const" version="opset1">
			<data element_type="f32" offset="7540064" shape="1,4,1,1" size="16"/>
			<output>
				<port id="1" precision="FP32">
					<dim>1</dim>
					<dim>4</dim>
					<dim>1</dim>
					<dim>1</dim>
				</port>
			</output>
		</layer>
		<layer id="312" name="619/Fused_Add_" type="Add" version="opset1">
			<input>
				<port id="0">
					<dim>1</dim>
					<dim>4</dim>
					<dim>52</dim>
					<dim>52</dim>
				</port>
				<port id="1">
					<dim>1</dim>
					<dim>4</dim>
					<dim>1</dim>
					<dim>1</dim>
				</port>
			</input>
			<output>
				<port id="2" precision="FP32">
					<dim>1</dim>
					<dim>4</dim>
					<dim>52</dim>
					<dim>52</dim>
				</port>
			</output>
		</layer>
		<layer id="313" name="622" type="Exp" version="opset1">
			<input>
				<port id="0">
					<dim>1</dim>
					<dim>4</dim>
					<dim>52</dim>
					<dim>52</dim>
				</port>
			</input>
			<output>
				<port id="1" precision="FP32">
					<dim>1</dim>
					<dim>4</dim>
					<dim>52</dim>
					<dim>52</dim>
				</port>
			</output>
		</layer>
		<layer id="314" name="10492643/Cast_149281_const" type="Const" version="opset1">
			<data element_type="i32" offset="7540080" shape="" size="4"/>
			<output>
				<port id="1" precision="I32"/>
			</output>
		</layer>
		<layer id="315" name="10492643/Cast_249283_const" type="Const" version="opset1">
			<data element_type="i64" offset="7540084" shape="" size="8"/>
			<output>
				<port id="1" precision="I64"/>
			</output>
		</layer>
		<layer id="316" name="10492643" type="Gather" version="opset1">
			<input>
				<port id="0">
					<dim>1</dim>
					<dim>4</dim>
					<dim>52</dim>
					<dim>52</dim>
				</port>
				<port id="1"/>
				<port id="2"/>
			</input>
			<output>
				<port id="3" precision="FP32">
					<dim>4</dim>
					<dim>52</dim>
					<dim>52</dim>
				</port>
			</output>
		</layer>
		<layer id="317" name="1076/Cast_149163_const" type="Const" version="opset1">
			<data element_type="i64" offset="7540092" shape="3" size="24"/>
			<output>
				<port id="1" precision="I64">
					<dim>3</dim>
				</port>
			</output>
		</layer>
		<layer id="318" name="1076" type="Transpose" version="opset1">
			<input>
				<port id="0">
					<dim>4</dim>
					<dim>52</dim>
					<dim>52</dim>
				</port>
				<port id="1">
					<dim>3</dim>
				</port>
			</input>
			<output>
				<port id="2" precision="FP32">
					<dim>52</dim>
					<dim>52</dim>
					<dim>4</dim>
				</port>
			</output>
		</layer>
		<layer id="319" name="1078/Cast_149233_const" type="Const" version="opset1">
			<data element_type="i64" offset="7540116" shape="2" size="16"/>
			<output>
				<port id="1" precision="I64">
					<dim>2</dim>
				</port>
			</output>
		</layer>
		<layer id="320" name="1078" type="Reshape" version="opset1">
			<data special_zero="True"/>
			<input>
				<port id="0">
					<dim>52</dim>
					<dim>52</dim>
					<dim>4</dim>
				</port>
				<port id="1">
					<dim>2</dim>
				</port>
			</input>
			<output>
				<port id="2" precision="FP32">
					<dim>2704</dim>
					<dim>4</dim>
				</port>
			</output>
		</layer>
		<layer id="321" name="10822757/Cast_149125_const" type="Const" version="opset1">
			<data element_type="i32" offset="7540080" shape="" size="4"/>
			<output>
				<port id="1" precision="I32"/>
			</output>
		</layer>
		<layer id="322" name="10822757/Cast_249127_const" type="Const" version="opset1">
			<data element_type="i64" offset="7540132" shape="" size="8"/>
			<output>
				<port id="1" precision="I64"/>
			</output>
		</layer>
		<layer id="323" name="10822757" type="Gather" version="opset1">
			<input>
				<port id="0">
					<dim>2704</dim>
					<dim>4</dim>
				</port>
				<port id="1"/>
				<port id="2"/>
			</input>
			<output>
				<port id="3" precision="FP32">
					<dim>2704</dim>
				</port>
			</output>
		</layer>
		<layer id="324" name="1083/sub" type="Subtract" version="opset1">
			<input>
				<port id="0">
					<dim>2704</dim>
				</port>
				<port id="1">
					<dim>2704</dim>
				</port>
			</input>
			<output>
				<port id="2" precision="FP32">
					<dim>2704</dim>
				</port>
			</output>
		</layer>
		<layer id="325" name="1106/Dims/Output_0/Data__const" type="Const" version="opset1">
			<data element_type="i64" offset="7540140" shape="1" size="8"/>
			<output>
				<port id="1" precision="I64">
					<dim>1</dim>
				</port>
			</output>
		</layer>
		<layer id="326" name="1106/Unsqueeze" type="Unsqueeze" version="opset1">
			<input>
				<port id="0">
					<dim>2704</dim>
				</port>
				<port id="1">
					<dim>1</dim>
				</port>
			</input>
			<output>
				<port id="2" precision="FP32">
					<dim>2704</dim>
					<dim>1</dim>
				</port>
			</output>
		</layer>
		<layer id="327" name="1107/Unsqueeze/Output_0/Data__const" type="Const" version="opset1">
			<data element_type="f32" offset="7540148" shape="2704,1" size="10816"/>
			<output>
				<port id="1" precision="FP32">
					<dim>2704</dim>
					<dim>1</dim>
				</port>
			</output>
		</layer>
		<layer id="328" name="1108" type="Concat" version="opset1">
			<data axis="1"/>
			<input>
				<port id="0">
					<dim>2704</dim>
					<dim>1</dim>
				</port>
				<port id="1">
					<dim>2704</dim>
					<dim>1</dim>
				</port>
			</input>
			<output>
				<port id="2" precision="FP32">
					<dim>2704</dim>
					<dim>2</dim>
				</port>
			</output>
		</layer>
		<layer id="329" name="1109/Cast_149061_const" type="Const" version="opset1">
			<data element_type="i64" offset="7540140" shape="1" size="8"/>
			<output>
				<port id="1" precision="I64">
					<dim>1</dim>
				</port>
			</output>
		</layer>
		<layer id="330" name="1109" type="ReduceMax" version="opset1">
			<data keep_dims="False"/>
			<input>
				<port id="0">
					<dim>2704</dim>
					<dim>2</dim>
				</port>
				<port id="1">
					<dim>1</dim>
				</port>
			</input>
			<output>
				<port id="2" precision="FP32">
					<dim>2704</dim>
				</port>
			</output>
		</layer>
		<layer id="331" name="1115/Dims/Output_0/Data__const" type="Const" version="opset1">
			<data element_type="i64" offset="7540140" shape="1" size="8"/>
			<output>
				<port id="1" precision="I64">
					<dim>1</dim>
				</port>
			</output>
		</layer>
		<layer id="332" name="1115/Unsqueeze" type="Unsqueeze" version="opset1">
			<input>
				<port id="0">
					<dim>2704</dim>
				</port>
				<port id="1">
					<dim>1</dim>
				</port>
			</input>
			<output>
				<port id="2" precision="FP32">
					<dim>2704</dim>
					<dim>1</dim>
				</port>
			</output>
		</layer>
		<layer id="333" name="1116/Unsqueeze/Output_0/Data__const" type="Const" version="opset1">
			<data element_type="f32" offset="7550964" shape="2704,1" size="10816"/>
			<output>
				<port id="1" precision="FP32">
					<dim>2704</dim>
					<dim>1</dim>
				</port>
			</output>
		</layer>
		<layer id="334" name="1117" type="Concat" version="opset1">
			<data axis="1"/>
			<input>
				<port id="0">
					<dim>2704</dim>
					<dim>1</dim>
				</port>
				<port id="1">
					<dim>2704</dim>
					<dim>1</dim>
				</port>
			</input>
			<output>
				<port id="2" precision="FP32">
					<dim>2704</dim>
					<dim>2</dim>
				</port>
			</output>
		</layer>
		<layer id="335" name="1118/Cast_149251_const" type="Const" version="opset1">
			<data element_type="i64" offset="7540140" shape="1" size="8"/>
			<output>
				<port id="1" precision="I64">
					<dim>1</dim>
				</port>
			</output>
		</layer>
		<layer id="336" name="1118" type="ReduceMin" version="opset1">
			<data keep_dims="False"/>
			<input>
				<port id="0">
					<dim>2704</dim>
					<dim>2</dim>
				</port>
				<port id="1">
					<dim>1</dim>
				</port>
			</input>
			<output>
				<port id="2" precision="FP32">
					<dim>2704</dim>
				</port>
			</output>
		</layer>
		<layer id="337" name="1179/Dims/Output_0/Data__const" type="Const" version="opset1">
			<data element_type="i64" offset="7540140" shape="1" size="8"/>
			<output>
				<port id="1" precision="I64">
					<dim>1</dim>
				</port>
			</output>
		</layer>
		<layer id="338" name="1179/Unsqueeze" type="Unsqueeze" version="opset1">
			<input>
				<port id="0">
					<dim>2704</dim>
				</port>
				<port id="1">
					<dim>1</dim>
				</port>
			</input>
			<output>
				<port id="2" precision="FP32">
					<dim>2704</dim>
					<dim>1</dim>
				</port>
			</output>
		</layer>
		<layer id="339" name="10852649/Output_0/Data__const" type="Const" version="opset1">
			<data element_type="f32" offset="7561780" shape="2704" size="10816"/>
			<output>
				<port id="1" precision="FP32">
					<dim>2704</dim>
				</port>
			</output>
		</layer>
		<layer id="340" name="10872797/Cast_149247_const" type="Const" version="opset1">
			<data element_type="i32" offset="7572596" shape="" size="4"/>
			<output>
				<port id="1" precision="I32"/>
			</output>
		</layer>
		<layer id="341" name="10872797/Cast_249249_const" type="Const" version="opset1">
			<data element_type="i64" offset="7572600" shape="" size="8"/>
			<output>
				<port id="1" precision="I64"/>
			</output>
		</layer>
		<layer id="342" name="10872797" type="Gather" version="opset1">
			<input>
				<port id="0">
					<dim>2704</dim>
					<dim>4</dim>
				</port>
				<port id="1"/>
				<port id="2"/>
			</input>
			<output>
				<port id="3" precision="FP32">
					<dim>2704</dim>
				</port>
			</output>
		</layer>
		<layer id="343" name="1088/sub" type="Subtract" version="opset1">
			<input>
				<port id="0">
					<dim>2704</dim>
				</port>
				<port id="1">
					<dim>2704</dim>
				</port>
			</input>
			<output>
				<port id="2" precision="FP32">
					<dim>2704</dim>
				</port>
			</output>
		</layer>
		<layer id="344" name="1126/Dims/Output_0/Data__const" type="Const" version="opset1">
			<data element_type="i64" offset="7572608" shape="1" size="8"/>
			<output>
				<port id="1" precision="I64">
					<dim>1</dim>
				</port>
			</output>
		</layer>
		<layer id="345" name="1126/Unsqueeze" type="Unsqueeze" version="opset1">
			<input>
				<port id="0">
					<dim>2704</dim>
				</port>
				<port id="1">
					<dim>1</dim>
				</port>
			</input>
			<output>
				<port id="2" precision="FP32">
					<dim>2704</dim>
					<dim>1</dim>
				</port>
			</output>
		</layer>
		<layer id="346" name="1127/Unsqueeze/Output_0/Data__const" type="Const" version="opset1">
			<data element_type="f32" offset="7540148" shape="2704,1" size="10816"/>
			<output>
				<port id="1" precision="FP32">
					<dim>2704</dim>
					<dim>1</dim>
				</port>
			</output>
		</layer>
		<layer id="347" name="1128" type="Concat" version="opset1">
			<data axis="1"/>
			<input>
				<port id="0">
					<dim>2704</dim>
					<dim>1</dim>
				</port>
				<port id="1">
					<dim>2704</dim>
					<dim>1</dim>
				</port>
			</input>
			<output>
				<port id="2" precision="FP32">
					<dim>2704</dim>
					<dim>2</dim>
				</port>
			</output>
		</layer>
		<layer id="348" name="1129/Cast_149101_const" type="Const" version="opset1">
			<data element_type="i64" offset="7572608" shape="1" size="8"/>
			<output>
				<port id="1" precision="I64">
					<dim>1</dim>
				</port>
			</output>
		</layer>
		<layer id="349" name="1129" type="ReduceMax" version="opset1">
			<data keep_dims="False"/>
			<input>
				<port id="0">
					<dim>2704</dim>
					<dim>2</dim>
				</port>
				<port id="1">
					<dim>1</dim>
				</port>
			</input>
			<output>
				<port id="2" precision="FP32">
					<dim>2704</dim>
				</port>
			</output>
		</layer>
		<layer id="350" name="1135/Dims/Output_0/Data__const" type="Const" version="opset1">
			<data element_type="i64" offset="7572608" shape="1" size="8"/>
			<output>
				<port id="1" precision="I64">
					<dim>1</dim>
				</port>
			</output>
		</layer>
		<layer id="351" name="1135/Unsqueeze" type="Unsqueeze" version="opset1">
			<input>
				<port id="0">
					<dim>2704</dim>
				</port>
				<port id="1">
					<dim>1</dim>
				</port>
			</input>
			<output>
				<port id="2" precision="FP32">
					<dim>2704</dim>
					<dim>1</dim>
				</port>
			</output>
		</layer>
		<layer id="352" name="1136/Unsqueeze/Output_0/Data__const" type="Const" version="opset1">
			<data element_type="f32" offset="7550964" shape="2704,1" size="10816"/>
			<output>
				<port id="1" precision="FP32">
					<dim>2704</dim>
					<dim>1</dim>
				</port>
			</output>
		</layer>
		<layer id="353" name="1137" type="Concat" version="opset1">
			<data axis="1"/>
			<input>
				<port id="0">
					<dim>2704</dim>
					<dim>1</dim>
				</port>
				<port id="1">
					<dim>2704</dim>
					<dim>1</dim>
				</port>
			</input>
			<output>
				<port id="2" precision="FP32">
					<dim>2704</dim>
					<dim>2</dim>
				</port>
			</output>
		</layer>
		<layer id="354" name="1138/Cast_149075_const" type="Const" version="opset1">
			<data element_type="i64" offset="7572608" shape="1" size="8"/>
			<output>
				<port id="1" precision="I64">
					<dim>1</dim>
				</port>
			</output>
		</layer>
		<layer id="355" name="1138" type="ReduceMin" version="opset1">
			<data keep_dims="False"/>
			<input>
				<port id="0">
					<dim>2704</dim>
					<dim>2</dim>
				</port>
				<port id="1">
					<dim>1</dim>
				</port>
			</input>
			<output>
				<port id="2" precision="FP32">
					<dim>2704</dim>
				</port>
			</output>
		</layer>
		<layer id="356" name="1180/Dims/Output_0/Data__const" type="Const" version="opset1">
			<data element_type="i64" offset="7572608" shape="1" size="8"/>
			<output>
				<port id="1" precision="I64">
					<dim>1</dim>
				</port>
			</output>
		</layer>
		<layer id="357" name="1180/Unsqueeze" type="Unsqueeze" version="opset1">
			<input>
				<port id="0">
					<dim>2704</dim>
				</port>
				<port id="1">
					<dim>1</dim>
				</port>
			</input>
			<output>
				<port id="2" precision="FP32">
					<dim>2704</dim>
					<dim>1</dim>
				</port>
			</output>
		</layer>
		<layer id="358" name="10902655/Output_0/Data__const" type="Const" version="opset1">
			<data element_type="f32" offset="0" shape="2704" size="10816"/>
			<output>
				<port id="1" precision="FP32">
					<dim>2704</dim>
				</port>
			</output>
		</layer>
		<layer id="359" name="10922819/Cast_148981_const" type="Const" version="opset1">
			<data element_type="i32" offset="7572616" shape="" size="4"/>
			<output>
				<port id="1" precision="I32"/>
			</output>
		</layer>
		<layer id="360" name="10922819/Cast_248983_const" type="Const" version="opset1">
			<data element_type="i64" offset="7572620" shape="" size="8"/>
			<output>
				<port id="1" precision="I64"/>
			</output>
		</layer>
		<layer id="361" name="10922819" type="Gather" version="opset1">
			<input>
				<port id="0">
					<dim>2704</dim>
					<dim>4</dim>
				</port>
				<port id="1"/>
				<port id="2"/>
			</input>
			<output>
				<port id="3" precision="FP32">
					<dim>2704</dim>
				</port>
			</output>
		</layer>
		<layer id="362" name="1093" type="Add" version="opset1">
			<input>
				<port id="0">
					<dim>2704</dim>
				</port>
				<port id="1">
					<dim>2704</dim>
				</port>
			</input>
			<output>
				<port id="2" precision="FP32">
					<dim>2704</dim>
				</port>
			</output>
		</layer>
		<layer id="363" name="1146/Dims/Output_0/Data__const" type="Const" version="opset1">
			<data element_type="i64" offset="7572628" shape="1" size="8"/>
			<output>
				<port id="1" precision="I64">
					<dim>1</dim>
				</port>
			</output>
		</layer>
		<layer id="364" name="1146/Unsqueeze" type="Unsqueeze" version="opset1">
			<input>
				<port id="0">
					<dim>2704</dim>
				</port>
				<port id="1">
					<dim>1</dim>
				</port>
			</input>
			<output>
				<port id="2" precision="FP32">
					<dim>2704</dim>
					<dim>1</dim>
				</port>
			</output>
		</layer>
		<layer id="365" name="1147/Unsqueeze/Output_0/Data__const" type="Const" version="opset1">
			<data element_type="f32" offset="7540148" shape="2704,1" size="10816"/>
			<output>
				<port id="1" precision="FP32">
					<dim>2704</dim>
					<dim>1</dim>
				</port>
			</output>
		</layer>
		<layer id="366" name="1148" type="Concat" version="opset1">
			<data axis="1"/>
			<input>
				<port id="0">
					<dim>2704</dim>
					<dim>1</dim>
				</port>
				<port id="1">
					<dim>2704</dim>
					<dim>1</dim>
				</port>
			</input>
			<output>
				<port id="2" precision="FP32">
					<dim>2704</dim>
					<dim>2</dim>
				</port>
			</output>
		</layer>
		<layer id="367" name="1149/Cast_149235_const" type="Const" version="opset1">
			<data element_type="i64" offset="7572628" shape="1" size="8"/>
			<output>
				<port id="1" precision="I64">
					<dim>1</dim>
				</port>
			</output>
		</layer>
		<layer id="368" name="1149" type="ReduceMax" version="opset1">
			<data keep_dims="False"/>
			<input>
				<port id="0">
					<dim>2704</dim>
					<dim>2</dim>
				</port>
				<port id="1">
					<dim>1</dim>
				</port>
			</input>
			<output>
				<port id="2" precision="FP32">
					<dim>2704</dim>
				</port>
			</output>
		</layer>
		<layer id="369" name="1155/Dims/Output_0/Data__const" type="Const" version="opset1">
			<data element_type="i64" offset="7572628" shape="1" size="8"/>
			<output>
				<port id="1" precision="I64">
					<dim>1</dim>
				</port>
			</output>
		</layer>
		<layer id="370" name="1155/Unsqueeze" type="Unsqueeze" version="opset1">
			<input>
				<port id="0">
					<dim>2704</dim>
				</port>
				<port id="1">
					<dim>1</dim>
				</port>
			</input>
			<output>
				<port id="2" precision="FP32">
					<dim>2704</dim>
					<dim>1</dim>
				</port>
			</output>
		</layer>
		<layer id="371" name="1156/Unsqueeze/Output_0/Data__const" type="Const" version="opset1">
			<data element_type="f32" offset="7550964" shape="2704,1" size="10816"/>
			<output>
				<port id="1" precision="FP32">
					<dim>2704</dim>
					<dim>1</dim>
				</port>
			</output>
		</layer>
		<layer id="372" name="1157" type="Concat" version="opset1">
			<data axis="1"/>
			<input>
				<port id="0">
					<dim>2704</dim>
					<dim>1</dim>
				</port>
				<port id="1">
					<dim>2704</dim>
					<dim>1</dim>
				</port>
			</input>
			<output>
				<port id="2" precision="FP32">
					<dim>2704</dim>
					<dim>2</dim>
				</port>
			</output>
		</layer>
		<layer id="373" name="1158/Cast_148963_const" type="Const" version="opset1">
			<data element_type="i64" offset="7572628" shape="1" size="8"/>
			<output>
				<port id="1" precision="I64">
					<dim>1</dim>
				</port>
			</output>
		</layer>
		<layer id="374" name="1158" type="ReduceMin" version="opset1">
			<data keep_dims="False"/>
			<input>
				<port id="0">
					<dim>2704</dim>
					<dim>2</dim>
				</port>
				<port id="1">
					<dim>1</dim>
				</port>
			</input>
			<output>
				<port id="2" precision="FP32">
					<dim>2704</dim>
				</port>
			</output>
		</layer>
		<layer id="375" name="1181/Dims/Output_0/Data__const" type="Const" version="opset1">
			<data element_type="i64" offset="7572628" shape="1" size="8"/>
			<output>
				<port id="1" precision="I64">
					<dim>1</dim>
				</port>
			</output>
		</layer>
		<layer id="376" name="1181/Unsqueeze" type="Unsqueeze" version="opset1">
			<input>
				<port id="0">
					<dim>2704</dim>
				</port>
				<port id="1">
					<dim>1</dim>
				</port>
			</input>
			<output>
				<port id="2" precision="FP32">
					<dim>2704</dim>
					<dim>1</dim>
				</port>
			</output>
		</layer>
		<layer id="377" name="10952835/Output_0/Data__const" type="Const" version="opset1">
			<data element_type="f32" offset="7561780" shape="2704" size="10816"/>
			<output>
				<port id="1" precision="FP32">
					<dim>2704</dim>
				</port>
			</output>
		</layer>
		<layer id="378" name="10972683/Cast_149053_const" type="Const" version="opset1">
			<data element_type="i32" offset="7572636" shape="" size="4"/>
			<output>
				<port id="1" precision="I32"/>
			</output>
		</layer>
		<layer id="379" name="10972683/Cast_249055_const" type="Const" version="opset1">
			<data element_type="i64" offset="7572640" shape="" size="8"/>
			<output>
				<port id="1" precision="I64"/>
			</output>
		</layer>
		<layer id="380" name="10972683" type="Gather" version="opset1">
			<input>
				<port id="0">
					<dim>2704</dim>
					<dim>4</dim>
				</port>
				<port id="1"/>
				<port id="2"/>
			</input>
			<output>
				<port id="3" precision="FP32">
					<dim>2704</dim>
				</port>
			</output>
		</layer>
		<layer id="381" name="1098" type="Add" version="opset1">
			<input>
				<port id="0">
					<dim>2704</dim>
				</port>
				<port id="1">
					<dim>2704</dim>
				</port>
			</input>
			<output>
				<port id="2" precision="FP32">
					<dim>2704</dim>
				</port>
			</output>
		</layer>
		<layer id="382" name="1166/Dims/Output_0/Data__const" type="Const" version="opset1">
			<data element_type="i64" offset="7572648" shape="1" size="8"/>
			<output>
				<port id="1" precision="I64">
					<dim>1</dim>
				</port>
			</output>
…
		<edge from-layer="585" from-port="1" to-layer="586" to-port="1"/>
		<edge from-layer="586" from-port="2" to-layer="588" to-port="0"/>
		<edge from-layer="587" from-port="1" to-layer="588" to-port="1"/>
		<edge from-layer="570" from-port="2" to-layer="592" to-port="0"/>
		<edge from-layer="590" from-port="1" to-layer="592" to-port="1"/>
		<edge from-layer="591" from-port="1" to-layer="592" to-port="2"/>
		<edge from-layer="589" from-port="1" to-layer="593" to-port="0"/>
		<edge from-layer="592" from-port="3" to-layer="593" to-port="1"/>
		<edge from-layer="593" from-port="2" to-layer="595" to-port="0"/>
		<edge from-layer="594" from-port="1" to-layer="595" to-port="1"/>
		<edge from-layer="595" from-port="2" to-layer="597" to-port="0"/>
		<edge from-layer="596" from-port="1" to-layer="597" to-port="1"/>
		<edge from-layer="597" from-port="2" to-layer="599" to-port="0"/>
		<edge from-layer="598" from-port="1" to-layer="599" to-port="1"/>
		<edge from-layer="599" from-port="2" to-layer="601" to-port="0"/>
		<edge from-layer="600" from-port="1" to-layer="601" to-port="1"/>
		<edge from-layer="601" from-port="2" to-layer="603" to-port="0"/>
		<edge from-layer="602" from-port="1" to-layer="603" to-port="1"/>
		<edge from-layer="603" from-port="2" to-layer="605" to-port="0"/>
		<edge from-layer="604" from-port="1" to-layer="605" to-port="1"/>
		<edge from-layer="605" from-port="2" to-layer="607" to-port="0"/>
		<edge from-layer="606" from-port="1" to-layer="607" to-port="1"/>
		<edge from-layer="570" from-port="2" to-layer="611" to-port="0"/>
		<edge from-layer="609" from-port="1" to-layer="611" to-port="1"/>
		<edge from-layer="610" from-port="1" to-layer="611" to-port="2"/>
		<edge from-layer="608" from-port="1" to-layer="612" to-port="0"/>
		<edge from-layer="611" from-port="3" to-layer="612" to-port="1"/>
		<edge from-layer="612" from-port="2" to-layer="614" to-port="0"/>
		<edge from-layer="613" from-port="1" to-layer="614" to-port="1"/>
		<edge from-layer="614" from-port="2" to-layer="616" to-port="0"/>
		<edge from-layer="615" from-port="1" to-layer="616" to-port="1"/>
		<edge from-layer="616" from-port="2" to-layer="618" to-port="0"/>
		<edge from-layer="617" from-port="1" to-layer="618" to-port="1"/>
		<edge from-layer="618" from-port="2" to-layer="620" to-port="0"/>
		<edge from-layer="619" from-port="1" to-layer="620" to-port="1"/>
		<edge from-layer="620" from-port="2" to-layer="622" to-port="0"/>
		<edge from-layer="621" from-port="1" to-layer="622" to-port="1"/>
		<edge from-layer="622" from-port="2" to-layer="624" to-port="0"/>
		<edge from-layer="623" from-port="1" to-layer="624" to-port="1"/>
		<edge from-layer="624" from-port="2" to-layer="626" to-port="0"/>
		<edge from-layer="625" from-port="1" to-layer="626" to-port="1"/>
		<edge from-layer="570" from-port="2" to-layer="630" to-port="0"/>
		<edge from-layer="628" from-port="1" to-layer="630" to-port="1"/>
		<edge from-layer="629" from-port="1" to-layer="630" to-port="2"/>
		<edge from-layer="627" from-port="1" to-layer="631" to-port="0"/>
		<edge from-layer="630" from-port="3" to-layer="631" to-port="1"/>
		<edge from-layer="631" from-port="2" to-layer="633" to-port="0"/>
		<edge from-layer="632" from-port="1" to-layer="633" to-port="1"/>
		<edge from-layer="633" from-port="2" to-layer="635" to-port="0"/>
		<edge from-layer="634" from-port="1" to-layer="635" to-port="1"/>
		<edge from-layer="635" from-port="2" to-layer="637" to-port="0"/>
		<edge from-layer="636" from-port="1" to-layer="637" to-port="1"/>
		<edge from-layer="637" from-port="2" to-layer="639" to-port="0"/>
		<edge from-layer="638" from-port="1" to-layer="639" to-port="1"/>
		<edge from-layer="639" from-port="2" to-layer="641" to-port="0"/>
		<edge from-layer="640" from-port="1" to-layer="641" to-port="1"/>
		<edge from-layer="641" from-port="2" to-layer="643" to-port="0"/>
		<edge from-layer="642" from-port="1" to-layer="643" to-port="1"/>
		<edge from-layer="643" from-port="2" to-layer="645" to-port="0"/>
		<edge from-layer="644" from-port="1" to-layer="645" to-port="1"/>
		<edge from-layer="588" from-port="2" to-layer="646" to-port="0"/>
		<edge from-layer="607" from-port="2" to-layer="646" to-port="1"/>
		<edge from-layer="626" from-port="2" to-layer="646" to-port="2"/>
		<edge from-layer="645" from-port="2" to-layer="646" to-port="3"/>
		<edge from-layer="526" from-port="2" to-layer="649" to-port="0"/>
		<edge from-layer="648" from-port="1" to-layer="649" to-port="1"/>
		<edge from-layer="649" from-port="2" to-layer="651" to-port="0"/>
		<edge from-layer="650" from-port="1" to-layer="651" to-port="1"/>
		<edge from-layer="651" from-port="2" to-layer="653" to-port="0"/>
		<edge from-layer="652" from-port="1" to-layer="653" to-port="1"/>
		<edge from-layer="653" from-port="2" to-layer="654" to-port="0"/>
		<edge from-layer="654" from-port="1" to-layer="656" to-port="0"/>
		<edge from-layer="655" from-port="1" to-layer="656" to-port="1"/>
		<edge from-layer="656" from-port="2" to-layer="658" to-port="0"/>
		<edge from-layer="657" from-port="1" to-layer="658" to-port="1"/>
		<edge from-layer="658" from-port="2" to-layer="659" to-port="0"/>
		<edge from-layer="659" from-port="1" to-layer="661" to-port="0"/>
		<edge from-layer="660" from-port="1" to-layer="661" to-port="1"/>
		<edge from-layer="661" from-port="2" to-layer="662" to-port="0"/>
		<edge from-layer="662" from-port="1" to-layer="664" to-port="0"/>
		<edge from-layer="663" from-port="1" to-layer="664" to-port="1"/>
		<edge from-layer="664" from-port="2" to-layer="666" to-port="0"/>
		<edge from-layer="665" from-port="1" to-layer="666" to-port="1"/>
		<edge from-layer="666" from-port="2" to-layer="667" to-port="0"/>
		<edge from-layer="667" from-port="1" to-layer="669" to-port="0"/>
		<edge from-layer="668" from-port="1" to-layer="669" to-port="1"/>
		<edge from-layer="669" from-port="2" to-layer="670" to-port="0"/>
		<edge from-layer="670" from-port="1" to-layer="672" to-port="0"/>
		<edge from-layer="671" from-port="1" to-layer="672" to-port="1"/>
		<edge from-layer="672" from-port="2" to-layer="674" to-port="0"/>
		<edge from-layer="673" from-port="1" to-layer="674" to-port="1"/>
		<edge from-layer="674" from-port="2" to-layer="675" to-port="0"/>
		<edge from-layer="675" from-port="1" to-layer="677" to-port="0"/>
		<edge from-layer="676" from-port="1" to-layer="677" to-port="1"/>
		<edge from-layer="677" from-port="2" to-layer="678" to-port="0"/>
		<edge from-layer="678" from-port="1" to-layer="680" to-port="0"/>
		<edge from-layer="679" from-port="1" to-layer="680" to-port="1"/>
		<edge from-layer="680" from-port="2" to-layer="682" to-port="0"/>
		<edge from-layer="681" from-port="1" to-layer="682" to-port="1"/>
		<edge from-layer="682" from-port="2" to-layer="683" to-port="0"/>
		<edge from-layer="683" from-port="1" to-layer="685" to-port="0"/>
		<edge from-layer="684" from-port="1" to-layer="685" to-port="1"/>
		<edge from-layer="685" from-port="2" to-layer="687" to-port="0"/>
		<edge from-layer="686" from-port="1" to-layer="687" to-port="1"/>
		<edge from-layer="687" from-port="2" to-layer="688" to-port="0"/>
		<edge from-layer="688" from-port="1" to-layer="691" to-port="0"/>
		<edge from-layer="689" from-port="1" to-layer="691" to-port="1"/>
		<edge from-layer="690" from-port="1" to-layer="691" to-port="2"/>
		<edge from-layer="691" from-port="3" to-layer="693" to-port="0"/>
		<edge from-layer="692" from-port="1" to-layer="693" to-port="1"/>
		<edge from-layer="693" from-port="2" to-layer="695" to-port="0"/>
		<edge from-layer="694" from-port="1" to-layer="695" to-port="1"/>
		<edge from-layer="695" from-port="2" to-layer="698" to-port="0"/>
		<edge from-layer="696" from-port="1" to-layer="698" to-port="1"/>
		<edge from-layer="697" from-port="1" to-layer="698" to-port="2"/>
		<edge from-layer="647" from-port="1" to-layer="699" to-port="0"/>
		<edge from-layer="698" from-port="3" to-layer="699" to-port="1"/>
		<edge from-layer="699" from-port="2" to-layer="701" to-port="0"/>
		<edge from-layer="700" from-port="1" to-layer="701" to-port="1"/>
		<edge from-layer="701" from-port="2" to-layer="703" to-port="0"/>
		<edge from-layer="702" from-port="1" to-layer="703" to-port="1"/>
		<edge from-layer="703" from-port="2" to-layer="705" to-port="0"/>
		<edge from-layer="704" from-port="1" to-layer="705" to-port="1"/>
		<edge from-layer="705" from-port="2" to-layer="707" to-port="0"/>
		<edge from-layer="706" from-port="1" to-layer="707" to-port="1"/>
		<edge from-layer="707" from-port="2" to-layer="709" to-port="0"/>
		<edge from-layer="708" from-port="1" to-layer="709" to-port="1"/>
		<edge from-layer="709" from-port="2" to-layer="711" to-port="0"/>
		<edge from-layer="710" from-port="1" to-layer="711" to-port="1"/>
		<edge from-layer="711" from-port="2" to-layer="713" to-port="0"/>
		<edge from-layer="712" from-port="1" to-layer="713" to-port="1"/>
		<edge from-layer="695" from-port="2" to-layer="717" to-port="0"/>
		<edge from-layer="715" from-port="1" to-layer="717" to-port="1"/>
		<edge from-layer="716" from-port="1" to-layer="717" to-port="2"/>
		<edge from-layer="714" from-port="1" to-layer="718" to-port="0"/>
		<edge from-layer="717" from-port="3" to-layer="718" to-port="1"/>
		<edge from-layer="718" from-port="2" to-layer="720" to-port="0"/>
		<edge from-layer="719" from-port="1" to-layer="720" to-port="1"/>
		<edge from-layer="720" from-port="2" to-layer="722" to-port="0"/>
		<edge from-layer="721" from-port="1" to-layer="722" to-port="1"/>
		<edge from-layer="722" from-port="2" to-layer="724" to-port="0"/>
		<edge from-layer="723" from-port="1" to-layer="724" to-port="1"/>
		<edge from-layer="724" from-port="2" to-layer="726" to-port="0"/>
		<edge from-layer="725" from-port="1" to-layer="726" to-port="1"/>
		<edge from-layer="726" from-port="2" to-layer="728" to-port="0"/>
		<edge from-layer="727" from-port="1" to-layer="728" to-port="1"/>
		<edge from-layer="728" from-port="2" to-layer="730" to-port="0"/>
		<edge from-layer="729" from-port="1" to-layer="730" to-port="1"/>
		<edge from-layer="730" from-port="2" to-layer="732" to-port="0"/>
		<edge from-layer="731" from-port="1" to-layer="732" to-port="1"/>
		<edge from-layer="695" from-port="2" to-layer="736" to-port="0"/>
		<edge from-layer="734" from-port="1" to-layer="736" to-port="1"/>
		<edge from-layer="735" from-port="1" to-layer="736" to-port="2"/>
		<edge from-layer="733" from-port="1" to-layer="737" to-port="0"/>
		<edge from-layer="736" from-port="3" to-layer="737" to-port="1"/>
		<edge from-layer="737" from-port="2" to-layer="739" to-port="0"/>
		<edge from-layer="738" from-port="1" to-layer="739" to-port="1"/>
		<edge from-layer="739" from-port="2" to-layer="741" to-port="0"/>
		<edge from-layer="740" from-port="1" to-layer="741" to-port="1"/>
		<edge from-layer="741" from-port="2" to-layer="743" to-port="0"/>
		<edge from-layer="742" from-port="1" to-layer="743" to-port="1"/>
		<edge from-layer="743" from-port="2" to-layer="745" to-port="0"/>
		<edge from-layer="744" from-port="1" to-layer="745" to-port="1"/>
		<edge from-layer="745" from-port="2" to-layer="747" to-port="0"/>
		<edge from-layer="746" from-port="1" to-layer="747" to-port="1"/>
		<edge from-layer="747" from-port="2" to-layer="749" to-port="0"/>
		<edge from-layer="748" from-port="1" to-layer="749" to-port="1"/>
		<edge from-layer="749" from-port="2" to-layer="751" to-port="0"/>
		<edge from-layer="750" from-port="1" to-layer="751" to-port="1"/>
		<edge from-layer="695" from-port="2" to-layer="755" to-port="0"/>
		<edge from-layer="753" from-port="1" to-layer="755" to-port="1"/>
		<edge from-layer="754" from-port="1" to-layer="755" to-port="2"/>
		<edge from-layer="752" from-port="1" to-layer="756" to-port="0"/>
		<edge from-layer="755" from-port="3" to-layer="756" to-port="1"/>
		<edge from-layer="756" from-port="2" to-layer="758" to-port="0"/>
		<edge from-layer="757" from-port="1" to-layer="758" to-port="1"/>
		<edge from-layer="758" from-port="2" to-layer="760" to-port="0"/>
		<edge from-layer="759" from-port="1" to-layer="760" to-port="1"/>
		<edge from-layer="760" from-port="2" to-layer="762" to-port="0"/>
		<edge from-layer="761" from-port="1" to-layer="762" to-port="1"/>
		<edge from-layer="762" from-port="2" to-layer="764" to-port="0"/>
		<edge from-layer="763" from-port="1" to-layer="764" to-port="1"/>
		<edge from-layer="764" from-port="2" to-layer="766" to-port="0"/>
		<edge from-layer="765" from-port="1" to-layer="766" to-port="1"/>
		<edge from-layer="766" from-port="2" to-layer="768" to-port="0"/>
		<edge from-layer="767" from-port="1" to-layer="768" to-port="1"/>
		<edge from-layer="768" from-port="2" to-layer="770" to-port="0"/>
		<edge from-layer="769" from-port="1" to-layer="770" to-port="1"/>
		<edge from-layer="713" from-port="2" to-layer="771" to-port="0"/>
		<edge from-layer="732" from-port="2" to-layer="771" to-port="1"/>
		<edge from-layer="751" from-port="2" to-layer="771" to-port="2"/>
		<edge from-layer="770" from-port="2" to-layer="771" to-port="3"/>
		<edge from-layer="651" from-port="2" to-layer="773" to-port="0"/>
		<edge from-layer="773" from-port="1" to-layer="775" to-port="0"/>
		<edge from-layer="774" from-port="1" to-layer="775" to-port="1"/>
		<edge from-layer="775" from-port="2" to-layer="777" to-port="0"/>
		<edge from-layer="776" from-port="1" to-layer="777" to-port="1"/>
		<edge from-layer="777" from-port="2" to-layer="779" to-port="0"/>
		<edge from-layer="778" from-port="1" to-layer="779" to-port="1"/>
		<edge from-layer="779" from-port="2" to-layer="780" to-port="0"/>
		<edge from-layer="780" from-port="1" to-layer="782" to-port="0"/>
		<edge from-layer="781" from-port="1" to-layer="782" to-port="1"/>
		<edge from-layer="782" from-port="2" to-layer="784" to-port="0"/>
		<edge from-layer="783" from-port="1" to-layer="784" to-port="1"/>
		<edge from-layer="784" from-port="2" to-layer="785" to-port="0"/>
		<edge from-layer="785" from-port="1" to-layer="787" to-port="0"/>
		<edge from-layer="786" from-port="1" to-layer="787" to-port="1"/>
		<edge from-layer="787" from-port="2" to-layer="788" to-port="0"/>
		<edge from-layer="788" from-port="1" to-layer="790" to-port="0"/>
		<edge from-layer="789" from-port="1" to-layer="790" to-port="1"/>
		<edge from-layer="790" from-port="2" to-layer="792" to-port="0"/>
		<edge from-layer="791" from-port="1" to-layer="792" to-port="1"/>
		<edge from-layer="792" from-port="2" to-layer="793" to-port="0"/>
		<edge from-layer="793" from-port="1" to-layer="795" to-port="0"/>
		<edge from-layer="794" from-port="1" to-layer="795" to-port="1"/>
		<edge from-layer="795" from-port="2" to-layer="796" to-port="0"/>
		<edge from-layer="796" from-port="1" to-layer="798" to-port="0"/>
		<edge from-layer="797" from-port="1" to-layer="798" to-port="1"/>
		<edge from-layer="798" from-port="2" to-layer="800" to-port="0"/>
		<edge from-layer="799" from-port="1" to-layer="800" to-port="1"/>
		<edge from-layer="800" from-port="2" to-layer="801" to-port="0"/>
		<edge from-layer="801" from-port="1" to-layer="803" to-port="0"/>
		<edge from-layer="802" from-port="1" to-layer="803" to-port="1"/>
		<edge from-layer="803" from-port="2" to-layer="804" to-port="0"/>
		<edge from-layer="804" from-port="1" to-layer="806" to-port="0"/>
		<edge from-layer="805" from-port="1" to-layer="806" to-port="1"/>
		<edge from-layer="806" from-port="2" to-layer="808" to-port="0"/>
		<edge from-layer="807" from-port="1" to-layer="808" to-port="1"/>
		<edge from-layer="808" from-port="2" to-layer="809" to-port="0"/>
		<edge from-layer="809" from-port="1" to-layer="811" to-port="0"/>
		<edge from-layer="810" from-port="1" to-layer="811" to-port="1"/>
		<edge from-layer="811" from-port="2" to-layer="813" to-port="0"/>
		<edge from-layer="812" from-port="1" to-layer="813" to-port="1"/>
		<edge from-layer="813" from-port="2" to-layer="814" to-port="0"/>
		<edge from-layer="814" from-port="1" to-layer="817" to-port="0"/>
		<edge from-layer="815" from-port="1" to-layer="817" to-port="1"/>
		<edge from-layer="816" from-port="1" to-layer="817" to-port="2"/>
		<edge from-layer="817" from-port="3" to-layer="819" to-port="0"/>
		<edge from-layer="818" from-port="1" to-layer="819" to-port="1"/>
		<edge from-layer="819" from-port="2" to-layer="821" to-port="0"/>
		<edge from-layer="820" from-port="1" to-layer="821" to-port="1"/>
		<edge from-layer="821" from-port="2" to-layer="824" to-port="0"/>
		<edge from-layer="822" from-port="1" to-layer="824" to-port="1"/>
		<edge from-layer="823" from-port="1" to-layer="824" to-port="2"/>
		<edge from-layer="772" from-port="1" to-layer="825" to-port="0"/>
		<edge from-layer="824" from-port="3" to-layer="825" to-port="1"/>
		<edge from-layer="825" from-port="2" to-layer="827" to-port="0"/>
		<edge from-layer="826" from-port="1" to-layer="827" to-port="1"/>
		<edge from-layer="827" from-port="2" to-layer="829" to-port="0"/>
		<edge from-layer="828" from-port="1" to-layer="829" to-port="1"/>
		<edge from-layer="829" from-port="2" to-layer="831" to-port="0"/>
		<edge from-layer="830" from-port="1" to-layer="831" to-port="1"/>
		<edge from-layer="831" from-port="2" to-layer="833" to-port="0"/>
		<edge from-layer="832" from-port="1" to-layer="833" to-port="1"/>
		<edge from-layer="833" from-port="2" to-layer="835" to-port="0"/>
		<edge from-layer="834" from-port="1" to-layer="835" to-port="1"/>
		<edge from-layer="835" from-port="2" to-layer="837" to-port="0"/>
		<edge from-layer="836" from-port="1" to-layer="837" to-port="1"/>
		<edge from-layer="837" from-port="2" to-layer="839" to-port="0"/>
		<edge from-layer="838" from-port="1" to-layer="839" to-port="1"/>
		<edge from-layer="821" from-port="2" to-layer="843" to-port="0"/>
		<edge from-layer="841" from-port="1" to-layer="843" to-port="1"/>
		<edge from-layer="842" from-port="1" to-layer="843" to-port="2"/>
		<edge from-layer="840" from-port="1" to-layer="844" to-port="0"/>
		<edge from-layer="843" from-port="3" to-layer="844" to-port="1"/>
		<edge from-layer="844" from-port="2" to-layer="846" to-port="0"/>
		<edge from-layer="845" from-port="1" to-layer="846" to-port="1"/>
		<edge from-layer="846" from-port="2" to-layer="848" to-port="0"/>
		<edge from-layer="847" from-port="1" to-layer="848" to-port="1"/>
		<edge from-layer="848" from-port="2" to-layer="850" to-port="0"/>
		<edge from-layer="849" from-port="1" to-layer="850" to-port="1"/>
		<edge from-layer="850" from-port="2" to-layer="852" to-port="0"/>
		<edge from-layer="851" from-port="1" to-layer="852" to-port="1"/>
		<edge from-layer="852" from-port="2" to-layer="854" to-port="0"/>
		<edge from-layer="853" from-port="1" to-layer="854" to-port="1"/>
		<edge from-layer="854" from-port="2" to-layer="856" to-port="0"/>
		<edge from-layer="855" from-port="1" to-layer="856" to-port="1"/>
		<edge from-layer="856" from-port="2" to-layer="858" to-port="0"/>
		<edge from-layer="857" from-port="1" to-layer="858" to-port="1"/>
		<edge from-layer="821" from-port="2" to-layer="862" to-port="0"/>
		<edge from-layer="860" from-port="1" to-layer="862" to-port="1"/>
		<edge from-layer="861" from-port="1" to-layer="862" to-port="2"/>
		<edge from-layer="859" from-port="1" to-layer="863" to-port="0"/>
		<edge from-layer="862" from-port="3" to-layer="863" to-port="1"/>
		<edge from-layer="863" from-port="2" to-layer="865" to-port="0"/>
		<edge from-layer="864" from-port="1" to-layer="865" to-port="1"/>
		<edge from-layer="865" from-port="2" to-layer="867" to-port="0"/>
		<edge from-layer="866" from-port="1" to-layer="867" to-port="1"/>
		<edge from-layer="867" from-port="2" to-layer="869" to-port="0"/>
		<edge from-layer="868" from-port="1" to-layer="869" to-port="1"/>
		<edge from-layer="869" from-port="2" to-layer="871" to-port="0"/>
		<edge from-layer="870" from-port="1" to-layer="871" to-port="1"/>
		<edge from-layer="871" from-port="2" to-layer="873" to-port="0"/>
		<edge from-layer="872" from-port="1" to-layer="873" to-port="1"/>
		<edge from-layer="873" from-port="2" to-layer="875" to-port="0"/>
		<edge from-layer="874" from-port="1" to-layer="875" to-port="1"/>
		<edge from-layer="875" from-port="2" to-layer="877" to-port="0"/>
		<edge from-layer="876" from-port="1" to-layer="877" to-port="1"/>
		<edge from-layer="821" from-port="2" to-layer="881" to-port="0"/>
		<edge from-layer="879" from-port="1" to-layer="881" to-port="1"/>
		<edge from-layer="880" from-port="1" to-layer="881" to-port="2"/>
		<edge from-layer="878" from-port="1" to-layer="882" to-port="0"/>
		<edge from-layer="881" from-port="3" to-layer="882" to-port="1"/>
		<edge from-layer="882" from-port="2" to-layer="884" to-port="0"/>
		<edge from-layer="883" from-port="1" to-layer="884" to-port="1"/>
		<edge from-layer="884" from-port="2" to-layer="886" to-port="0"/>
		<edge from-layer="885" from-port="1" to-layer="886" to-port="1"/>
		<edge from-layer="886" from-port="2" to-layer="888" to-port="0"/>
		<edge from-layer="887" from-port="1" to-layer="888" to-port="1"/>
		<edge from-layer="888" from-port="2" to-layer="890" to-port="0"/>
		<edge from-layer="889" from-port="1" to-layer="890" to-port="1"/>
		<edge from-layer="890" from-port="2" to-layer="892" to-port="0"/>
		<edge from-layer="891" from-port="1" to-layer="892" to-port="1"/>
		<edge from-layer="892" from-port="2" to-layer="894" to-port="0"/>
		<edge from-layer="893" from-port="1" to-layer="894" to-port="1"/>
		<edge from-layer="894" from-port="2" to-layer="896" to-port="0"/>
		<edge from-layer="895" from-port="1" to-layer="896" to-port="1"/>
		<edge from-layer="839" from-port="2" to-layer="897" to-port="0"/>
		<edge from-layer="858" from-port="2" to-layer="897" to-port="1"/>
		<edge from-layer="877" from-port="2" to-layer="897" to-port="2"/>
		<edge from-layer="896" from-port="2" to-layer="897" to-port="3"/>
		<edge from-layer="396" from-port="4" to-layer="898" to-port="0"/>
		<edge from-layer="521" from-port="4" to-layer="898" to-port="1"/>
		<edge from-layer="646" from-port="4" to-layer="898" to-port="2"/>
		<edge from-layer="771" from-port="4" to-layer="898" to-port="3"/>
		<edge from-layer="897" from-port="4" to-layer="898" to-port="4"/>
		<edge from-layer="898" from-port="5" to-layer="900" to-port="0"/>
		<edge from-layer="899" from-port="1" to-layer="900" to-port="1"/>
		<edge from-layer="900" from-port="2" to-layer="902" to-port="0"/>
		<edge from-layer="901" from-port="1" to-layer="902" to-port="1"/>
		<edge from-layer="902" from-port="2" to-layer="904" to-port="0"/>
		<edge from-layer="903" from-port="1" to-layer="904" to-port="1"/>
		<edge from-layer="276" from-port="2" to-layer="906" to-port="0"/>
		<edge from-layer="905" from-port="1" to-layer="906" to-port="1"/>
		<edge from-layer="906" from-port="2" to-layer="907" to-port="0"/>
		<edge from-layer="907" from-port="1" to-layer="909" to-port="0"/>
		<edge from-layer="908" from-port="1" to-layer="909" to-port="1"/>
		<edge from-layer="909" from-port="2" to-layer="911" to-port="0"/>
		<edge from-layer="910" from-port="1" to-layer="911" to-port="1"/>
		<edge from-layer="911" from-port="2" to-layer="912" to-port="0"/>
		<edge from-layer="912" from-port="1" to-layer="914" to-port="0"/>
		<edge from-layer="913" from-port="1" to-layer="914" to-port="1"/>
		<edge from-layer="914" from-port="2" to-layer="915" to-port="0"/>
		<edge from-layer="915" from-port="1" to-layer="917" to-port="0"/>
		<edge from-layer="916" from-port="1" to-layer="917" to-port="1"/>
		<edge from-layer="917" from-port="2" to-layer="919" to-port="0"/>
		<edge from-layer="918" from-port="1" to-layer="919" to-port="1"/>
		<edge from-layer="919" from-port="2" to-layer="920" to-port="0"/>
		<edge from-layer="920" from-port="1" to-layer="922" to-port="0"/>
		<edge from-layer="921" from-port="1" to-layer="922" to-port="1"/>
		<edge from-layer="922" from-port="2" to-layer="923" to-port="0"/>
		<edge from-layer="923" from-port="1" to-layer="925" to-port="0"/>
		<edge from-layer="924" from-port="1" to-layer="925" to-port="1"/>
		<edge from-layer="925" from-port="2" to-layer="927" to-port="0"/>
		<edge from-layer="926" from-port="1" to-layer="927" to-port="1"/>
		<edge from-layer="927" from-port="2" to-layer="928" to-port="0"/>
		<edge from-layer="928" from-port="1" to-layer="930" to-port="0"/>
		<edge from-layer="929" from-port="1" to-layer="930" to-port="1"/>
		<edge from-layer="930" from-port="2" to-layer="931" to-port="0"/>
		<edge from-layer="931" from-port="1" to-layer="933" to-port="0"/>
		<edge from-layer="932" from-port="1" to-layer="933" to-port="1"/>
		<edge from-layer="933" from-port="2" to-layer="935" to-port="0"/>
		<edge from-layer="934" from-port="1" to-layer="935" to-port="1"/>
		<edge from-layer="935" from-port="2" to-layer="936" to-port="0"/>
		<edge from-layer="936" from-port="1" to-layer="938" to-port="0"/>
		<edge from-layer="937" from-port="1" to-layer="938" to-port="1"/>
		<edge from-layer="938" from-port="2" to-layer="940" to-port="0"/>
		<edge from-layer="939" from-port="1" to-layer="940" to-port="1"/>
		<edge from-layer="940" from-port="2" to-layer="943" to-port="0"/>
		<edge from-layer="941" from-port="1" to-layer="943" to-port="1"/>
		<edge from-layer="942" from-port="1" to-layer="943" to-port="2"/>
		<edge from-layer="943" from-port="3" to-layer="945" to-port="0"/>
		<edge from-layer="944" from-port="1" to-layer="945" to-port="1"/>
		<edge from-layer="945" from-port="2" to-layer="947" to-port="0"/>
		<edge from-layer="946" from-port="1" to-layer="947" to-port="1"/>
		<edge from-layer="947" from-port="2" to-layer="948" to-port="0"/>
		<edge from-layer="401" from-port="2" to-layer="950" to-port="0"/>
		<edge from-layer="949" from-port="1" to-layer="950" to-port="1"/>
		<edge from-layer="950" from-port="2" to-layer="951" to-port="0"/>
		<edge from-layer="951" from-port="1" to-layer="953" to-port="0"/>
		<edge from-layer="952" from-port="1" to-layer="953" to-port="1"/>
		<edge from-layer="953" from-port="2" to-layer="955" to-port="0"/>
		<edge from-layer="954" from-port="1" to-layer="955" to-port="1"/>
		<edge from-layer="955" from-port="2" to-layer="956" to-port="0"/>
		<edge from-layer="956" from-port="1" to-layer="958" to-port="0"/>
		<edge from-layer="957" from-port="1" to-layer="958" to-port="1"/>
		<edge from-layer="958" from-port="2" to-layer="959" to-port="0"/>
		<edge from-layer="959" from-port="1" to-layer="961" to-port="0"/>
		<edge from-layer="960" from-port="1" to-layer="961" to-port="1"/>
		<edge from-layer="961" from-port="2" to-layer="963" to-port="0"/>
		<edge from-layer="962" from-port="1" to-layer="963" to-port="1"/>
		<edge from-layer="963" from-port="2" to-layer="964" to-port="0"/>
		<edge from-layer="964" from-port="1" to-layer="966" to-port="0"/>
		<edge from-layer="965" from-port="1" to-layer="966" to-port="1"/>
		<edge from-layer="966" from-port="2" to-layer="967" to-port="0"/>
		<edge from-layer="967" from-port="1" to-layer="969" to-port="0"/>
		<edge from-layer="968" from-port="1" to-layer="969" to-port="1"/>
		<edge from-layer="969" from-port="2" to-layer="971" to-port="0"/>
		<edge from-layer="970" from-port="1" to-layer="971" to-port="1"/>
		<edge from-layer="971" from-port="2" to-layer="972" to-port="0"/>
		<edge from-layer="972" from-port="1" to-layer="974" to-port="0"/>
		<edge from-layer="973" from-port="1" to-layer="974" to-port="1"/>
		<edge from-layer="974" from-port="2" to-layer="975" to-port="0"/>
		<edge from-layer="975" from-port="1" to-layer="977" to-port="0"/>
		<edge from-layer="976" from-port="1" to-layer="977" to-port="1"/>
		<edge from-layer="977" from-port="2" to-layer="979" to-port="0"/>
		<edge from-layer="978" from-port="1" to-layer="979" to-port="1"/>
		<edge from-layer="979" from-port="2" to-layer="980" to-port="0"/>
		<edge from-layer="980" from-port="1" to-layer="982" to-port="0"/>
		<edge from-layer="981" from-port="1" to-layer="982" to-port="1"/>
		<edge from-layer="982" from-port="2" to-layer="984" to-port="0"/>
		<edge from-layer="983" from-port="1" to-layer="984" to-port="1"/>
		<edge from-layer="984" from-port="2" to-layer="987" to-port="0"/>
		<edge from-layer="985" from-port="1" to-layer="987" to-port="1"/>
		<edge from-layer="986" from-port="1" to-layer="987" to-port="2"/>
		<edge from-layer="987" from-port="3" to-layer="989" to-port="0"/>
		<edge from-layer="988" from-port="1" to-layer="989" to-port="1"/>
		<edge from-layer="989" from-port="2" to-layer="991" to-port="0"/>
		<edge from-layer="990" from-port="1" to-layer="991" to-port="1"/>
		<edge from-layer="991" from-port="2" to-layer="992" to-port="0"/>
		<edge from-layer="526" from-port="2" to-layer="994" to-port="0"/>
		<edge from-layer="993" from-port="1" to-layer="994" to-port="1"/>
		<edge from-layer="994" from-port="2" to-layer="995" to-port="0"/>
		<edge from-layer="995" from-port="1" to-layer="997" to-port="0"/>
		<edge from-layer="996" from-port="1" to-layer="997" to-port="1"/>
		<edge from-layer="997" from-port="2" to-layer="999" to-port="0"/>
		<edge from-layer="998" from-port="1" to-layer="999" to-port="1"/>
		<edge from-layer="999" from-port="2" to-layer="1000" to-port="0"/>
		<edge from-layer="1000" from-port="1" to-layer="1002" to-port="0"/>
		<edge from-layer="1001" from-port="1" to-layer="1002" to-port="1"/>
		<edge from-layer="1002" from-port="2" to-layer="1003" to-port="0"/>
		<edge from-layer="1003" from-port="1" to-layer="1005" to-port="0"/>
		<edge from-layer="1004" from-port="1" to-layer="1005" to-port="1"/>
		<edge from-layer="1005" from-port="2" to-layer="1007" to-port="0"/>
		<edge from-layer="1006" from-port="1" to-layer="1007" to-port="1"/>
		<edge from-layer="1007" from-port="2" to-layer="1008" to-port="0"/>
		<edge from-layer="1008" from-port="1" to-layer="1010" to-port="0"/>
		<edge from-layer="1009" from-port="1" to-layer="1010" to-port="1"/>
		<edge from-layer="1010" from-port="2" to-layer="1011" to-port="0"/>
		<edge from-layer="1011" from-port="1" to-layer="1013" to-port="0"/>
		<edge from-layer="1012" from-port="1" to-layer="1013" to-port="1"/>
		<edge from-layer="1013" from-port="2" to-layer="1015" to-port="0"/>
		<edge from-layer="1014" from-port="1" to-layer="1015" to-port="1"/>
		<edge from-layer="1015" from-port="2" to-layer="1016" to-port="0"/>
		<edge from-layer="1016" from-port="1" to-layer="1018" to-port="0"/>
		<edge from-layer="1017" from-port="1" to-layer="1018" to-port="1"/>
		<edge from-layer="1018" from-port="2" to-layer="1019" to-port="0"/>
		<edge from-layer="1019" from-port="1" to-layer="1021" to-port="0"/>
		<edge from-layer="1020" from-port="1" to-layer="1021" to-port="1"/>
		<edge from-layer="1021" from-port="2" to-layer="1023" to-port="0"/>
		<edge from-layer="1022" from-port="1" to-layer="1023" to-port="1"/>
		<edge from-layer="1023" from-port="2" to-layer="1024" to-port="0"/>
		<edge from-layer="1024" from-port="1" to-layer="1026" to-port="0"/>
		<edge from-layer="1025" from-port="1" to-layer="1026" to-port="1"/>
		<edge from-layer="1026" from-port="2" to-layer="1028" to-port="0"/>
		<edge from-layer="1027" from-port="1" to-layer="1028" to-port="1"/>
		<edge from-layer="1028" from-port="2" to-layer="1031" to-port="0"/>
		<edge from-layer="1029" from-port="1" to-layer="1031" to-port="1"/>
		<edge from-layer="1030" from-port="1" to-layer="1031" to-port="2"/>
		<edge from-layer="1031" from-port="3" to-layer="1033" to-port="0"/>
		<edge from-layer="1032" from-port="1" to-layer="1033" to-port="1"/>
		<edge from-layer="1033" from-port="2" to-layer="1035" to-port="0"/>
		<edge from-layer="1034" from-port="1" to-layer="1035" to-port="1"/>
		<edge from-layer="1035" from-port="2" to-layer="1036" to-port="0"/>
		<edge from-layer="651" from-port="2" to-layer="1038" to-port="0"/>
		<edge from-layer="1037" from-port="1" to-layer="1038" to-port="1"/>
		<edge from-layer="1038" from-port="2" to-layer="1039" to-port="0"/>
		<edge from-layer="1039" from-port="1" to-layer="1041" to-port="0"/>
		<edge from-layer="1040" from-port="1" to-layer="1041" to-port="1"/>
		<edge from-layer="1041" from-port="2" to-layer="1043" to-port="0"/>
		<edge from-layer="1042" from-port="1" to-layer="1043" to-port="1"/>
		<edge from-layer="1043" from-port="2" to-layer="1044" to-port="0"/>
		<edge from-layer="1044" from-port="1" to-layer="1046" to-port="0"/>
		<edge from-layer="1045" from-port="1" to-layer="1046" to-port="1"/>
		<edge from-layer="1046" from-port="2" to-layer="1047" to-port="0"/>
		<edge from-layer="1047" from-port="1" to-layer="1049" to-port="0"/>
		<edge from-layer="1048" from-port="1" to-layer="1049" to-port="1"/>
		<edge from-layer="1049" from-port="2" to-layer="1051" to-port="0"/>
		<edge from-layer="1050" from-port="1" to-layer="1051" to-port="1"/>
		<edge from-layer="1051" from-port="2" to-layer="1052" to-port="0"/>
		<edge from-layer="1052" from-port="1" to-layer="1054" to-port="0"/>
		<edge from-layer="1053" from-port="1" to-layer="1054" to-port="1"/>
		<edge from-layer="1054" from-port="2" to-layer="1055" to-port="0"/>
		<edge from-layer="1055" from-port="1" to-layer="1057" to-port="0"/>
		<edge from-layer="1056" from-port="1" to-layer="1057" to-port="1"/>
		<edge from-layer="1057" from-port="2" to-layer="1059" to-port="0"/>
		<edge from-layer="1058" from-port="1" to-layer="1059" to-port="1"/>
		<edge from-layer="1059" from-port="2" to-layer="1060" to-port="0"/>
		<edge from-layer="1060" from-port="1" to-layer="1062" to-port="0"/>
		<edge from-layer="1061" from-port="1" to-layer="1062" to-port="1"/>
		<edge from-layer="1062" from-port="2" to-layer="1063" to-port="0"/>
		<edge from-layer="1063" from-port="1" to-layer="1065" to-port="0"/>
		<edge from-layer="1064" from-port="1" to-layer="1065" to-port="1"/>
		<edge from-layer="1065" from-port="2" to-layer="1067" to-port="0"/>
		<edge from-layer="1066" from-port="1" to-layer="1067" to-port="1"/>
		<edge from-layer="1067" from-port="2" to-layer="1068" to-port="0"/>
		<edge from-layer="1068" from-port="1" to-layer="1070" to-port="0"/>
		<edge from-layer="1069" from-port="1" to-layer="1070" to-port="1"/>
		<edge from-layer="1070" from-port="2" to-layer="1072" to-port="0"/>
		<edge from-layer="1071" from-port="1" to-layer="1072" to-port="1"/>
		<edge from-layer="1072" from-port="2" to-layer="1075" to-port="0"/>
		<edge from-layer="1073" from-port="1" to-layer="1075" to-port="1"/>
		<edge from-layer="1074" from-port="1" to-layer="1075" to-port="2"/>
		<edge from-layer="1075" from-port="3" to-layer="1077" to-port="0"/>
		<edge from-layer="1076" from-port="1" to-layer="1077" to-port="1"/>
		<edge from-layer="1077" from-port="2" to-layer="1079" to-port="0"/>
		<edge from-layer="1078" from-port="1" to-layer="1079" to-port="1"/>
		<edge from-layer="1079" from-port="2" to-layer="1080" to-port="0"/>
		<edge from-layer="777" from-port="2" to-layer="1082" to-port="0"/>
		<edge from-layer="1081" from-port="1" to-layer="1082" to-port="1"/>
		<edge from-layer="1082" from-port="2" to-layer="1083" to-port="0"/>
		<edge from-layer="1083" from-port="1" to-layer="1085" to-port="0"/>
		<edge from-layer="1084" from-port="1" to-layer="1085" to-port="1"/>
		<edge from-layer="1085" from-port="2" to-layer="1087" to-port="0"/>
		<edge from-layer="1086" from-port="1" to-layer="1087" to-port="1"/>
		<edge from-layer="1087" from-port="2" to-layer="1088" to-port="0"/>
		<edge from-layer="1088" from-port="1" to-layer="1090" to-port="0"/>
		<edge from-layer="1089" from-port="1" to-layer="1090" to-port="1"/>
		<edge from-layer="1090" from-port="2" to-layer="1091" to-port="0"/>
		<edge from-layer="1091" from-port="1" to-layer="1093" to-port="0"/>
		<edge from-layer="1092" from-port="1" to-layer="1093" to-port="1"/>
		<edge from-layer="1093" from-port="2" to-layer="1095" to-port="0"/>
		<edge from-layer="1094" from-port="1" to-layer="1095" to-port="1"/>
		<edge from-layer="1095" from-port="2" to-layer="1096" to-port="0"/>
		<edge from-layer="1096" from-port="1" to-layer="1098" to-port="0"/>
		<edge from-layer="1097" from-port="1" to-layer="1098" to-port="1"/>
		<edge from-layer="1098" from-port="2" to-layer="1099" to-port="0"/>
		<edge from-layer="1099" from-port="1" to-layer="1101" to-port="0"/>
		<edge from-layer="1100" from-port="1" to-layer="1101" to-port="1"/>
		<edge from-layer="1101" from-port="2" to-layer="1103" to-port="0"/>
		<edge from-layer="1102" from-port="1" to-layer="1103" to-port="1"/>
		<edge from-layer="1103" from-port="2" to-layer="1104" to-port="0"/>
		<edge from-layer="1104" from-port="1" to-layer="1106" to-port="0"/>
		<edge from-layer="1105" from-port="1" to-layer="1106" to-port="1"/>
		<edge from-layer="1106" from-port="2" to-layer="1107" to-port="0"/>
		<edge from-layer="1107" from-port="1" to-layer="1109" to-port="0"/>
		<edge from-layer="1108" from-port="1" to-layer="1109" to-port="1"/>
		<edge from-layer="1109" from-port="2" to-layer="1111" to-port="0"/>
		<edge from-layer="1110" from-port="1" to-layer="1111" to-port="1"/>
		<edge from-layer="1111" from-port="2" to-layer="1112" to-port="0"/>
		<edge from-layer="1112" from-port="1" to-layer="1114" to-port="0"/>
		<edge from-layer="1113" from-port="1" to-layer="1114" to-port="1"/>
		<edge from-layer="1114" from-port="2" to-layer="1116" to-port="0"/>
		<edge from-layer="1115" from-port="1" to-layer="1116" to-port="1"/>
		<edge from-layer="1116" from-port="2" to-layer="1119" to-port="0"/>
		<edge from-layer="1117" from-port="1" to-layer="1119" to-port="1"/>
		<edge from-layer="1118" from-port="1" to-layer="1119" to-port="2"/>
		<edge from-layer="1119" from-port="3" to-layer="1121" to-port="0"/>
		<edge from-layer="1120" from-port="1" to-layer="1121" to-port="1"/>
		<edge from-layer="1121" from-port="2" to-layer="1123" to-port="0"/>
		<edge from-layer="1122" from-port="1" to-layer="1123" to-port="1"/>
		<edge from-layer="1123" from-port="2" to-layer="1124" to-port="0"/>
		<edge from-layer="948" from-port="1" to-layer="1125" to-port="0"/>
		<edge from-layer="992" from-port="1" to-layer="1125" to-port="1"/>
		<edge from-layer="1036" from-port="1" to-layer="1125" to-port="2"/>
		<edge from-layer="1080" from-port="1" to-layer="1125" to-port="3"/>
		<edge from-layer="1124" from-port="1" to-layer="1125" to-port="4"/>
		<edge from-layer="936" from-port="1" to-layer="1127" to-port="0"/>
		<edge from-layer="1126" from-port="1" to-layer="1127" to-port="1"/>
		<edge from-layer="1127" from-port="2" to-layer="1129" to-port="0"/>
		<edge from-layer="1128" from-port="1" to-layer="1129" to-port="1"/>
		<edge from-layer="1129" from-port="2" to-layer="1132" to-port="0"/>
		<edge from-layer="1130" from-port="1" to-layer="1132" to-port="1"/>
		<edge from-layer="1131" from-port="1" to-layer="1132" to-port="2"/>
		<edge from-layer="1132" from-port="3" to-layer="1134" to-port="0"/>
		<edge from-layer="1133" from-port="1" to-layer="1134" to-port="1"/>
		<edge from-layer="1134" from-port="2" to-layer="1136" to-port="0"/>
		<edge from-layer="1135" from-port="1" to-layer="1136" to-port="1"/>
		<edge from-layer="1136" from-port="2" to-layer="1137" to-port="0"/>
		<edge from-layer="980" from-port="1" to-layer="1139" to-port="0"/>
		<edge from-layer="1138" from-port="1" to-layer="1139" to-port="1"/>
		<edge from-layer="1139" from-port="2" to-layer="1141" to-port="0"/>
		<edge from-layer="1140" from-port="1" to-layer="1141" to-port="1"/>
		<edge from-layer="1141" from-port="2" to-layer="1144" to-port="0"/>
		<edge from-layer="1142" from-port="1" to-layer="1144" to-port="1"/>
		<edge from-layer="1143" from-port="1" to-layer="1144" to-port="2"/>
		<edge from-layer="1144" from-port="3" to-layer="1146" to-port="0"/>
		<edge from-layer="1145" from-port="1" to-layer="1146" to-port="1"/>
		<edge from-layer="1146" from-port="2" to-layer="1148" to-port="0"/>
		<edge from-layer="1147" from-port="1" to-layer="1148" to-port="1"/>
		<edge from-layer="1148" from-port="2" to-layer="1149" to-port="0"/>
		<edge from-layer="1024" from-port="1" to-layer="1151" to-port="0"/>
		<edge from-layer="1150" from-port="1" to-layer="1151" to-port="1"/>
		<edge from-layer="1151" from-port="2" to-layer="1153" to-port="0"/>
		<edge from-layer="1152" from-port="1" to-layer="1153" to-port="1"/>
		<edge from-layer="1153" from-port="2" to-layer="1156" to-port="0"/>
		<edge from-layer="1154" from-port="1" to-layer="1156" to-port="1"/>
		<edge from-layer="1155" from-port="1" to-layer="1156" to-port="2"/>
		<edge from-layer="1156" from-port="3" to-layer="1158" to-port="0"/>
		<edge from-layer="1157" from-port="1" to-layer="1158" to-port="1"/>
		<edge from-layer="1158" from-port="2" to-layer="1160" to-port="0"/>
		<edge from-layer="1159" from-port="1" to-layer="1160" to-port="1"/>
		<edge from-layer="1160" from-port="2" to-layer="1161" to-port="0"/>
		<edge from-layer="1068" from-port="1" to-layer="1163" to-port="0"/>
		<edge from-layer="1162" from-port="1" to-layer="1163" to-port="1"/>
		<edge from-layer="1163" from-port="2" to-layer="1165" to-port="0"/>
		<edge from-layer="1164" from-port="1" to-layer="1165" to-port="1"/>
		<edge from-layer="1165" from-port="2" to-layer="1168" to-port="0"/>
		<edge from-layer="1166" from-port="1" to-layer="1168" to-port="1"/>
		<edge from-layer="1167" from-port="1" to-layer="1168" to-port="2"/>
		<edge from-layer="1168" from-port="3" to-layer="1170" to-port="0"/>
		<edge from-layer="1169" from-port="1" to-layer="1170" to-port="1"/>
		<edge from-layer="1170" from-port="2" to-layer="1172" to-port="0"/>
		<edge from-layer="1171" from-port="1" to-layer="1172" to-port="1"/>
		<edge from-layer="1172" from-port="2" to-layer="1173" to-port="0"/>
		<edge from-layer="1112" from-port="1" to-layer="1175" to-port="0"/>
		<edge from-layer="1174" from-port="1" to-layer="1175" to-port="1"/>
		<edge from-layer="1175" from-port="2" to-layer="1177" to-port="0"/>
		<edge from-layer="1176" from-port="1" to-layer="1177" to-port="1"/>
		<edge from-layer="1177" from-port="2" to-layer="1180" to-port="0"/>
		<edge from-layer="1178" from-port="1" to-layer="1180" to-port="1"/>
		<edge from-layer="1179" from-port="1" to-layer="1180" to-port="2"/>
		<edge from-layer="1180" from-port="3" to-layer="1182" to-port="0"/>
		<edge from-layer="1181" from-port="1" to-layer="1182" to-port="1"/>
		<edge from-layer="1182" from-port="2" to-layer="1184" to-port="0"/>
		<edge from-layer="1183" from-port="1" to-layer="1184" to-port="1"/>
		<edge from-layer="1184" from-port="2" to-layer="1185" to-port="0"/>
		<edge from-layer="1137" from-port="1" to-layer="1186" to-port="0"/>
		<edge from-layer="1149" from-port="1" to-layer="1186" to-port="1"/>
		<edge from-layer="1161" from-port="1" to-layer="1186" to-port="2"/>
		<edge from-layer="1173" from-port="1" to-layer="1186" to-port="3"/>
		<edge from-layer="1185" from-port="1" to-layer="1186" to-port="4"/>
		<edge from-layer="1186" from-port="5" to-layer="1188" to-port="0"/>
		<edge from-layer="1187" from-port="1" to-layer="1188" to-port="1"/>
		<edge from-layer="1188" from-port="2" to-layer="1190" to-port="0"/>
		<edge from-layer="1189" from-port="1" to-layer="1190" to-port="1"/>
		<edge from-layer="1125" from-port="5" to-layer="1191" to-port="0"/>
		<edge from-layer="1190" from-port="2" to-layer="1191" to-port="1"/>
		<edge from-layer="1191" from-port="2" to-layer="1193" to-port="0"/>
		<edge from-layer="1192" from-port="1" to-layer="1193" to-port="1"/>
		<edge from-layer="1193" from-port="2" to-layer="1195" to-port="0"/>
		<edge from-layer="1194" from-port="1" to-layer="1195" to-port="1"/>
		<edge from-layer="902" from-port="2" to-layer="1199" to-port="0"/>
		<edge from-layer="1195" from-port="2" to-layer="1199" to-port="1"/>
		<edge from-layer="1196" from-port="1" to-layer="1199" to-port="2"/>
		<edge from-layer="1197" from-port="1" to-layer="1199" to-port="3"/>
		<edge from-layer="1198" from-port="1" to-layer="1199" to-port="4"/>
		<edge from-layer="1199" from-port="5" to-layer="1200" to-port="0"/>
		<edge from-layer="1200" from-port="1" to-layer="1203" to-port="0"/>
		<edge from-layer="1201" from-port="1" to-layer="1203" to-port="1"/>
		<edge from-layer="1202" from-port="1" to-layer="1203" to-port="2"/>
		<edge from-layer="1203" from-port="3" to-layer="1205" to-port="0"/>
		<edge from-layer="1204" from-port="1" to-layer="1205" to-port="1"/>
		<edge from-layer="1205" from-port="2" to-layer="1206" to-port="0"/>
		<edge from-layer="1203" from-port="5" to-layer="1206" to-port="1"/>
		<edge from-layer="904" from-port="2" to-layer="1208" to-port="0"/>
		<edge from-layer="1206" from-port="2" to-layer="1208" to-port="1"/>
		<edge from-layer="1207" from-port="1" to-layer="1208" to-port="2"/>
		<edge from-layer="1208" from-port="3" to-layer="1210" to-port="0"/>
		<edge from-layer="1209" from-port="1" to-layer="1210" to-port="1"/>
		<edge from-layer="1195" from-port="2" to-layer="1212" to-port="0"/>
		<edge from-layer="1211" from-port="1" to-layer="1212" to-port="1"/>
		<edge from-layer="1203" from-port="3" to-layer="1214" to-port="0"/>
		<edge from-layer="1213" from-port="1" to-layer="1214" to-port="1"/>
		<edge from-layer="1214" from-port="2" to-layer="1215" to-port="0"/>
		<edge from-layer="1203" from-port="4" to-layer="1215" to-port="1"/>
		<edge from-layer="1215" from-port="2" to-layer="1217" to-port="0"/>
		<edge from-layer="1216" from-port="1" to-layer="1217" to-port="1"/>
		<edge from-layer="1217" from-port="2" to-layer="1218" to-port="0"/>
		<edge from-layer="1203" from-port="5" to-layer="1218" to-port="1"/>
		<edge from-layer="1212" from-port="2" to-layer="1220" to-port="0"/>
		<edge from-layer="1218" from-port="2" to-layer="1220" to-port="1"/>
		<edge from-layer="1219" from-port="1" to-layer="1220" to-port="2"/>
		<edge from-layer="1220" from-port="3" to-layer="1222" to-port="0"/>
		<edge from-layer="1221" from-port="1" to-layer="1222" to-port="1"/>
		<edge from-layer="1203" from-port="4" to-layer="1223" to-port="0"/>
		<edge from-layer="1223" from-port="1" to-layer="1225" to-port="0"/>
		<edge from-layer="1224" from-port="1" to-layer="1225" to-port="1"/>
		<edge from-layer="1210" from-port="2" to-layer="1226" to-port="0"/>
		<edge from-layer="1222" from-port="2" to-layer="1226" to-port="1"/>
		<edge from-layer="1225" from-port="2" to-layer="1226" to-port="2"/>
		<edge from-layer="1226" from-port="3" to-layer="1229" to-port="0"/>
		<edge from-layer="1227" from-port="1" to-layer="1229" to-port="1"/>
		<edge from-layer="1228" from-port="1" to-layer="1229" to-port="2"/>
		<edge from-layer="1229" from-port="3" to-layer="1231" to-port="0"/>
		<edge from-layer="1230" from-port="1" to-layer="1231" to-port="1"/>
		<edge from-layer="1231" from-port="2" to-layer="1233" to-port="0"/>
		<edge from-layer="1232" from-port="1" to-layer="1233" to-port="1"/>
		<edge from-layer="1233" from-port="2" to-layer="1234" to-port="0"/>
		<edge from-layer="1226" from-port="3" to-layer="1236" to-port="0"/>
		<edge from-layer="1233" from-port="3" to-layer="1236" to-port="1"/>
		<edge from-layer="1235" from-port="1" to-layer="1236" to-port="2"/>
		<edge from-layer="1236" from-port="3" to-layer="1239" to-port="0"/>
		<edge from-layer="1237" from-port="1" to-layer="1239" to-port="1"/>
		<edge from-layer="1238" from-port="1" to-layer="1239" to-port="2"/>
		<edge from-layer="1239" from-port="4" to-layer="1240" to-port="0"/>
		<edge from-layer="1239" from-port="3" to-layer="1241" to-port="0"/>
		<edge from-layer="1236" from-port="3" to-layer="1244" to-port="0"/>
		<edge from-layer="1242" from-port="1" to-layer="1244" to-port="1"/>
		<edge from-layer="1243" from-port="1" to-layer="1244" to-port="2"/>
		<edge from-layer="1244" from-port="3" to-layer="1245" to-port="0"/>
		<edge from-layer="1245" from-port="1" to-layer="1247" to-port="0"/>
		<edge from-layer="1246" from-port="1" to-layer="1247" to-port="1"/>
		<edge from-layer="1247" from-port="2" to-layer="1248" to-port="0"/>
	</edges>
	<meta_data>
		<MO_version value="2020.2.0-37-gd17ecf5ae7"/>
		<cli_parameters>
			<blobs_as_inputs value="True"/>
			<caffe_parser_path value="DIR"/>
			<data_type value="FP32"/>
			<disable_nhwc_to_nchw value="False"/>
			<disable_omitting_optional value="False"/>
			<disable_resnet_optimization value="False"/>
			<disable_weights_compression value="False"/>
			<enable_concat_optimization value="False"/>
			<enable_flattening_nested_params value="False"/>
			<enable_ssd_gluoncv value="False"/>
			<extensions value="DIR"/>
			<framework value="onnx"/>
			<freeze_placeholder_with_value value="{}"/>
			<generate_deprecated_IR_V2 value="False"/>
			<generate_deprecated_IR_V7 value="False"/>
			<generate_experimental_IR_V10 value="True"/>
			<input value="image"/>
			<input_model value="DIR/model.onnx"/>
			<input_model_is_text value="False"/>
			<input_shape value="[1,3,416,416]"/>
			<k value="DIR/CustomLayersMapping.xml"/>
			<keep_quantize_ops_in_IR value="True"/>
			<keep_shape_ops value="False"/>
			<legacy_mxnet_model value="False"/>
			<log_level value="ERROR"/>
			<mean_scale_values value="{'image': {'mean': None, 'scale': array([255.])}}"/>
			<mean_values value="()"/>
			<model_name value="face-detection-0105"/>
			<move_to_preprocess value="False"/>
			<output value="['boxes', 'labels']"/>
			<output_dir value="DIR"/>
			<placeholder_data_types value="{}"/>
			<placeholder_shapes value="{'image': array([  1,   3, 416, 416])}"/>
			<progress value="False"/>
			<remove_memory value="False"/>
			<remove_output_softmax value="False"/>
			<reverse_input_channels value="True"/>
			<save_params_from_nd value="False"/>
			<scale_values value="image[255.0]"/>
			<silent value="False"/>
			<stream_output value="False"/>
			<unset unset_cli_parameters="batch, counts, disable_fusing, disable_gfusing, finegrain_fusing, input_checkpoint, input_meta_graph, input_proto, input_symbol, mean_file, mean_file_offsets, nd_prefix_name, pretrained_model_name, saved_model_dir, saved_model_tags, scale, tensorboard_logdir, tensorflow_custom_layer_libraries, tensorflow_custom_operations_config_update, tensorflow_object_detection_api_pipeline_config, tensorflow_use_custom_operations_config, transformations_config"/>
		</cli_parameters>
	</meta_data>
</net>
